latest_results/grud_final_output/split_4/checkpoint.pt (torch, 410658 bytes, 22 tensors)

rnn.cell.kernel_z f4 [128, 37]
00000000: f2c0 173e 6e2e 94bd 019a 233e afab 3a3e
00000010: cad7 81bd 92ca f0bc 2d9f 98bd 939a 0a3e
00000020: 1013 b73d ada6 1ebd b28b 453c 6765 42be
00000030: 32fc 95bd 73b4 42bd aa2c 533d de30 dbbd
00000040: 395e 29be 269d bdbc ec0b 1fbe 2bcd 343e
00000050: ff43 aa3d 2fc5 40bc c53a 213e 5012 913d
00000060: 7ea9 153e 7113 203d 8d33 993c 0117 d93c
00000070: 0eca 3d3e 6934 ac3d 0620 2abe 8dac 79bd
00000080: 3fd5 eebc 21f9 f93d aabd 643d 89a7 dbbd
00000090: 799e 01be 4815 43bd 3abd 06be 02a4 8fbd
000000a0: 2de7 fa3d c303 973c 4ec4 ca3d 69a7 5dbc
000000b0: be2f e6bd 751a ac3d a22d 2d3e 53cb ddbb
000000c0: 9211 fbbc 4a9b 023e f17e 333e a9f0 e4bc
000000d0: 9d4c 083e 00e0 50bc 14f4 03be 2683 a23d
000000e0: d62a 20be adbf 273e 1bad 1cbc 842b 8abd
000000f0: 4050 20bb 4f0d 09be 9238 c8bb 3427 963d
00000100: 2c7c 35be c921 efbd a5d4 423e 8015 e1bd
00000110: 39c0 15bd 5b57 acbd 18e3 1f3d a112 2abe
00000120: 61c1 30be 710a cb3d cca5 99bd 2925 283d
00000130: a8c3 a33d 031f f43d 6b59 a23d b055 0d3b
00000140: 7fd2 513e 611c ce3d 1860 cdbd e7c9 b93d
00000150: ad1a e83d fb5c 5ebe d973 d8bd 15b3 6dbd
00000160: e7d4 f0bd 0bc1 093e 4241 28bd 7673 31ba
00000170: 3d04 ce3c 1782 823d 4b50 a8bd 685d 3f3e
00000180: 9049 463d fb3d 39bc 95b8 613d f9ca f3bc
00000190: 979a 66be 6eca 833d 2146 573d 4533 353c
000001a0: afcf 403d f74c f4bd ab47 e03d 5b4d 1f3e
000001b0: 5b80 13be 950e df3d 683d 883d 53a1 acbd
000001c0: f0ed 113d 3b7e 773d 8a7e 00be 3324 e3bd
000001d0: 91b1 993d aa94 b33d e494 1e3e 7851 853d
000001e0: 744c 3b3d 8f82 09be d78d 0a3d e645 463e
000001f0: ee3d 7a3d 2780 b5bc 78d4 323e 5960 f73d
00000200: 45d4 19bd 7799 34be a5c7 163e e9fb 13be
00000210: 0c5e 2e3e 4b6f 103e 222f d6bd ad04 0bbe
00000220: c2f1 c0bd ff0b a3bd eb8b 19be 667d d6bd
00000230: 198b 27bd 5ef8 3cbe 1a4c 17be 1e81 963d
00000240: c423 0ebe 2208 6abe 209a f53d 7dcc 25be
00000250: 3684 5c3e 5a99 1bbd a739 31be 1905 093e
00000260: 9ed5 463d df8e c23c 52fb 133d 9ae1 1f3e
00000270: 313c 64bd 8323 2abd 0d61 e1bd 95bf 0e3e
00000280: 62ca 173e 77f7 50be e011 1abe 6762 fb3b
00000290: 7aa0 3ebe 445d 57be f684 fb3d 8ea6 233e
000002a0: e805 d73d 59c0 2b3d adcd 49bd f07a 3ebe
000002b0: 2fd9 813d 885d 863d 7b5c 803c cf1a 0a3e
000002c0: 58c5 2abe 58d4 97bd 2e86 c03d dc56 403d
000002d0: b160 e83d 9b36 103e becd ca3c 5f00 8a3d
000002e0: 6c19 313d 08de 1d3e 5912 89bd ef7b f73d
000002f0: 5c8a 363e 80a9 ea3d 88f0 52bd f6b2 223d
00000300: 2940 22bd b9f7 32be f50c f7bd 8ee3 cb3d
00000310: 2ae8 b63d f40f 0f3e 8269 c1bd 0ca7 d73d
00000320: a167 b23d 4405 9ebb 17e1 5f3d 734b d13d
00000330: 536b 813d e074 873d b8bd 053e 457c 143e
00000340: ee93 003e 2a54 af3d e357 173e b2c8 bc3c
00000350: 1c38 153e 7ab1 f0bd 848c 0f3e 2580 7c3d
00000360: 5110 313d 5c78 6838 1d7a a9bd f281 65bd
00000370: 1b9a 25bd 00fb 46bd 6837 fa3b c38c 2e3c
00000380: ca3c b9bd 7455 42be ebb0 95bb 3d05 36be
00000390: af17 033d 1485 27bd 2105 3e3e 03f1 50be
000003a0: fcd6 df3d 5808 9b3d bae1 4d3b 4be6 b4bd
000003b0: e6d9 cebd b692 943c 8b03 0dbe dccb 7cbe
000003c0: 29e1 663c 6432 febb acf2 e83d 11c8 1a3e
000003d0: 29cf 5a3d 27c6 11be 12bf bf3d 3c47 f2bd
000003e0: 6074 97bc 351e 38bd 33c8 fdbd fbe9 dd3d
000003f0: ed58 debd 1263 ba3c 2ef7 f9bd c503 97bd
0.14819697 -0.07235418 0.15976717 0.18229555 -0.063399866 -0.029393468 -0.07452235 0.13535528
0.08939183 -0.038733173 0.012057232 -0.18983994 -0.07323493 -0.04753537 0.051556267 -0.1070268
-0.1653985 -0.023146223 -0.15531892 0.1765639 0.083137505 -0.011765762 0.15745075 0.07083571
0.14615437 0.03908104 0.01870134 0.026500227 0.18534109 0.08408434 -0.16613778 -0.060955573
-0.029154418 0.12205721 0.05584494 -0.10725314 -0.12658109 -0.047627717 -0.13158122 -0.07013704
0.122511245 0.01843441 0.099007234 -0.013528683 -0.11239575 0.08403484 0.16911939 -0.006768623
-0.030648027 0.1275455 0.17528893 -0.027946787 0.13310476 -0.012748718 -0.12886077 0.07935171
-0.1564134 0.16381712 -0.009562756 -0.06746581 -0.0024461895 -0.13383983 -0.0061102593 0.07331696
-0.17723149 -0.11676366 0.1902643 -0.10990429 -0.03656027 -0.08415099 0.039034933 -0.16608669
-0.17261268 0.09914101 -0.07502326 0.041051064 0.07996303 0.119199775 0.079272114 0.0021565966
0.20490454 0.100640066 -0.10028094 0.09071713 0.11333213 -0.21715157 -0.10568971 -0.058032114
-0.11759358 0.13452546 -0.04107786 -0.0006769219 0.025148505 0.06372469 -0.0821844 0.18687975
0.04841 -0.011306281 0.05510767 -0.02975987 -0.22519909 0.06435095 0.052557115 0.011059587
0.047073063 -0.119287424 0.109511696 0.15556853 -0.14404432 0.10891453 0.06652337 -0.08429208
0.035627306 0.060423117 -0.12548271 -0.11090889 0.07504571 0.0876859 0.15486485 0.065096796
0.04572721 -0.1342871 0.033826675 0.19362602 0.061094217 -0.022155834 0.17463863 0.12078924
-0.03755595 -0.17636667 0.14724596 -0.14451565 0.17028064 0.14104955 -0.104582086 -0.13576002
-0.09421112 -0.079612724 -0.1499478 -0.104731366 -0.04090414 -0.1845412 -0.14775124 0.07348846
-0.13880831 -0.22854665 0.11992288 -0.16191287 0.2153481 -0.037988044 -0.17307149 0.13380851
0.048543565 0.023749767 0.03612835 0.15613404 -0.055721465 -0.041537773 -0.11004839 0.1394027
0.14823297 -0.204069 -0.15045881 0.0076716426 -0.18615904 -0.21031672 0.1228122 0.15981504
0.104991734 0.041931484 -0.049268413 -0.18601584 0.063402526 0.065608084 0.015669098 0.13486789
-0.16676843 -0.07413548 0.09400593 0.046957836 0.113465674 0.1408333 0.024756309 0.06738352
0.043237135 0.1541673 -0.06692953 0.12084185 0.17826217 0.11458111 -0.05149892 0.03972145
-0.03961197 -0.17477311 -0.12063018 0.09955512 0.089310005 0.1397093 -0.09443952 0.105299085
0.08711172 -0.004822405 0.05465802 0.10219469 0.063192986 0.06614089 0.13060653 0.1450053
0.1255643 0.08560975 0.1477962 0.023044918 0.14572185 -0.11752601 0.14018446 0.061645646
0.04322845 5.5425204e-05 -0.082752444 -0.05603213 -0.04043017 -0.048579216 0.0076359995 0.010653677
-0.09044798 -0.1897791 -0.0045682094 -0.17775436 0.03200501 -0.040898398 0.18556644 -0.20404439
0.10929677 0.07569951 0.003141506 -0.088329874 -0.101001546 0.018136363 -0.13770883 -0.24687141
0.014091768 -0.007757472 0.11374411 0.15115382 0.05342022 -0.14235745 0.09362616 -0.11829993
-0.01848811 -0.044950683 -0.123917006 0.10835644 -0.10856805 0.022752319 -0.12205349 -0.07373766

rnn.cell.kernel_r f4 [128, 37]
00000000: d377 13be 082a e53d 0320 11be d3d3 22be
00000010: 99e2 7bbc 166a 383e dbd7 103e 2236 fbbd
00000020: 1665 f3bc 0b84 053e 57ef 103d 927f 063e
00000030: e76b 1dbe 2feb 1c3e 2384 0c3e 2996 06bd
00000040: 9d36 17be 07a9 1e3e 93ca 1b3e e037 09bd
00000050: f6ca 963d 2e06 8bbd 373f b8ba c4dc ff3c
00000060: cd12 4fbe 1169 31bd 3eb7 fa3d 5e20 3e3d
00000070: 8e75 46bc 77bd b4bd 2273 613d 7811 9fbc
00000080: 0fb3 0bbe 191d ddbd 5d51 f63d 0e2f 27be
00000090: 44d4 fe3d ab55 e6bd b944 0fbe 34ce 943c
000000a0: e1be a9bd ecb8 053e 946c fc3d 8b34 d73b
000000b0: 39de edbc 0246 fdbd e26a 6fbd 3139 ce3d
000000c0: 5d49 c5bb 15f9 68be 666b 8cbc 2a33 3fbe
000000d0: 5a27 023c db0d 3a3e ec7f 02be 1f51 1ebe
000000e0: 55b0 8cbd a82c 82bd b949 07bd 5542 8cbd
000000f0: 6683 abbd e8b6 90bb 8408 f63d 0ae4 08bb
00000100: 71ce 2bbe aeb8 f8bc 7d89 653c 3060 643d
00000110: 1ea3 8c3d f09f cfbd 36d6 25be 58ed 303e
00000120: e90e 26be 42bc e13d 8a62 b1bd 0945 25bc
00000130: 87c3 e13d 9d88 64bc 6b12 cabc b11d cebc
00000140: 23be 7b3e 1116 123e f0d7 9dbd cfdf 84bb
00000150: 6a3b 5c3e 2b67 8cbe 5568 793d 79a7 94bc
00000160: 99e7 b7bd b363 bebd d047 b4bd d4ca d8bc
00000170: 5335 da3b 9289 2bbe 7ac8 b13c 51f1 05bc
00000180: d493 a23c 197a edbd a1c3 c2bd e829 283e
00000190: 492e 313d 0158 b0bd b589 12be 78f5 2e3e
000001a0: 580b b4bc 3326 47be 8b15 993d f0ca d43c
000001b0: 97a9 69bd 29ff 5cbd 4e48 1bbe 83e2 cb3d
000001c0: b4d6 4c3d 8f67 3d3d 1148 87bc 4f5f 2c3d
000001d0: 34a8 95bd ba8d 41be 084c f93d bfe6 223d
000001e0: 3d27 e9bd 159c f23d 5829 0abe 815c 0d3e
000001f0: 2852 50bc 341b a5bc f97a 47be 69b9 1f3d
00000200: 30e4 55bd 35f7 1d3c 48f0 2ebe daf2 1ebe
00000210: 4898 25be c8f1 debd 1af0 183e 2f79 243e
00000220: 5216 d13d c6a8 473e c1d6 1a3e 9c0d 1bbe
00000230: ffe8 1dbd f1ce 2ebe 8d40 58be 5ad4 b8bb
00000240: b397 7dbd 54e9 c63d 7f50 86bd 528c 113e
00000250: 6883 023d 62b1 303c c2cc a53c 68d6 913d
00000260: 6dfe 53be cdeb 463e e66f 113e 089c 7c39
00000270: c0cf e9bd d41d 4c3d 478c 16be 5580 5dbe
00000280: d3bb bd3d 6c2d e63d b414 393d 102e 1e3d
00000290: c384 24be 55e2 e8bc abf2 4e3d db97 353d
000002a0: 7857 b53c be4e 3ebe 15f2 0c3e cab0 4c3e
000002b0: 06e5 c93c fa5e 32be e389 9f3b 1ab5 4f3c
000002c0: badd ec3d a133 37be 195a 02be fae4 36bd
000002d0: 4cce f63d 2dc4 ec3c 0187 c83d a144 333e
000002e0: d5e2 5a3d f800 2abe 5bb4 89bd 7117 4f3e
000002f0: 2e89 1e3e f482 fb3d de59 2ebe ec93 073e
00000300: 2f4d 89bd 5dd0 263e 1e30 04bd 7675 0fbe
00000310: 7acd 603e 918c edbd 573e f33c c4d9 28bd
00000320: 17d5 823d 5cd1 1a3e 4a15 36bc bbb8 8d3d
00000330: 301b 1bbd d9eb 2abe e469 0d3e 4d00 b6bd
00000340: 16a6 24be 1a01 813d 737d 3f3e 03f7 f6bc
00000350: 0233 073e 8556 583d e0fb ce3c 69d8 d83d
00000360: 3258 303e 8fc6 be3c 2c2f cfbc 2f63 cc3d
00000370: 276a 00bd fb85 0c3e bb54 95bd 2d9a 88bd
00000380: 18dc 3a3e 029f 08be 96cc e2bd 51ee 5cbe
00000390: d973 c3bc 25ff 223e 5c7f cc3a b9ee c8bd
000003a0: e3b4 3cbe 5fdc d23d 9f7d 683d 365f bb3d
000003b0: 3e1f 293e 622f 81bc 2ded 123e f333 0fbe
000003c0: 5539 04bc b80f 423e 2bb2 47bd 28ce 193d
000003d0: 0239 e23d 952a cf3d 9734 fb3d 7750 3f3e
000003e0: f36c 31be a1e8 e4bd 25e0 af3d 7803 ecbc
000003f0: 1eca 183e 6914 853d d812 ebbd 6c53 003e
-0.14401178 0.111896574 -0.14172368 -0.15901117 -0.015373849 0.18009219 0.14144842 -0.122661844
-0.029711287 0.13038652 0.035384502 0.13134602 -0.15373193 0.1532409 0.13722281 -0.032858048
-0.14766927 0.15494166 0.15213995 -0.033500552 0.073629305 -0.06788288 -0.0014056925 0.031233199
-0.20222016 -0.04331309 0.12241982 0.046417587 -0.012112988 -0.088252 0.05504144 -0.01941751
-0.13642524 -0.107965656 0.120272376 -0.16326544 0.1244283 -0.112468086 -0.1399106 0.018164732
-0.082883604 0.13058823 0.12325397 0.006567543 -0.029036628 -0.123668686 -0.05845154 0.10069502
-0.0060207085 -0.22751267 -0.017141055 -0.18671861 0.007943952 0.18169348 -0.12744111 -0.15460633
-0.0686957 -0.06356174 -0.03302929 -0.06848589 -0.08374672 -0.0044163354 0.12013343 -0.0020887875
-0.1677797 -0.0303615 0.014009831 0.055755794 0.0686705 -0.101379275 -0.16194996 0.1727804
-0.16216625 0.110222355 -0.08661373 -0.01008726 0.11023622 -0.013948587 -0.024666985 -0.025160642
0.2458425 0.1426623 -0.077072024 -0.0040550004 0.2150704 -0.2742246 0.060890514 -0.018146263
-0.089797206 -0.0929636 -0.0880276 -0.026463903 0.006659189 -0.16751698 0.02170204 -0.00817521
0.01984588 -0.11595554 -0.095099695 0.16422236 0.04325703 -0.086105354 -0.14310344 0.17085826
-0.021978065 -0.19448166 0.07474812 0.025975674 -0.0570465 -0.053954277 -0.15164301 0.09955313
0.050009444 0.04624134 -0.016513856 0.04208308 -0.07307473 -0.1890172 0.12172705 0.039770838
-0.11384437 0.118461765 -0.13492334 0.13804819 -0.0127149 -0.020154573 -0.19480504 0.03899518
-0.05221957 0.009641458 -0.17083848 -0.15522328 -0.16171372 -0.1088596 0.14935341 0.16061853
0.102093354 0.19497976 0.15120985 -0.1514191 -0.03855228 -0.1707113 -0.21118374 -0.0056405487
-0.06191225 0.097124726 -0.06558322 0.14213684 0.0318636 0.010784479 0.020239238 0.07120973
-0.20702524 0.19425888 0.14202842 0.00024090719 -0.11416578 0.049833134 -0.14701949 -0.21630986
0.0926434 0.11239132 0.04518576 0.038618147 -0.1606627 -0.028428236 0.050524395 0.044334274
0.022136435 -0.18584725 0.13764222 0.19989315 0.02464534 -0.17419043 0.0048687323 0.012677455
0.115657285 -0.17890789 -0.12729682 -0.044651963 0.12051067 0.028902138 0.09791375 0.17506649
0.05343898 -0.16601932 -0.06723853 0.20223786 0.15482017 0.12280837 -0.17026469 0.13240021
-0.06704175 0.16290422 -0.03227245 -0.14009652 0.21953383 -0.115990765 0.029692812 -0.041223302
0.063883 0.15118927 -0.011113474 0.0692 -0.037867725 -0.16691531 0.13809925 -0.08886776
-0.16078982 0.06299038 0.18700199 -0.030147081 0.13203052 0.052816886 0.025266588 0.10588152
0.17221144 0.02328804 -0.025291048 0.09979855 -0.031351235 0.13722984 -0.07291552 -0.06670032
0.18248022 -0.13341907 -0.11074178 -0.21575285 -0.023858951 0.15917642 0.0015601921 -0.09811158
-0.18428378 0.10295939 0.056760427 0.091490194 0.16515824 -0.015769664 0.14348288 -0.13984661
-0.00807031 0.18951309 -0.0487539 0.03755012 0.110460296 0.10115544 0.1226589 0.18683039
-0.17326717 -0.11177183 0.08587674 -0.028810248 0.14920852 0.064980336 -0.114782035 0.12531823

rnn.cell.kernel_h f4 [128, 37]
00000000: 6786 27be 9643 163e d497 1d3e 1ce8 d33b
00000010: b910 d4bd eb6e d73d 7424 3cbe ee74 463e
00000020: 9835 673c ad90 cebd 4d8e 3c3d 16ed abbb
00000030: 2e6d fdbd eb50 543e 3bf3 893d 0a54 cdbd
00000040: 75d2 0abc fdc4 bebd 0251 d4bd b2ec 1d3d
00000050: ad5d d43d 8069 2d3d 7f43 04be 4b14 e93d
00000060: 1dd2 973d 67cc 283d 1b1e ecbc 542e e73d
00000070: 5858 07bd 8bf2 093e 8510 593d 31b1 403e
00000080: aa1a 96bd ae23 fa3d 86e3 edbd 1b31 253e
00000090: 004e 1b3e f691 00be 44ec 48be 774a 193c
000000a0: 04d0 82bd bdf9 a63d 10e0 3a3d 6ab8 d6bd
000000b0: 281c b63d bcc2 96bd c3d2 05be 2c8d 833d
000000c0: 2ace c0bd 17d2 413c 89a9 f3bd 5b55 1dbe
000000d0: 3c66 fa3d 5968 10be 74d7 bebd 0026 24be
000000e0: d733 11be 417f c73d f91a 343e ab26 b4bd
000000f0: 465a 47bd cdc5 823d 099f df3d f35a 403d
00000100: d14b fabd 2062 a0bc afcb ee3c d2ce 12be
00000110: 6098 f2bd b12c cbbd 528f c9bd 8715 69bd
00000120: 8005 0d3e 6362 4dbe 7f67 b2bd cdd6 4abe
00000130: b38b 76bc 7821 6cbd f3ac ba3c d0ef 76bd
00000140: f7be e63c 57e0 15be 7237 01bc f18d a4bd
00000150: badb 01be 1e00 043e 9c3d 923d 7f95 82bd
00000160: f47a 673d f1b8 863d 4bd7 20be f7d9 743d
00000170: e91f bbbd 9aae 3b3e f01e 033e 81c2 bf3d
00000180: dbfe acbd 5752 e13c 8e6c 54bd 1836 2c3d
00000190: f3b3 85bd 1c48 8dbd 5ecf ab3d 2ff6 063e
000001a0: bf24 af3d 97c1 a2bd 903d d6bd e2c3 e83d
000001b0: 6f96 443e 54ac 00bd 75d7 b4bd 82d9 123e
000001c0: 696f 053c 3f6b 203e bfc9 1ebe 27fc 8b3d
000001d0: 4e0d 24bd e336 8fbc 6a57 febd cb32 59bc
000001e0: 631a b93d 02e8 f13c 739a 71bc b036 14bc
000001f0: ef88 86bd 547f 3cbe cd30 2cbe e316 fbbc
00000200: 35b5 1fbe 204d 9a3d 115f 0a3d 4ed5 86bc
00000210: 88d8 02be 027b 97bd d0c9 263d 660b 24be
00000220: c24f babd 0ae1 1bbd b001 193d e857 7abd
00000230: 225d 8d3d e8ca 0d3c a15e fb3c b304 073e
00000240: 2d2d 06be 5520 c6bd b268 063e 553e 203d
00000250: 187e 36be 0141 5bbd d3f4 c0bd a2f3 d23d
00000260: 2ccf 403d 95f0 95bd 7dd2 96bd bcdd b03b
00000270: 8318 a93d f863 aebd 1c3c 99bd 27ce 6d3d
00000280: 4b5d 94bd fa20 12be 7a15 ad3d b2e6 24bb
00000290: de5b 3d3e 9526 3abe 727f 0a3e d0bf 6e3d
000002a0: cb7a 13be 0681 5f3d 2215 32be c9be 31bd
000002b0: ee2a 4cbe 4ebc 99bd 831f 0e3c 4fdf 5abd
000002c0: 2ac0 b0bd 38aa 2d3e 7055 c3bd fa62 213e
000002d0: f097 fc3d 8d73 08be 64b3 193d 86ca 3bbe
000002e0: e21a 2cbe 17ad edbd 000d b63d 4875 ac3d
000002f0: 1756 363e 9644 d03d 9599 1ebe c1bc 3abd
00000300: db7f 02bd f203 013d b256 c83d 70b3 ce3d
00000310: 8f2c d23d 4d93 633c 14ad bcbc b150 1bbe
00000320: 56fe ad3d 9f99 2f3e b07e 8e3d a400 2cbd
00000330: 975a 90bd 8e5b a13d ad61 febd 9c4f 303e
00000340: a5f7 2e3d 07a2 a13d 538e 94bd cae1 243d
00000350: 7f31 db3d e3fb d33d b41c 683d e0f9 91bd
00000360: b537 043e 0120 0f3e e939 b2bd e03c 10be
00000370: 2163 24be d8a5 afbd a2e9 b93d b80a 0fbe
00000380: 7667 2ebb 2f65 99bd 9ff3 75bc fb57 0c3e
00000390: 6afd b73c f34f 08be 6b60 253d 1727 43be
000003a0: 97d1 7f3d f748 07be fe9b 313e 5e76 163e
000003b0: 4236 d8bd 1054 01be dac5 1a3c 145a 663d
000003c0: 26fa 123e ff3a 413e 9106 7dbb 43a5 1dbe
000003d0: 8b41 313e 10ed 083d cfc1 d33d bb9c 4b3d
000003e0: ce91 dcbc 54c2 ee3d b554 10be 5d6a 7dbb
000003f0: f225 30be d226 dd3d 591e 81bd c771 983d
-0.16359864 0.1467422 0.15389949 0.0064668786 -0.10354752 0.10519203 -0.18373281 0.19380543
0.014111899 -0.100861885 0.046034146 -0.0052467687 -0.1237434 0.20733993 0.06735846 -0.10025795
-0.008473028 -0.09314916 -0.103670135 0.03855581 0.1036943 0.04233694 -0.12916373 0.11380824
0.07413123 0.04121056 -0.02882295 0.11288133 -0.033043236 0.13471429 0.05299427 0.18817593
-0.073293045 0.122138366 -0.11615662 0.16132013 0.15166473 -0.1255568 -0.19621378 0.009356133
-0.06387332 0.081531025 0.04562384 -0.10484393 0.08892089 -0.073613614 -0.1306868 0.06423411
-0.09414323 0.0118298745 -0.11897571 -0.15364592 0.12226531 -0.14102305 -0.09318438 -0.16030121
-0.14179932 0.09741069 0.17588414 -0.08796438 -0.048670076 0.06385384 0.109190054 0.046961736
-0.12221492 -0.01957804 0.029149858 -0.14336708 -0.118454695 -0.099206336 -0.09841789 -0.056905296
0.1377163 -0.20057063 -0.087111466 -0.19808502 -0.015047955 -0.057649106 0.022787547 -0.060287297
0.028167231 -0.1463636 -0.007886754 -0.08034886 -0.12681475 0.1289067 0.07140657 -0.0637617
0.05651374 0.065782435 -0.15707128 0.05977818 -0.09136946 0.18328324 0.1280477 0.093632706
-0.08447047 0.027505083 -0.05186134 0.042043775 -0.06528463 -0.068985194 0.083891615 0.13179849
0.08551931 -0.079470806 -0.10460961 0.11365487 0.19198011 -0.031414345 -0.08830158 0.14340785
0.008144238 0.15665911 -0.15506648 0.068352036 -0.04005175 -0.017482227 -0.12419017 -0.013256739
0.09038236 0.029529575 -0.014746296 -0.009046242 -0.06569087 -0.18407947 -0.16815491 -0.030650562
-0.15596469 0.07534242 0.03378207 -0.016459133 -0.12777913 -0.07396509 0.040719807 -0.16019973
-0.09097244 -0.03805641 0.037355125 -0.06111899 0.06902529 0.008654334 0.030684771 0.13185386
-0.1310317 -0.096741356 0.13125876 0.039121944 -0.17821538 -0.05352879 -0.094216965 0.103003755
0.047072574 -0.07321278 -0.07364366 0.0053975265 0.08256628 -0.08515161 -0.07482168 0.05805793
-0.07244357 -0.14270392 0.08451362 -0.002516192 0.18492076 -0.1817878 0.13525179 0.058288395
-0.1440231 0.054566406 -0.17390874 -0.043394838 -0.19938251 -0.075066194 0.008674505 -0.05343562
-0.086304024 0.16959465 -0.0953778 0.15760413 0.12333667 -0.13325329 0.037524596 -0.18338975
-0.1680713 -0.1160528 0.08889198 0.08420807 0.17806278 0.10169332 -0.15488274 -0.045590166
-0.031860214 0.031497903 0.09782161 0.10092819 0.10262405 0.0138901 -0.023031749 -0.151675
0.08495776 0.17148446 0.069577575 -0.0419928 -0.07048529 0.07878791 -0.12420974 0.17217869
0.04271664 0.078922324 -0.07253709 0.04025439 0.107028 0.10350778 0.056668 -0.07127738
0.12911876 0.13977052 -0.08702452 -0.14085722 -0.1605344 -0.08576554 0.09077765 -0.13968933
-0.002661196 -0.07490002 -0.015011697 0.13705437 0.022459704 -0.13311748 0.040375154 -0.1905788
0.06245574 -0.13211428 0.17344663 0.14693591 -0.10557224 -0.12629724 0.009446586 0.05623825
0.14353237 0.18870161 -0.003860865 -0.15395074 0.17310159 0.033429205 0.103397004 0.049710017
-0.026924994 0.11658159 -0.14094813 -0.0038668134 -0.17201975 0.1079842 -0.063046165 0.07443576

rnn.cell.recurrent_kernel_z f4 [128, 128]
00000000: 5e56 f9bd e922 a2bd 74da c43b 4c18 183d
00000010: bbce dc3d d094 453d cfeb e43c 0aed d03d
00000020: 29a1 1b3e cfb7 b73d d476 d1bc cdf0 a0bc
00000030: d1b4 f73a 2697 fbbc 9ec9 d63d 8a73 3e3d
00000040: e660 013e ed6e f23d 774a c8bd 7674 113d
00000050: 25bc 213e 68c8 2b3d 8edc c43d 0ef2 d8bd
00000060: da3c 90bd 4128 dd3d 8b84 c83d f5f5 043e
00000070: 6bf4 533d 47cf 38bd e8d8 ed3d dbf4 29bd
00000080: 25ce 1bbc 0e8b 07be c075 353a 4000 1bbd
00000090: 4fe3 a2bd 40a1 fc3b dd42 cfbd 7550 babc
000000a0: 80d0 a73c 113e 90bd 28d7 9c3d b694 083b
000000b0: acd8 e13c 63f8 cebc 77e7 ae3d ebf3 fa3d
000000c0: bf14 e7bd 0a4a f2bd 6a62 efbd 4319 893d
000000d0: 508e febc 2bb7 babc f362 debd 4bdb 03be
000000e0: 4009 0bbe 588b ab3d bb71 cd3d a99d 07be
000000f0: cc0e 95bd 8298 eabd a405 df3d 9df5 30be
00000100: c309 89bd 8857 0f3e 8e0b 57bd ba52 9abd
00000110: 5f17 a4bd 37d5 28bc 81ab a7bd 1d49 f33c
00000120: 9d10 a5bd 415a 42bd a371 053e a7c2 113e
00000130: 96f2 a3b8 0c2d 26bc 5807 2c3e c4b1 9e3b
00000140: da97 30bd c671 04bd 2f4d e3bd 8ce3 5c3d
00000150: da78 013d 38b2 2dbb 8c43 dc3c be93 fcbd
00000160: ee5e 8e3d 20f3 c63d bb4a 02be 5655 693c
00000170: 4369 e13d 5cbe 1b3e e413 00be 9888 8b3c
00000180: 06f9 35bd 2af7 a7bd 4417 8a3d a3a8 3bbb
00000190: 4cb9 62bd 5575 a83d 0c6b d2bd e93d 8e3c
000001a0: ee63 a6bd 2de3 30be 11a1 afbd 3edd 8b3d
000001b0: 9db3 18bd 5d9b dabb 095d 173e 6098 27be
000001c0: cf95 0b3d f1a2 7ebd ccc5 203e d6e4 e3bd
000001d0: 6eff c9bd 8c01 c9bd 533f 573e ed50 71bd
000001e0: 9a87 cf3d 813a b2bc dcd8 053c 2323 8cbd
000001f0: b4c1 14be f19e 983d 6000 17be b9d6 29be
00000200: 4689 2b3e 3c2e dd3c 7757 a1bd 7154 0bbd
00000210: c90b a53c 8e27 9cbd 0e7a fbbd 79d6 2a3d
00000220: 623e a23d 34cb 15bc e1b6 453d 137e 8d3c
00000230: e84d 013b b09b e9bc 312d 24be 47eb f8bd
00000240: f4f5 c93c f257 7b3d 59b8 693d 3e7a d33d
00000250: 3d69 29be 5c5d 223d ef3e 9a3d 2b1a 1fbe
00000260: 07c7 b13d db4f e13c a328 ca3d 7200 163e
00000270: 6435 2d3e b57c 56bd 1a83 f9bd 07d5 d43d
00000280: 882d b53d 7314 ca3c d0c9 da3d 2dde ccbd
00000290: c943 49bc 5467 c2bd 7e29 7bbd d6d5 df3d
000002a0: 2b00 1dbd fd93 3f3c 56e2 84bc 2f3b 1dbe
000002b0: cc23 e33d 701f 98bd 7a09 303e 3c98 1cbe
000002c0: 27e7 513c c572 6fbc ea26 71bd 7033 1bbc
000002d0: 1921 d73d dda4 f6bd 7a64 febd 2dd2 c6bb
000002e0: 403f 133e 5b07 213a fbda b03d ef7a ebbd
000002f0: b0fb 943d 3c0f f43d 28c4 003e 54ac 4b3d
00000300: ba0a 983d 2c74 0b3d 2ebc 0b3e e757 9dbc
00000310: f1c8 e63d 82c3 19be 3b22 47bc b0b6 273d
00000320: 154f 01bd 675d 0dbe dbe0 1dbd d57d c53c
00000330: 9340 03bb e343 57bd 2281 e2bd 3bf5 1bbe
00000340: bf2a 29be d73e 37bd ac9f 113e ad4b 92bd
00000350: 1445 3f3b 950f b5bd 38fb e7bc 7856 2d3e
00000360: 6fe9 13be 341a e63a 84d6 923d 18b3 1ebe
00000370: 0ae4 b13c d8af 1b3e 6914 0ebd c150 80bd
00000380: 296e d73d 79d0 9d3c ce74 41be 32cf 13be
00000390: 0aa8 6d3d 0e25 e83d b044 fe3d 5ae2 94bc
000003a0: b188 97bd f005 9bbd ffff f83d 6c3e 473d
000003b0: f28c e5bd b8d2 ad3d d169 62bd e2ac ac3d
000003c0: 2507 27be 092c fe3d f1b8 08bc 0c34 d6bc
000003d0: 67be 04be 8eae 6c3d c803 eebd 6f8f 213d
000003e0: 24fc 183e 1e47 a1bd 6556 963c 2261 cabd
000003f0: 023b d33d 6489 9f3d 9db0 e1bc 0fd8 bbbd
-0.12174676 -0.07916815 0.006007487 0.037132546 0.10781618 0.04823762 0.027944474 0.102014616
0.15198196 0.089706056 -0.025569357 -0.019646073 0.0018898492 -0.030711722 0.10487674 0.046496905
0.1263462 0.11837564 -0.09779828 0.035511456 0.15794428 0.04193917 0.0961238 -0.10593043
-0.070428565 0.107986934 0.097909056 0.1298445 0.051746767 -0.04511955 0.11613637 -0.041493278
-0.009509598 -0.13236639 0.0006922148 -0.037842035 -0.07953512 0.007709652 -0.10120175 -0.022743443
0.020485163 -0.07043088 0.07658225 0.0020840592 0.027569138 -0.025264924 0.08540242 0.12253555
-0.11283254 -0.11830528 -0.11688693 0.066942714 -0.03107372 -0.02279242 -0.10858717 -0.12876622
-0.13577747 0.08376187 0.10031458 -0.13243736 -0.07278213 -0.1145487 0.10889748 -0.17281194
-0.06691315 0.13998234 -0.052501254 -0.0753531 -0.0801227 -0.010304741 -0.08187009 0.029697949
-0.08059809 -0.047449354 0.1303163 0.1423441 -7.817631e-05 -0.010142576 0.16799676 0.0048429687
-0.043113567 -0.032335065 -0.11098706 0.053927943 0.031609394 -0.0026503932 0.026887678 -0.12332867
0.069517 0.09714341 -0.1272382 0.014241537 0.11006405 0.15209335 -0.12507588 0.017032906
-0.04442694 -0.0820144 0.06742719 -0.002863445 -0.055352494 0.08225504 -0.10274324 0.017363505
-0.08124529 -0.1727416 -0.08575643 0.06829308 -0.037280668 -0.006671353 0.14781584 -0.1636672
0.034078415 -0.06216711 0.15700454 -0.11127631 -0.098631725 -0.09814748 0.2102025 -0.058915067
0.10133286 -0.021756412 0.008169379 -0.06842639 -0.14527017 0.07452191 -0.14746237 -0.16585816
0.16751584 0.026999585 -0.07878011 -0.034016076 0.020147221 -0.07624732 -0.122791395 0.041708443
0.07922055 -0.009142686 0.04827011 0.017272031 0.0019730274 -0.02851662 -0.16032864 -0.121542506
0.024653412 0.061363168 0.057060573 0.1032605 -0.16544051 0.039639816 0.07531535 -0.15537326
0.086805396 0.027503898 0.09871032 0.14648607 0.16914898 -0.052365024 -0.12183209 0.10392194
0.08846575 0.024667954 0.10683024 -0.10003314 -0.012284228 -0.094923645 -0.061318867 0.10929458
-0.03833024 0.011692998 -0.016221207 -0.15354608 0.11090812 -0.07427871 0.17191115 -0.15292448
0.012811459 -0.0146147655 -0.058875002 -0.009472713 0.1050436 -0.12043164 -0.12421508 -0.0060675354
0.14379597 0.00061427586 0.08635517 -0.11498057 0.07274568 0.11916968 0.12574828 0.04972489
0.07423921 0.034046337 0.13646004 -0.019206954 0.11268795 -0.15015987 -0.012154157 0.04094571
-0.03156956 -0.13805161 -0.038544517 0.024107853 -0.0020027503 -0.052554976 -0.110597864 -0.15230267
-0.16520213 -0.044737663 0.14221066 -0.0714334 0.002918546 -0.08840863 -0.028318033 0.16927516
-0.14444517 0.0017555417 0.07169822 -0.15498006 0.021715183 0.15203798 -0.034687433 -0.062654026
0.10519058 0.019264447 -0.18892214 -0.14434507 0.058021583 0.113351926 0.12415445 -0.01817434
-0.07399119 -0.07569492 0.121582024 0.048643515 -0.11208524 0.08487457 -0.055276696 0.08431412
-0.16311319 0.12410743 -0.008344875 -0.026147865 -0.12963258 0.057783656 -0.11621815 0.03944343
0.14939934 -0.07874893 0.018351743 -0.09881808 0.10313989 0.07789877 -0.027550036 -0.09172069

rnn.cell.recurrent_kernel_r f4 [128, 128]
00000000: 4b37 e8bd f4b6 04be e503 b5bd 7519 823c
00000010: cf8a a63d 7d0b dc3d 2efc fc3d 4d66 173e
00000020: 9f74 b63c 70f5 343e 20f6 02bc 9aad 39bd
00000030: bb46 383e 48b3 4e3c 28bf 82bb 4259 9e3d
00000040: 269c 003e 073d 773c f8bf 17bc b695 9aba
00000050: 892e 543c 9f47 b0bd 10b1 f9bd 4bca 3ebd
00000060: 8c03 bbbd 1d05 c13d 77c8 1c3e 7834 283a
00000070: 329d bfbd 1fb4 153d d1c8 d33d fcac 8ebd
00000080: 7f27 553d 5385 38be d1b6 993d fbe4 163e
00000090: 2cd8 333d fd65 db3d 3206 40bd b5fb 703d
000000a0: abb6 ff3c 18ba 68bd cb9d 15bd 623c 3a3e
000000b0: 8489 46bd 9be9 7abd 2489 96bd 674a 9b3c
000000c0: 8f70 db3d 2b5f 663d cad7 f6bd 5803 fb3d
000000d0: 0dfc 193d 33b8 5b3c 363d abbd 8dc9 7fbd
000000e0: f360 ecbb 6b94 2a3e d263 1e3e 972c 873c
000000f0: 4227 59bd c5ad 9a3d e987 333d 2641 df3c
00000100: eda4 8dbd ce42 363d 3f73 1abd 2447 edbd
00000110: 8c64 6e3c bb3f 53bd 2d59 d9bd c95c b9bd
00000120: 56c5 79bd 22a5 c93c 469a 38be d5d8 1dbd
00000130: ee41 22bd 654b 493d ce97 4cbc 7bf6 75bd
00000140: 69e4 1d3e dc1c d53d 717f a03d deae b23d
00000150: 2b7a 113e 95ae 5c3d d82f 8a3d 2f20 0cbe
00000160: 5195 f93d dc8d dbbd c0eb d43d 0103 eb3d
00000170: 24cc f23d 221e edbd a184 c2bb 2e88 073e
00000180: c0dc b03c 88d9 ba3d 1ab4 d33d f115 c0bd
00000190: df3f 7e3b 60a2 df3c 9e67 013e 0c54 373e
000001a0: 7c43 043e 6a54 89bb 9054 adbd 4f97 fc3d
000001b0: 5eca 5135 2620 17be 711c 143e 1714 1fbe
000001c0: bba6 f5bc 196a 1f3c ac5c a3bd cb9e 17bd
000001d0: 8316 afbd aaf9 ac3d 2c37 18be 3912 0d3e
000001e0: 20a9 73bd 7a5d 993b bbb1 17be c0c1 9e3d
000001f0: ea86 7cbb 2052 bcbd 5250 19be e595 35be
00000200: 0d1b 0b3e 2a8c e53d f04e 6b3c bad6 e43d
00000210: 4987 99bd 8642 a93c ef58 56bc 330c 0dbb
00000220: 948d e73c 6884 703d 83b4 df3d 3c1d c73d
00000230: 4d0b a13d dfbe 963c 61d3 ebbc b399 67bc
00000240: 7587 2a3c 1807 1fbe 9e7f b5bd dde1 05be
00000250: 83cd c7bd c7ea 87bc 79f4 52bd f1da db3d
00000260: bedf 98bd e55e fb3c 5cbb 02be 5d2d e23c
00000270: ad52 ce3d 7f20 703d 4ba5 cd3c 4bdd 8d3b
00000280: 4848 a13b 84f0 89bd d560 13be a5fb 373d
00000290: 4ec7 bebd 3696 e5b9 69a7 07be 73cd a43d
000002a0: cf4e e9bc b673 aa3d 0686 fd3d 381e 93bc
000002b0: 0dbe 353c 4718 d33d e1b1 9abd 5277 0cbe
000002c0: c6a8 0dbe 52ef c6bd fe1f 183e 5b18 c63b
000002d0: b638 ba3d ebd1 16bd 5bce 09bd ca75 993d
000002e0: dafa 9a3d 26e4 903c ee49 f1bc d160 983d
000002f0: 4ba7 c8bc 53cb 0b3e a480 013e 56e2 03be
00000300: c302 0f3e a58a b9bd 09d0 00be 48d0 9bbd
00000310: 839f f63d 9ecb 063e 84e7 2a3c ce59 153e
00000320: 8eb4 8f3d 5d6a efbd c02f b2bd 110c 19be
00000330: 7214 bb3c 5bf3 06bd 2131 9a3d e93a ab3d
00000340: 2390 20be 2e71 813d 83e5 b73c 6117 923d
00000350: 91a3 0f3d ee25 a33d 8ecf c2bd 3234 9c3c
00000360: 0cfd 093e 279c 8f3d 44a6 c2bd e5c8 c63c
00000370: 0b38 063e a69b 8a3d 571a 94bd dd70 f3b9
00000380: 8cc6 2dbd b985 98bb 93c9 bdbd ddc6 273e
00000390: c1e2 6e3c 3ced a53d a66c 883d 8357 febd
000003a0: 7b03 d43c c508 a0bd 7650 0dbd 5870 e13d
000003b0: d6fb c73d 845a bdbd 0c32 0c3e 4277 dc3c
000003c0: ccf1 c1bd 270c edbb 5c41 79bd 0161 173e
000003d0: 1dbd 0abe a41b c83d f14f f0bc 216b a5bd
000003e0: beb2 e3bd c3f0 e7bd 3628 06be a764 e03d
000003f0: c587 82bd 2c99 fc3c ea68 5a3d dccb 9a3d
-0.11338671 -0.12960416 -0.088386334 0.01588128 0.081319444 0.10744379 0.12352787 0.14785118
0.022272406 0.17671752 -0.007993251 -0.045331575 0.17995732 0.012615986 -0.0039900728 0.07731868
0.12559566 0.015090234 -0.0092620775 -0.0011793885 0.012950548 -0.08607411 -0.12191975 -0.04657964
-0.09131536 0.094248034 0.15310846 0.000641651 -0.093561545 0.03654873 0.10341037 -0.06966588
0.05203962 -0.18019609 0.075055726 0.14735787 0.04390733 0.10712812 -0.04688091 0.058833797
0.031215033 -0.056818098 -0.036527436 0.18187097 -0.04847099 -0.06125794 -0.07350376 0.018956376
0.10714828 0.056243103 -0.12052877 0.12256497 0.03759389 0.013410616 -0.083612844 -0.062448073
-0.0072137057 0.1665818 0.15467766 0.016500754 -0.053015955 0.07552675 0.043830786 0.027252745
-0.06916223 0.044497304 -0.037707563 -0.115858346 0.014550339 -0.05157445 -0.10612712 -0.090509005
-0.06097921 0.024614874 -0.180276 -0.038536865 -0.039613657 0.049144167 -0.012487365 -0.060049515
0.15419163 0.10405895 0.078368075 0.087247595 0.1420676 0.053877432 0.06747407 -0.13684152
0.12186683 -0.10720417 0.10396528 0.11475182 0.11855343 -0.11578013 -0.0059362208 0.13235542
0.021589637 0.09123522 0.10337086 -0.09379185 0.0038795394 0.027299106 0.12637183 0.17903155
0.12916368 -0.004190971 -0.08463395 0.12333547 7.815305e-07 -0.14758357 0.14463975 -0.15535007
-0.02998673 0.0097298855 -0.0797666 -0.03701667 -0.08549216 0.08446057 -0.14864796 0.13776483
-0.059487462 0.0046803327 -0.14813893 0.07751799 -0.0038532563 -0.091953516 -0.14972046 -0.17732961
0.13584538 0.11208375 0.014362082 0.11173768 -0.07496507 0.020661604 -0.013082727 -0.0021522164
0.028265752 0.058720022 0.10923102 0.09722373 0.078634836 0.018401561 -0.028787317 -0.014135766
0.010408272 -0.1553005 -0.08862232 -0.13074441 -0.09755995 -0.016591443 -0.05150268 0.10735119
-0.074645504 0.030684898 -0.12766784 0.027609522 0.10074363 0.05862474 0.025103232 0.0043293587
0.0049219467 -0.06735328 -0.14392407 0.04491772 -0.09315358 -0.000437902 -0.13247456 0.08046999
-0.028479962 0.08322851 0.123790786 -0.017958745 0.011092675 0.10307365 -0.07553459 -0.13717392
-0.13833913 -0.097136155 0.14855954 0.006045384 0.09092848 -0.036821287 -0.03364406 0.074931696
0.075673774 0.017686915 -0.029454198 0.07440341 -0.024493834 0.13651781 0.12646729 -0.12879309
0.13965897 -0.090596475 -0.12579359 -0.07608086 0.12042143 0.13163611 0.010431174 0.14585039
0.0701686 -0.11690209 -0.08700514 -0.14946009 0.022836898 -0.032946926 0.07528902 0.083608456
-0.15679984 0.063204154 0.022448307 0.071333654 0.0350681 0.07966219 -0.09512244 0.019067857
0.13475436 0.070122056 -0.09504369 0.024265716 0.13107316 0.06767969 -0.072315864 -0.00046432661
-0.042425677 -0.004654613 -0.09266963 0.16384454 0.0145804295 0.081018895 0.06661348 -0.12419035
0.025880566 -0.07814173 -0.03450056 0.11007756 0.09764831 -0.0924578 0.13690966 0.026912335
-0.09469947 -0.0072341147 -0.060853347 0.14783098 -0.13548703 0.09770897 -0.029334994 -0.08077074
-0.11118077 -0.113252185 -0.13101277 0.10956698 -0.06373552 0.030834757 0.05332271 0.07558414

rnn.cell.recurrent_kernel_h f4 [128, 128]
00000000: 4a3d 8b3d 2b09 b9bc 8a94 2f3e 2b09 aa3c
00000010: c914 ffbd d929 eb3c e3ed 0d3d b5c9 b53d
00000020: c03d 7a3d 9b6a 673d bb00 21be 939a 7c3c
00000030: 58f5 7ebd b2e5 08be bbe1 dbbd 555c 4abc
00000040: 75de c6bd cfec 453c 3355 423b 3744 3b3e
00000050: 6e69 b53d d626 02be 0aca 473c ea64 25be
00000060: a6f4 bdbd f8f6 5bbd 6b1a d13d 6ad9 d53d
00000070: 46e2 413d 0e82 2abd 6b16 2cbe 573d 0b3d
00000080: b540 a7bd a985 0bbc 63b2 923d 783e 30be
00000090: 3267 c3bb 937e 7abd cb8b 013e 29de 99bd
000000a0: c3df f9bd 5c5d db3d 80ca f23d a4b2 6c3c
000000b0: 20b7 293d 37c2 ea3d b6c5 113d dd8f c9bd
000000c0: 80ff 4b3d 886e 66bc 8108 543d ae6f 2cbc
000000d0: 3f55 2d3c d59d 523d 1cf5 a5bc a8c1 c43d
000000e0: d353 0abd b4d3 81bd 7700 c63d 4771 753d
000000f0: 9cb4 f0bd a402 003e ecfd 203e 079f c5bd
00000100: e373 c43c 76da 19bc 79d4 09be 610d 78bc
00000110: 9b1d 1a3e 85a7 f4bd da38 febc 4358 8abd
00000120: 611a a3bd 488a c4bd da82 0abe 01e6 04be
00000130: 0b88 913d 681c 12bd 3be2 ddbd eaf9 33bd
00000140: be78 a9bc 52a2 883c dd1a 05be 960c 213d
00000150: 7d6c fcbd 3526 203d f738 febd 54b4 7bbd
00000160: c11b 883c c518 5abc 41dc 73bd bcf6 bbbd
00000170: 7f40 92bc 32d3 a2bd af63 06be 9786 b63c
00000180: bd0e 23be f712 96bd 1b56 0d3e c0d2 d13d
00000190: e24d 16be cc99 193e 62ab 2a3d d577 e43d
000001a0: 5845 263e e60c 88bd 8a18 333e 8494 92bc
000001b0: c5ac fdbd d0b8 d53c 3df2 5d3d b4ce 88bc
000001c0: 2cbe 99bd af5f 1dbd d64f b23d 9f04 16be
000001d0: fac0 073e 64ee 9fbd 3537 f9bc 6750 44bd
000001e0: 600b f93d 3282 643d d6d6 4a3c a5cd a13b
000001f0: 63ab babd 6374 f0bd 6306 9c3d bb82 2b3d
00000200: 7715 a6bd 95ec b0bd 4ca5 463d c9f1 fa3d
00000210: 3585 a8bc 6637 053e d78b 153e 0e0c 07be
00000220: 97e3 68bd a9b1 ee3c 4e0b 343d 2d6a 563d
00000230: ca6a 7fbd ffeb 4abc 47ec 6d3c d5c5 213e
00000240: 2245 60bc c8cf 17be 0e6e ffbd f882 f03c
00000250: 9311 adbd d049 363b 5304 08be 1e17 933d
00000260: 9528 17be 78bb 863d 6d9c aabd 313d 53bc
00000270: ed02 abbd 0224 d7bd f945 bf3c c65f c2bc
00000280: 094e db3d d65b 1b3e a9fa e23d e1c7 1abe
00000290: e420 cebc 35be b13c 49dd 10bd 154a 143e
000002a0: ae7f e2bd d3d4 a8bc 604b f73d 6bf9 17bd
000002b0: 1ad8 e7bc a11c dbbd bd94 7b3d e0f1 6b3c
000002c0: 5089 0fbe 244f 303d 7e94 cdbd 241e 643d
000002d0: a2f7 16be 8c89 15be 9bb5 183e f7eb 6e3d
000002e0: fea4 c9bd 0d7b a33c 52bc f9bd f456 ed3d
000002f0: ddd1 cf3d 8a4c 37bd e520 c43d 7d7d 7dbd
00000300: 1544 fe3c 82c8 8c3d db0d ebbd e429 c2bd
00000310: f886 0bbe 30bd e3bd d45d 173e 87c6 153b
00000320: a16f 19bd 7de2 833d cdce fb3d 36fb c5bd
00000330: bbb8 a8bd 813d d53d 508a c53d e6bf e1bc
00000340: cffd e73d a9c5 973d 963b d2bd 19ef 353d
00000350: fa79 bb3d 371b 04ba bcf7 e53c 9bf8 05bc
00000360: c1a9 bcbd a9ce 1ebe 3f57 e03c de73 78bb
00000370: d7dd ce3d 66cc cc3c 2ceb 42bd 9806 da3d
00000380: b62f 443b 6b74 163e cbce 88bd 9a28 843c
00000390: e446 9c3d b32d 803d 44c1 37be 0e51 95bd
000003a0: 07c0 d4bc 11fc cabd 863a d5bd 641e 69bd
000003b0: 08e2 26bc 1018 ac3d 008d 053e 9f2e fb3d
000003c0: 4301 73bc ead6 d13d f020 aabd 06e9 053d
000003d0: 54ae cb3d 4f18 cebd cf17 8fbd 834f 533d
000003e0: 723d 80bc e966 df3d 5321 c2bd c81e 953d
000003f0: d602 9abb caf2 233e cca3 333e 9ccf 01be
0.06798799 -0.02258738 0.17146507 0.020756325 -0.12455136 0.028706478 0.034650695 0.08876363
0.061094046 0.05649815 -0.15722935 0.015417713 -0.062245697 -0.13368872 -0.10736414 -0.012351115
-0.09710399 0.012080385 0.0029652833 0.1828774 0.08858 -0.12710127 0.012194166 -0.16151777
-0.092751786 -0.053702325 0.10210117 0.10441859 0.04733493 -0.041627936 -0.16805427 0.033994045
-0.08166639 -0.008515754 0.07162931 -0.1721133 -0.0059632296 -0.061155867 0.12650983 -0.07513077
-0.12200882 0.10711166 0.1185503 0.014446888 0.041434407 0.11462825 0.035588942 -0.09841893
0.04980421 -0.014064439 0.051765922 -0.010524673 0.010579406 0.05142005 -0.020258479 0.096072495
-0.033771347 -0.06339207 0.096680574 0.059922483 -0.117531985 0.12501007 0.15721864 -0.09649473
0.02398104 -0.009390464 -0.13459958 -0.0151399085 0.15050356 -0.11946014 -0.031032968 -0.06755116
-0.07964016 -0.095966876 -0.13526478 -0.12978365 0.07106026 -0.03567162 -0.10834166 -0.04393951
-0.020687457 0.016678963 -0.12998529 0.039318644 -0.1232538 0.039098937 -0.12413209 -0.06145127
0.016614797 -0.01331157 -0.059536222 -0.0917792 -0.01785302 -0.079504386 -0.13123964 0.022280974
-0.15923591 -0.07327836 0.13802378 0.102452755 -0.14678147 0.15000075 0.04166735 0.11155669
0.1623739 -0.06643085 0.1748983 -0.017893083 -0.12386469 0.026089102 0.054186095 -0.016700126
-0.075069755 -0.03842133 0.08706634 -0.146502 0.13257208 -0.07809141 -0.030421833 -0.04792824
0.12160373 0.055788226 0.012380322 0.004937845 -0.09114721 -0.11740949 0.07618406 0.04187272
-0.08109563 -0.086388744 0.048497483 0.12253148 -0.02057133 0.13009414 0.14604126 -0.13188192
-0.05685767 0.02913745 0.043956093 0.05234735 -0.0623577 -0.012385367 0.014521665 0.15798123
-0.013688358 -0.14825356 -0.12472163 0.029359326 -0.08450618 0.0027814992 -0.132829 0.07182144
-0.14761575 0.065787256 -0.08330617 -0.012893007 -0.083501674 -0.10504915 0.023348795 -0.023727309
0.107082434 0.15171751 0.11082966 -0.1511531 -0.025162168 0.021697143 -0.035367284 0.14481385
-0.11059509 -0.020609295 0.120749235 -0.037103098 -0.028301287 -0.1069882 0.061421145 0.014400929
-0.14017224 0.043044224 -0.10038088 0.055692807 -0.14742902 -0.14603251 0.14913027 0.058330502
-0.09845923 0.019956136 -0.121941224 0.115888506 0.1014745 -0.044750728 0.09576587 -0.061887253
0.031038323 0.06874181 -0.11477252 -0.09480646 -0.13625705 -0.11120069 0.14781886 0.0022853927
-0.037459973 0.064396836 0.122953035 -0.09667055 -0.082383595 0.104121216 0.09645522 -0.027557325
0.11327707 0.074107476 -0.10265271 0.044417474 0.091541246 -0.0005039456 0.02807223 -0.008176948
-0.092120655 -0.15508522 0.027385352 -0.003791086 0.10100906 0.024999809 -0.04758756 0.10645789
0.0029935664 0.14692847 -0.06680068 0.016132642 0.07630709 0.062587164 -0.17944819 -0.072908506
-0.025970472 -0.09911359 -0.10411553 -0.05691375 -0.010185726 0.08403027 0.13042068 0.12264752
-0.014831844 0.1024607 -0.083070636 0.03269293 0.0994536 -0.1006323 -0.06986963 0.0515895
-0.0156543 0.109083004 -0.09479012 0.07281262 -0.004700045 0.16010585 0.17542952 -0.12676853

rnn.cell.bias_z f4 [128]
00000000: 0000 0000 0000 0000 0000 0000 0000 0000
00000010: 0000 0000 0000 0000 0000 0000 0000 0000
00000020: 0000 0000 0000 0000 0000 0000 0000 0000
00000030: 0000 0000 0000 0000 0000 0000 0000 0000
00000040: 0000 0000 0000 0000 0000 0000 0000 0000
00000050: 0000 0000 0000 0000 0000 0000 0000 0000
00000060: 0000 0000 0000 0000 0000 0000 0000 0000
00000070: 0000 0000 0000 0000 0010 0000 0000 0000
00000080: 0600 0100 0141 0100 0280 0000 5040 0000
00000090: d000 0000 0000 0000 a000 0000 0000 0000
000000a0: 0000 0000 0000 0000 0000 0000 0000 0000
000000b0: e099 ce21 0000 0000 0000 0000 0000 0000
000000c0: 3f03 0000 0000 003f 0000 0000 0000 0000
000000d0: 000a 0000 0000 0000 4009 0000 0000 0000
000000e0: d07d 9519 0000 0000 00bc d10d 3c7f 0000
000000f0: 0001 0000 0000 0000 c05a a421 0000 0000
00000100: 40e4 6c24 0000 0000 0000 0000 0000 0000
00000110: 0000 0000 0000 0000 0000 0000 0000 0000
00000120: 0000 0000 0000 0000 0000 0000 0000 0000
00000130: 7001 0000 0000 0000 7000 0000 0000 0000
00000140: aef7 cb23 0000 0000 0000 0000 0000 0000
00000150: 0100 0000 0000 0000 008a ff0f 3c7f 0000
00000160: 303a 39b8 3d7f 0000 008a ff0f 3c7f 0000
00000170: 0100 3120 0000 0000 004a 0000 0000 0000
00000180: 0001 00f3 3d7f 0000 00ef 3eb8 3d7f 0000
00000190: 0000 0000 0000 0000 0000 0000 0000 0000
000001a0: e0ac 4b25 0000 0000 a100 0000 0000 0000
000001b0: 40f1 4a25 0000 0000 f02c a823 0000 0000
000001c0: d075 cf25 0000 0000 0000 0000 0000 0000
000001d0: 3f03 0000 0000 003f 0000 0000 0000 0000
000001e0: 0060 0000 0000 0000 0020 0000 0000 0000
000001f0: d07d 9519 0000 0000 00bc d10d 3c7f 0000
0.0 0.0 0.0 0.0 0.0 0.0 0.0 0.0
0.0 0.0 0.0 0.0 0.0 0.0 0.0 0.0
0.0 0.0 0.0 0.0 0.0 0.0 0.0 0.0
0.0 0.0 0.0 0.0 0.0 0.0 5.74e-42 0.0
9.1844e-41 1.15155e-40 4.592e-41 2.3071e-41 2.91e-43 0.0 2.24e-43 0.0
0.0 0.0 0.0 0.0 1.3999833e-18 0.0 0.0 0.0
1.164e-42 0.5 0.0 0.0 3.587e-42 0.0 3.318e-42 0.0
1.5457054e-23 0.0 1.2925879e-30 4.5643e-41 3.59e-43 0.0 1.1137094e-18 0.0
5.1367678e-17 0.0 0.0 0.0 0.0 0.0 0.0 0.0
0.0 0.0 0.0 0.0 5.16e-43 0.0 1.57e-43 0.0
2.21142e-17 0.0 0.0 0.0 1e-45 0.0 2.5198097e-29 4.5643e-41
-4.416163e-05 4.5644e-41 2.5198097e-29 4.5643e-41 1.4992484e-19 0.0 2.6546e-41 0.0
-1.0141514e+31 4.5644e-41 -4.5522116e-05 4.5644e-41 0.0 0.0 0.0 0.0
1.7666016e-16 0.0 2.26e-43 0.0 1.7602446e-16 0.0 1.8233628e-17 0.0
3.598861e-16 0.0 0.0 0.0 1.164e-42 0.5 0.0 0.0
3.4438e-41 0.0 1.148e-41 0.0 1.5457054e-23 0.0 1.2925879e-30 4.5643e-41

rnn.cell.bias_r f4 [128]
00000000: 90cd 1e1b 0000 0000 0000 0000 0000 0000
00000010: 0000 0000 0000 0000 0000 0000 0000 0000
00000020: 0000 0000 0000 0000 0000 0000 0000 0000
00000030: 0000 0000 0000 0000 0000 0000 0000 0000
00000040: 0000 0000 0000 0000 0100 0000 0000 0000
00000050: 0000 0000 0000 0000 0000 0000 0000 0000
00000060: 0000 0000 0000 0000 0000 0000 0000 0000
00000070: 0100 0000 0000 0000 0100 0000 0000 0000
00000080: 0400 00ff 0141 0100 0180 0000 5002 0000
00000090: d000 0000 0000 0000 b101 0000 0000 0000
000000a0: a0d2 bf25 0000 0000 2072 0422 0000 0000
000000b0: 0100 0000 0000 0000 0000 0000 ffff ffff
000000c0: 0000 0000 0000 0000 0000 0000 0000 0000
000000d0: 4000 0000 0000 0000 d000 0000 0000 0000
000000e0: 8051 35b8 3d7f 0000 0000 0000 0000 0000
000000f0: 0100 0000 0000 0000 8073 e725 0000 0000
00000100: 60bb 8320 0000 0000 0000 0000 0000 0000
00000110: b00c a319 0000 0000 0000 0000 0000 0000
00000120: 0000 0000 0000 0000 0200 0000 0000 0000
00000130: 8000 0000 0000 0000 2500 0000 0000 0000
00000140: 0000 0000 0000 0000 0000 0000 0000 0000
00000150: 0000 0000 0000 0000 2500 0000 0000 0000
00000160: 0100 0000 0000 0000 0000 0000 0000 0000
00000170: 0000 0000 0000 0000 0000 0000 0000 0000
00000180: 0000 0000 0000 0000 8012 0000 0000 0000
00000190: 0600 0100 0141 0100 0280 0000 5040 0000
000001a0: 1001 0000 0000 0000 a000 0000 0000 0000
000001b0: 0000 0000 0000 0000 0000 0000 0000 0000
000001c0: 60c3 d425 0000 0000 0000 0000 0000 0000
000001d0: 3f03 0000 0000 003f 0000 0000 0000 0000
000001e0: 0014 0000 0000 0000 4009 0000 0000 0000
000001f0: d07d 9519 0000 0000 0056 5872 3c7f 0000
1.3135875e-22 0.0 0.0 0.0 0.0 0.0 0.0 0.0
0.0 0.0 0.0 0.0 0.0 0.0 0.0 0.0
0.0 0.0 1e-45 0.0 0.0 0.0 0.0 0.0
0.0 0.0 0.0 0.0 1e-45 0.0 1e-45 0.0
-1.7014126e+38 1.15155e-40 4.5919e-41 8.3e-43 2.91e-43 0.0 6.07e-43 0.0
3.3275943e-16 0.0 1.7949753e-18 0.0 1e-45 0.0 0.0 nan
0.0 0.0 0.0 0.0 9e-44 0.0 2.91e-43 0.0
-4.3229666e-05 4.5644e-41 0.0 0.0 1e-45 0.0 4.0150378e-16 0.0
2.2316258e-19 0.0 0.0 0.0 1.685893e-23 0.0 0.0 0.0
0.0 0.0 3e-45 0.0 1.8e-43 0.0 5.2e-44 0.0
0.0 0.0 0.0 0.0 0.0 0.0 5.2e-44 0.0
1e-45 0.0 0.0 0.0 0.0 0.0 0.0 0.0
0.0 0.0 6.637e-42 0.0 9.1844e-41 1.15155e-40 4.592e-41 2.3071e-41
3.81e-43 0.0 2.24e-43 0.0 0.0 0.0 0.0 0.0
3.690853e-16 0.0 0.0 0.0 1.164e-42 0.5 0.0 0.0
7.175e-42 0.0 3.318e-42 0.0 1.5457054e-23 0.0 4.2849747e+30 4.5643e-41

rnn.cell.bias_h f4 [128]
00000000: 0000 0000 0000 0000 0000 0000 0000 0000
00000010: 00f1 a024 0000 0000 18f1 a024 0000 0000
00000020: 18f1 a024 0000 0000 0000 0000 0000 0000
00000030: 0000 0000 0000 0000 0000 0000 0000 0000
00000040: 0000 0000 0000 0000 0000 0000 0000 0000
00000050: 0000 0000 0000 0000 0000 0000 0000 0000
00000060: 0000 0000 0000 0000 582b 9621 0000 0000
00000070: 0100 0000 0000 0000 0000 0000 0000 0000
00000080: 0000 0000 0000 0000 0000 803f 0000 0000
00000090: 0000 0000 0000 0000 0000 0000 0000 0000
000000a0: 0000 0000 0000 0000 0000 0000 0000 0000
000000b0: 0000 0000 0000 0000 882b 9621 0000 0000
000000c0: 0100 0000 0200 0000 0100 0600 0000 1c00
000000d0: a02b 9621 0000 0000 0200 0000 0500 0000
000000e0: 2500 0000 0000 0000 8000 0000 0000 0000
000000f0: 0000 0000 0000 0000 0000 0000 0000 0000
00000100: 0000 0000 0000 0000 0000 0000 0000 0000
00000110: 0100 0000 0000 0000 0000 0000 0000 0000
00000120: 0000 0024 0000 0000 0000 0000 0000 0000
00000130: 0100 0000 0000 0000 0090 d211 3c7f 0000
00000140: 303a 39b8 3d7f 0000 0090 d211 3c7f 0000
00000150: 0100 0000 0000 0000 0040 0000 0000 0000
00000160: 0001 0000 0000 0000 00ef 3eb8 3d7f 0000
00000170: 0000 0000 0000 0000 0000 0000 0000 0000
00000180: e001 0000 0000 0000 a000 0000 0000 0000
00000190: 0000 0000 0000 0000 0000 0000 0000 0000
000001a0: 80e4 8f25 0000 0000 0000 0000 0000 0000
000001b0: 3f03 0000 0000 003f 0000 0000 0000 0000
000001c0: 000e 0000 0000 0000 4009 0000 0000 0000
000001d0: d07d 9519 0000 0000 00a6 b60d 3c7f 0000
000001e0: 0001 0000 0000 0000 2026 8425 0000 0000
000001f0: 8056 7a20 0000 0000 0000 0000 0000 0000
0.0 0.0 0.0 0.0 6.979721e-17 0.0 6.979737e-17 0.0
6.979737e-17 0.0 0.0 0.0 0.0 0.0 0.0 0.0
0.0 0.0 0.0 0.0 0.0 0.0 0.0 0.0
0.0 0.0 1.0175868e-18 0.0 1e-45 0.0 0.0 0.0
0.0 0.0 1.0 0.0 0.0 0.0 0.0 0.0
0.0 0.0 0.0 0.0 0.0 0.0 1.0175918e-18 0.0
1e-45 3e-45 5.51014e-40 2.571394e-39 1.0175943e-18 0.0 3e-45 7e-45
5.2e-44 0.0 1.8e-43 0.0 0.0 0.0 0.0 0.0
0.0 0.0 0.0 0.0 1e-45 0.0 0.0 0.0
2.7755576e-17 0.0 0.0 0.0 1e-45 0.0 3.3220905e-28 4.5643e-41
-4.416163e-05 4.5644e-41 3.3220905e-28 4.5643e-41 1e-45 0.0 2.2959e-41 0.0
3.59e-43 0.0 -4.5522116e-05 4.5644e-41 0.0 0.0 0.0 0.0
6.73e-43 0.0 2.24e-43 0.0 0.0 0.0 0.0 0.0
2.4961383e-16 0.0 0.0 0.0 1.164e-42 0.5 0.0 0.0
5.022e-42 0.0 3.318e-42 0.0 1.5457054e-23 0.0 1.1256579e-30 4.5643e-41
3.59e-43 0.0 2.2924184e-16 0.0 2.1204444e-19 0.0 0.0 0.0

rnn.cell.input_decay_kernel f4 [37]
00000000: 0000 0000 0000 0000 0000 0000 0000 0000
00000010: 0000 0000 0000 0000 0000 0000 0000 0000
00000020: 0000 0000 0000 0000 0000 0000 0000 0000
00000030: 0000 0000 0000 0000 0000 0000 0000 0000
00000040: 0000 0000 0000 0000 0000 0000 0000 0000
00000050: 0000 0000 0000 0000 0000 0000 0000 0000
00000060: 0000 0000 0000 0000 0000 0000 0000 0000
00000070: 0000 0000 0000 0000 0000 0000 0000 0000
00000080: 0000 0000 0000 0000 0000 0000 0000 0000
00000090: 0000 0000
0.0 0.0 0.0 0.0 0.0 0.0 0.0 0.0
0.0 0.0 0.0 0.0 0.0 0.0 0.0 0.0
0.0 0.0 0.0 0.0 0.0 0.0 0.0 0.0
0.0 0.0 0.0 0.0 0.0 0.0 0.0 0.0
0.0 0.0 0.0 0.0 0.0

rnn.cell.input_decay_bias f4 [37]
00000000: 0000 0000 0000 0000 0000 0000 0000 0000
00000010: 0000 0000 0000 0000 0000 0000 0000 0000
00000020: 0000 0000 0000 0000 0000 0000 0000 0000
00000030: 0000 0000 0000 0000 0000 0000 0000 0000
00000040: 0000 0000 0000 0000 0000 0000 0000 0000
00000050: 0000 0000 0000 0000 0000 0000 0000 0000
00000060: 0000 0000 0000 0000 0000 0000 0000 0000
00000070: 0000 0000 0000 0000 0000 0000 0000 0000
00000080: 0000 0000 0000 0000 0000 0000 0000 0000
00000090: 0000 0000
0.0 0.0 0.0 0.0 0.0 0.0 0.0 0.0
0.0 0.0 0.0 0.0 0.0 0.0 0.0 0.0
0.0 0.0 0.0 0.0 0.0 0.0 0.0 0.0
0.0 0.0 0.0 0.0 0.0 0.0 0.0 0.0
0.0 0.0 0.0 0.0 0.0
