latest_results/grud_final_output/split_3/checkpoint.pt (torch, 410658 bytes, 22 tensors)

rnn.cell.kernel_z f4 [128, 37]
0	0x3d144c0e	0.036205344
1	0xbd26c6b9	-0.04071686
2	0xbe0de319	-0.13856162
3	0xbe108b09	-0.14115538
4	0xbd46bfae	-0.048522644
5	0xbe242a97	-0.16031872
6	0x3d32a088	0.043610126
7	0xbd98f5b1	-0.07468737
8	0x3db8233c	0.089910954
9	0x3da10cf2	0.07863797
10	0xbce81599	-0.028330611
11	0x3e61449c	0.21998829
12	0xbe05c04e	-0.1306164
13	0x3e22e657	0.1590818
14	0xbda9707f	-0.0827341
15	0xbde2301d	-0.11044333
16	0x3debb4ed	0.11509118
17	0xbe5b8af6	-0.21439728
18	0x3dfe86f4	0.12428084
19	0x3da94601	0.08265305
20	0x3d8f73cf	0.070045106
21	0xbdaed423	-0.085365556
22	0x3d6038f5	0.05474182
23	0x3e2354bc	0.15950292
24	0xbbd51f4c	-0.006503975
25	0xbd5a44d3	-0.053288292
26	0xbe2e99d1	-0.17050864
27	0x3de6d2ed	0.112707
28	0xbe47f5d0	-0.19527364
29	0xbe078da4	-0.13237625
30	0xbe217a6f	-0.15769361
31	0xbdef068c	-0.116711706
32	0xbe08094c	-0.13284796
33	0xbd0db9ee	-0.034601144
34	0x3b33dc8e	0.0027444693
35	0xbddf776d	-0.109114505
36	0xbd5e3032	-0.05424518
37	0x3db171ef	0.08664309
38	0x3d8874b6	0.06662886
39	0x3ca700ab	0.02038606
40	0xbdd4aafb	-0.103841744
41	0x3da6a9a4	0.08137825
42	0x3dc67136	0.09689562
43	0xbdc23d9f	-0.094844095
44	0xbe38b9d9	-0.18039645
45	0x3defcdd7	0.11709183
46	0x3d2c7eaf	0.042113002
47	0xbd18295d	-0.037148822
48	0x3deb026d	0.11475072
49	0xbd89c050	-0.06726134
50	0xbe538675	-0.2065676
51	0xbd68e19a	-0.056855775
52	0xbe214fbd	-0.15753074
53	0x3df12cd6	0.1177613
54	0xbde895e3	-0.113567136
55	0x3db4433a	0.08801885
56	0xbd8cec08	-0.06880957
57	0x3d3f3dc9	0.046689782
58	0x3d446680	0.047949314
59	0x3db310de	0.087434515
60	0x3d887321	0.06662584
61	0xbd6a28d2	-0.057167836
62	0x3ccacdeb	0.024756392
63	0x3d2079eb	0.03917877
64	0xbd82ab4b	-0.06380328
65	0xbd0bc2f8	-0.034121484
66	0xbdbec7ef	-0.09315478
67	0xbd3e9166	-0.04652538
68	0xbbe9e5f6	-0.007138009
69	0xbdeb6040	-0.114929676
70	0x3dcabbbc	0.09899089
71	0x3da0c9d0	0.07850993
72	0x3e1b74f2	0.1518133
73	0x3e2e5b0a	0.17026916
74	0xbe06c1cf	-0.1315987
75	0xbe216553	-0.15761308
76	0xbd3e2fa6	-0.04643216
77	0xbe5248ba	-0.20535555
78	0x3e01e2e7	0.12684213
79	0xbe0ce11e	-0.1375775
80	0xbd966b17	-0.073446445
81	0x3d9c3627	0.07627516
82	0x3dbf71be	0.093478665
83	0x3d98dc55	0.074639
84	0xbde58cd4	-0.112085015
85	0xbe10ddc0	-0.14147091
86	0xbc488383	-0.012238386
87	0xbdbe530d	-0.092931844
88	0xbddeeeba	-0.10885377
89	0xbe03dc8f	-0.12877105
90	0x3e43439f	0.19068764
91	0xbe35bbf8	-0.17747486
92	0xbd716f86	-0.058944248
93	0xbe12c6d4	-0.1433366
94	0x3df5231d	0.11969588
95	0xbcf0808a	-0.029358167
96	0xbd9bc29c	-0.07605478
97	0x3dd8d75f	0.10587954
98	0xbdd78c91	-0.10524858
99	0xbc1dceeb	-0.009631853
100	0x3d6b258a	0.057408847
101	0x3d7a9111	0.061173502
102	0xbe65f04d	-0.22454949
103	0xbce9f0f6	-0.028557282
104	0xbd250c71	-0.04029507
105	0x3dca0ebb	0.09866091
106	0x3da206b7	0.07911437
107	0x3d6b3e64	0.057432547
108	0xbd5cf04a	-0.053940095
109	0x3dbdee99	0.092740245
110	0x3e5d4836	0.21609578
111	0xbd7df42d	-0.062000442
112	0xbe2e20f4	-0.17004758
113	0xbdb333bd	-0.08750103
114	0x3d8085fc	0.062755555
115	0xbd8ec736	-0.0697159
116	0xbc88160c	-0.016612075
117	0x3d90ecfc	0.07076451
118	0x3cfa2243	0.030533915
119	0x3de0cb5e	0.10976289
120	0x3e2cf02c	0.16888493
121	0x3e040bd3	0.12895136
122	0x3b10efb4	0.002211553
123	0x3d8f3502	0.06992532
124	0x3e1400a2	0.14453366
125	0x3e277ef0	0.16357017
126	0x3d37f4eb	0.044911306
127	0xbe005054	-0.12530643
128	0xbe357def	-0.17723821
129	0xbde25dec	-0.110530704
130	0x3cfde41d	0.030992562
131	0xbccabdcd	-0.024748707
132	0xbded5322	-0.11588122
133	0xbdb5da53	-0.08879533
134	0x3dd385bd	0.10328243
135	0x3d1d4ef7	0.038405385
136	0xbd322009	-0.043487582
137	0xbdb0ae81	-0.08627034
138	0xbdef184c	-0.11674556
139	0xbaeec355	-0.0018216172
140	0x3d0af3fb	0.033924084
141	0x3e0a64f2	0.1351507
142	0x3d612f6d	0.05497687
143	0xbe2ba87b	-0.16763489
144	0xbd8a6915	-0.06758324
145	0xbdbb75fe	-0.091533646
146	0x3dcd982b	0.10038789
147	0x3da4e5c9	0.080516405
148	0xbd88233a	-0.06647344
149	0xbe21f4fd	-0.15816112
150	0xbe03bea7	-0.12865697
151	0x3d8b6155	0.06805674
152	0xbd5dbd3f	-0.054135557
153	0xbdbb2a04	-0.09138873
154	0xbbd5c686	-0.00652391
155	0xbdb111b6	-0.08645956
156	0x3df02763	0.117262624
157	0x3dfd327a	0.12363143
158	0x3e1148d7	0.14187942
159	0x3e3b510d	0.18292637
160	0xbdae0339	-0.084967084
161	0x3d6a8f69	0.057265673
162	0xbd566b58	-0.052348465
163	0xbe3c1fd1	-0.18371512
164	0x3dd059c4	0.101733714
165	0x3dacf258	0.08444661
166	0xbe2a0df8	-0.16606891
167	0xbe0392c2	-0.12848952
168	0x3e2f7a10	0.17136407
169	0xbe199bd6	-0.15000853
170	0x3e62625b	0.22107832
171	0x3c562e94	0.0130726285
172	0x3ca5395a	0.020168949
173	0x3d49eb54	0.049296692
174	0xbc58b38c	-0.013226401
175	0x3e0a5f92	0.1351302
176	0xbe2cc12d	-0.16870566
177	0x3e362366	0.17786941
178	0x3d030c0a	0.031993903
179	0x3da30d60	0.079615355
180	0xbe37a6ee	-0.17934772
181	0xbd2b248f	-0.041782912
182	0x3d606f74	0.05479379
183	0xbc48849a	-0.012238646
184	0x3e033901	0.12814714
185	0xbe1a7dae	-0.15087005
186	0x3dde84f0	0.108651996
187	0x3e4f7a46	0.20261487
188	0xbe2687ab	-0.1626269
189	0xbe025718	-0.12728536
190	0x3cfc90ad	0.030830706
191	0xbd7ccb36	-0.061717235
192	0x3e041a30	0.12900615
193	0x3d0b6761	0.034034137
194	0x3c980dc0	0.018561244
195	0x3d584a26	0.05280509
196	0x3e06c2f7	0.1316031
197	0xbd9863f2	-0.07440938
198	0xbd3f6421	-0.04672635
199	0x3e04924c	0.12946433
200	0xbd691694	-0.056906298
201	0x3e2a0ad6	0.16605696
202	0x3d88914d	0.06668339
203	0x3dba33ee	0.09091936
204	0xbc9460a9	-0.018112497
205	0x3dc3e205	0.09564594
206	0x3e2da61c	0.16957897
207	0x3e378921	0.17923404
208	0x3e2eea07	0.17081462
209	0x3e27d42f	0.16389535
210	0xbd84f4c8	-0.06492001
211	0x3e34c028	0.17651427
212	0xbe2b5f78	-0.16735637
213	0x3e46acc1	0.19401838
214	0xbdde1d3f	-0.10845422
215	0x3e1496cb	0.14510648
216	0xbe32657f	-0.1742153
217	0x3b237713	0.00249428
218	0x3da3c09f	0.07995724
219	0x3e1cf46a	0.15327612
220	0xbdc29847	-0.09501701
221	0xbe65176b	-0.22372214
222	0xbd7c6112	-0.06161601
223	0xb9ec459a	-0.00045065285
224	0xbc425e3c	-0.011863288
225	0x3ddc6cbd	0.10762928
226	0x3e256647	0.16152297
227	0xbe0470bb	-0.12933628
228	0xbe3932c6	-0.18085775
229	0x3e29ff54	0.16601306
230	0x3cf391ac	0.029732548
231	0x3e1ddee8	0.15417063
232	0xbd0de649	-0.034643445
233	0xbc49f458	-0.0123263225
234	0x3d63081a	0.055427648
235	0xbded3737	-0.11582797
236	0xbdc93d10	-0.098261
237	0x3e0ddee1	0.13854553
238	0x3e492586	0.1964322
239	0xbe040349	-0.12891878
240	0x3e1d311f	0.1535077
241	0x3de0e1b0	0.109805465
242	0x3e14b574	0.14522344
243	0x3dc1f9ba	0.0947146
244	0x3da55daf	0.08074509
245	0xbcea5a85	-0.028607616
246	0x3ddac65e	0.10682367
247	0x3da7a8b8	0.081864774
248	0xbd8cbd61	-0.06872059
249	0xbdb85116	-0.08999841
250	0xbdc76e7d	-0.09737871
251	0x3d5a0350	0.053225815
252	0x3dbcd1ca	0.092197016
253	0x3dd9437c	0.10608575
254	0x3da7efe1	0.0820005
255	0x3df83c6f	0.12120902

rnn.cell.kernel_r f4 [128, 37]
0	0xbd69c7c5	-0.05707528
1	0xbc979516	-0.018503707
2	0xbe64bfdb	-0.22338812
3	0xbe52bd8e	-0.20580122
4	0xbcff3900	-0.03115511
5	0x3e189427	0.14900266
6	0x3c9e129c	0.019295983
7	0x3c855863	0.016277498
8	0x3e04ee3c	0.12981504
9	0x3d970e21	0.07375742
10	0x3dc073be	0.09397076
11	0xbd90822d	-0.07056079
12	0x3cacaa28	0.02107723
13	0xbe270657	-0.16311012
14	0xbde24d60	-0.11049914
15	0xbe20e9bc	-0.15714163
16	0xbd72932b	-0.05922238
17	0x3e0ddf3e	0.13854691
18	0x3de5348f	0.111916654
19	0xbe0e7d35	-0.1391495
20	0xbe0c6696	-0.13711008
21	0x3e03c755	0.12869008
22	0x3e13b874	0.14425832
23	0x3e2aea7a	0.16691008
24	0xbc8b3481	-0.01699281
25	0x3dfffe79	0.12499709
26	0xbe5daa95	-0.21647103
27	0x3d092cd5	0.03349002
28	0xbdd4a7b6	-0.10383551
29	0x3d30abb5	0.043132503
30	0x3e4b051e	0.19826171
31	0xbe28fbc5	-0.16502292
32	0xbd54b3dd	-0.051929343
33	0xbda04348	-0.07825333
34	0x3d44691c	0.047951803
35	0x3e147370	0.14497161
36	0xbce22b6c	-0.027608596
37	0x3dca7f7c	0.09887597
38	0x3dca56a7	0.09879809
39	0xbe1f8d2a	-0.15581194
40	0xbd9d7dda	-0.0769002
41	0x3dbc0671	0.09180916
42	0x3dbdbd8d	0.092646696
43	0xbe2459c6	-0.16049871
44	0x3d0d6861	0.03452337
45	0xbdfcc798	-0.12342757
46	0xbcb60589	-0.022219436
47	0x3d971c35	0.07378427
48	0x3d15b1d0	0.03654653
49	0xbe41427d	-0.1887302
50	0x3d3df8a4	0.0463797
51	0xbd927b94	-0.07152477
52	0x3d205752	0.039145775
53	0x3e1e99d8	0.15488374
54	0x3c724998	0.014788054
55	0xbe3dfac6	-0.18552694
56	0xbe154b7b	-0.14579575
57	0xbc8575d3	-0.016291535
58	0xbd126b49	-0.035746846
59	0x3d03d1ce	0.032182507
60	0xbdb2f112	-0.08737387
61	0xbcbcf2bb	-0.023064962
62	0x3e33ae37	0.17546926
63	0xbd06f0fb	-0.03294466
64	0xbd26bd3a	-0.040707804
65	0x3d77931a	0.06044302
66	0x3e07d6d1	0.1326554
67	0x3dab3baf	0.08360993
68	0x3d7e3d45	0.06207015
69	0xbdabaf8a	-0.08383091
70	0x3d1edb39	0.038783286
71	0x3e466e1b	0.1937794
72	0x3dbee295	0.09320561
73	0x3c5d5e46	0.013511246
74	0xbdca85e3	-0.09888818
75	0x3d24c7c6	0.04022958
76	0xbe19139f	-0.14948891
77	0xbdc2a0df	-0.0950334
78	0x3e270aaf	0.16312669
79	0x3db3b2c1	0.08774329
80	0xbe4fbdd9	-0.20287265
81	0x3e39d254	0.1814664
82	0xbe1af050	-0.15130734
83	0x3e246185	0.16052826
84	0x3d8fafad	0.07015929
85	0x3dcb0089	0.099122114
86	0xbce3a125	-0.0277868
87	0xbe356fe5	-0.17718466
88	0xbabd74d6	-0.0014454375
89	0xbdbe6460	-0.09296489
90	0x3e280007	0.1640626
91	0xbd2f8b6c	-0.042857572
92	0xbdd3dd64	-0.10344961
93	0xbd95c4af	-0.07312905
94	0x3cb9a590	0.022661954
95	0x3e43893c	0.1909532
96	0x3df4912f	0.11941754
97	0xbdad69cb	-0.08467444
98	0x3e06e1bb	0.13172047
99	0x3bbc71cd	0.005750871
100	0x3dafc287	0.08582025
101	0xbe22748e	-0.15864775
102	0xbdae29e8	-0.08504087
103	0xbe1df481	-0.15425302
104	0xbd0e2436	-0.034702502
105	0x3e259d2a	0.16173235
106	0x3e4ae74d	0.19814797
107	0xbdbef1bf	-0.09323453
108	0xbe2fd951	-0.17172743
109	0x3c10cc1f	0.008837729
110	0x3da1bd1a	0.078973964
111	0x3e28c8ba	0.16482821
112	0xbd0bb3f2	-0.034107156
113	0xbd8f9905	-0.07011608
114	0x3e19a410	0.15003991
115	0xbda4fa57	-0.08055561
116	0xbde36d71	-0.11104859
117	0xbe105535	-0.14095004
118	0x3b1fab5a	0.0024363608
119	0xbca89e4f	-0.0205833
120	0x3d08f465	0.033436198
121	0x3dd49874	0.103806406
122	0xbdae07f5	-0.084976114
123	0xbd6889b3	-0.056771945
124	0x3e36c9dc	0.1785044
125	0xb9c3a8ac	-0.0003731897
126	0xbe0455fa	-0.12923422
127	0xbdc1c7b9	-0.09461922
128	0xbd9ee987	-0.077593856
129	0x3dbaad10	0.0911504
130	0x3cd2cd69	0.025732713
131	0xbdefb3b5	-0.11704198
132	0xbe731c9e	-0.23741385
133	0xbd977815	-0.07395951
134	0xbe2474c5	-0.16060169
135	0xbdc5c755	-0.0965716
136	0x3d3b70f9	0.045762036
137	0x3e2a2deb	0.16619079
138	0xbbb5e5fd	-0.0055510984
139	0x3de74aab	0.11293539
140	0xbcd9602b	-0.026535114
141	0xbd7dcb76	-0.061961614
142	0x3ba4a505	0.0050245547
143	0x3d685d48	0.056729585
144	0x3d4e3e91	0.050352637
145	0x3db0d0ce	0.08633576
146	0x3da2d387	0.07950502
147	0xbe17d66b	-0.14827888
148	0xbe2fb763	-0.171598
149	0x3e20fe9c	0.15722126
150	0x3d8e9967	0.06962853
151	0xbe11e266	-0.1424652
152	0xbb98edaf	-0.004667006
153	0xbd733fcb	-0.05938701
154	0xbde35a32	-0.11101188
155	0x3e192484	0.14955336
156	0x3daaa8b8	0.08332962
157	0xbd85c71a	-0.06532116
158	0xbcb60e0e	-0.022223499
159	0x3d0106d8	0.031500667
160	0xbd919953	-0.071093224
161	0x3c3e74ac	0.011624496
162	0xbbe4fb75	-0.006987984
163	0xbdf613f8	-0.120155275
164	0x3cba26f0	0.022723645
165	0xbdcdfd58	-0.10058087
166	0xbd0e0415	-0.03467186
167	0xbd014ddc	-0.031568393
168	0xbe277c58	-0.16356027
169	0xbd8688f1	-0.06569088
170	0x3dd56032	0.104187384
171	0xbd9d76f0	-0.07688701
172	0x3cb911c6	0.022591483
173	0x3e46d13a	0.19415751
174	0xbd94aea6	-0.07259874
175	0x3cc623e0	0.024187028
176	0xbd27c69d	-0.040960897
177	0x3c460a16	0.012087366
178	0x3da8e675	0.08247081
179	0xbc4a381a	-0.012342477
180	0x3d8709ca	0.06593664
181	0x3d10ffa3	0.035400044
182	0xbe0aca68	-0.13553774
183	0xbdbaac3f	-0.091148846
184	0x3d95920e	0.07303248
185	0xbdfd49ce	-0.12367593
186	0xbd71ce83	-0.059034836
187	0x3d64710c	0.055771872
188	0xbe17a505	-0.14809044
189	0xbd223e6c	-0.03961031
190	0x3cd68c6c	0.026190005
191	0xbe166938	-0.14688575
192	0x3de66684	0.11250022
193	0x3db9aad0	0.09065783
194	0x3e45a638	0.19301689
195	0x3e2d3472	0.16914538
196	0x3dcc3b2e	0.09972225
197	0x3ab79a4f	0.001400778
198	0x3e22025b	0.15821211
199	0x3d30e68a	0.04318861
200	0x3e1c7795	0.15279992
201	0x3d857c3f	0.06517839
202	0xbddae183	-0.10687544
203	0x3d46ffa9	0.04858366
204	0x3d995fdd	0.074889876
205	0x3daac6ed	0.08338723
206	0x3cad3c53	0.021146929
207	0xbe072ebb	-0.1320142
208	0xbcd6aa87	-0.02620436
209	0x3d6bbb53	0.057551693
210	0xbd9f9525	-0.07792119
211	0x3e34063f	0.17580508
212	0x3d9b9fa2	0.07598807
213	0xbd739026	-0.059463643
214	0xbe11e1dd	-0.14246316
215	0x3e5005a1	0.20314647
216	0xbe03c1b0	-0.12866855
217	0x3dc50576	0.09620182
218	0xbe43657e	-0.19081685
219	0xbe1ca31d	-0.15296598
220	0xbd604ead	-0.05476253
221	0x3d3b9213	0.045793604
222	0xbe06187d	-0.13095279
223	0xbe50b422	-0.20381215
224	0x3e3e5d7f	0.18590353
225	0xbe12737b	-0.14301865
226	0x3db98915	0.090593494
227	0xbe6182e7	-0.22022592
228	0xbdced555	-0.100992836
229	0x3d5c1eaf	0.0537402
230	0x3c30d816	0.010793706
231	0x3d33285a	0.043739654
232	0xbe282e93	-0.16424017
233	0x3ca53923	0.020168846
234	0xbe3ad465	-0.18245085
235	0xbc1499d0	-0.009069875
236	0x3d57726d	0.05259936
237	0xbce74b5e	-0.02823418
238	0x3e16898d	0.14700909
239	0x3cbaf470	0.022821635
240	0x3e10a899	0.14126815
241	0x3de7593c	0.11296317
242	0x3d97a586	0.07404618
243	0x3b93c53f	0.0045095976
244	0xbcd96c5c	-0.026540928
245	0x3dea3192	0.11435236
246	0xbcc4ae4f	-0.024008898
247	0xbd89b78f	-0.06724464
248	0xbbc91596	-0.0061366064
249	0x3dd868af	0.10566842
250	0xbe1e69b0	-0.15470004
251	0xbe1dd135	-0.15411837
252	0xbd8c1071	-0.068390734
253	0x3e0008b2	0.12503317
254	0x3c06b51f	0.008221894
255	0xbd8e9d6d	-0.0696362

rnn.cell.kernel_h f4 [128, 37]
0	0x3e2caebd	0.16863532
1	0xbc0d3812	-0.008619325
2	0x3e389d76	0.18028817
3	0x3d101060	0.035171866
4	0xbe281677	-0.1641482
5	0x3cf9d514	0.030497111
6	0xbc611b6e	-0.01373945
7	0xbe395242	-0.18097785
8	0xbe29a05c	-0.16565078
9	0x3d74d34c	0.05977182
10	0xbd3ac8f8	-0.045601815
11	0x3da97ec9	0.082761355
12	0xbe09cc5f	-0.13456868
13	0xbdfdec01	-0.1239853
14	0xbe3e0c89	-0.1855947
15	0xbd95573a	-0.07292028
16	0x3e449b14	0.19199783
17	0xbcfe90a3	-0.031074828
18	0xbca5cb9a	-0.020238686
19	0x3e08e3cd	0.13368149
20	0x3df8372f	0.121199004
21	0xbe0ef8f8	-0.13962162
22	0xbd09fb42	-0.033686884
23	0xbd9a18b1	-0.07524241
24	0x3c63f8a0	0.013914257
25	0xbda37370	-0.07981002
26	0x3d2919da	0.04128442
27	0x3e0ccf6a	0.13750997
28	0xbe02da92	-0.1277869
29	0x3e440355	0.19141896
30	0x3d6539c8	0.055963308
31	0xbe1f5a00	-0.15561676
32	0x3dcdfdab	0.10058149
33	0x3e04a57b	0.12953751
34	0x3d83dbb5	0.0643839
35	0x3db7cce6	0.08974628
36	0xbd999b6e	-0.07500349
37	0x3e114865	0.14187773
38	0xbe164726	-0.14675578
39	0xbe12ea46	-0.1434718
40	0x3e2d0046	0.16894636
41	0xbd4bf0b5	-0.049790103
42	0xbd2c637f	-0.042087074
43	0xbcdcbd21	-0.026945652
44	0x3deabff1	0.11462391
45	0xbda9d660	-0.08292842
46	0xbd2fd60f	-0.04292875
47	0xbde2ec31	-0.11080206
48	0xbd2398ba	-0.039940573
49	0xbe39120b	-0.18073289
50	0xbe2ef671	-0.17086197
51	0x3e153914	0.14572555
52	0xbd4c9ee9	-0.049956236
53	0xbe33e448	-0.17567551
54	0xbd16750d	-0.036732722
55	0xbe055984	-0.13022429
56	0xbd2c2f5c	-0.042037353
57	0x3be27faf	0.0069121937
58	0x3e235ac3	0.15952592
59	0x3d60ce45	0.054884214
60	0x3e2ceb78	0.16886699
61	0x3c51fc79	0.012816542
62	0xbc9a9256	-0.018868607
63	0x3dc285dc	0.09498188
64	0xbdcc6b02	-0.099813476
65	0xbdf1e8ee	-0.11812006
66	0xbe08258f	-0.13295577
67	0x3e0979b0	0.13425326
68	0x3d645ff3	0.055755567
69	0x3deb33af	0.11484467
70	0x3e03c1a6	0.1286684
71	0xbd99ea8a	-0.07515438
72	0x3e78ac36	0.24284443
73	0xbe036dc8	-0.12834847
74	0xbe21c875	-0.15799125
75	0xbd981f5b	-0.074278556
76	0x3d5c5c87	0.05379918
77	0xbde09f72	-0.10967912
78	0x3db3f290	0.087864995
79	0xbd894492	-0.06702532
80	0x3dad833a	0.08472295
81	0xbe206e3d	-0.15667053
82	0xbc1b9a13	-0.009497183
83	0x3d45c101	0.048279766
84	0xbda778a7	-0.081773095
85	0xbe387056	-0.18011603
86	0xbe2bd1e9	-0.16779293
87	0x3e41800a	0.188965
88	0xbe0a5e71	-0.13512589
89	0x3e0c51f0	0.13703132
90	0x3df3ef85	0.11910919
91	0x3db29406	0.087196395
92	0xbd2d5591	-0.04231793
93	0x3d1d07cb	0.03833751
94	0xbe008b5f	-0.12553166
95	0xbd210eec	-0.03932087
96	0xbd24398d	-0.040093947
97	0x3bb21d0a	0.0054355906
98	0xbbf1cef3	-0.0073794066
99	0x3d25faf8	0.040522546
100	0xbcb033e8	-0.021509126
101	0x3e0aadc8	0.13542855
102	0x3c50f167	0.012752867
103	0x3e1be8f5	0.15225585
104	0x3d7b18a5	0.0613028
105	0x3d051ef2	0.032500215
106	0x3d64ee51	0.05589134
107	0x3d908710	0.07057011
108	0xbde8ab83	-0.11360838
109	0x3db37097	0.08761709
110	0xbcd23f8e	-0.02566507
111	0x3e1b678a	0.15176216
112	0xbdc8993c	-0.09794852
113	0xbe27f467	-0.16401826
114	0xbdb8e312	-0.09027685
115	0xbc4e40f3	-0.012588727
116	0x3d5c610b	0.053803485
117	0x3c8c8535	0.017153362
118	0xbe12a694	-0.14321357
119	0x3c1e9618	0.00967934
120	0xbd8ef07e	-0.06979464
121	0x3e0df3c7	0.13862525
122	0xbe16078a	-0.14651313
123	0xbe2b34b2	-0.1671932
124	0x3d153cb8	0.03643486
125	0xbd9b1ba4	-0.075736314
126	0xbc33ebe8	-0.010981537
127	0xbdceca82	-0.10097219
128	0x3d8a7b88	0.06761843
129	0x3e4f73e8	0.20259058
130	0x3df98188	0.12182909
131	0x3df03bc3	0.11730149
132	0xbda5eacf	-0.08101427
133	0xbe087bcc	-0.13328475
134	0x3ccf2a9d	0.025288874
135	0x3db7b786	0.08970551
136	0xbe57e531	-0.21083523
137	0xbe760c69	-0.24028172
138	0x3d4b64b0	0.04965657
139	0xbe1be116	-0.15222582
140	0xbceb43f7	-0.028718932
141	0xbe39a479	-0.18129148
142	0xbca27f40	-0.019836068
143	0x3d3ea3ae	0.046542816
144	0xbe0b72ad	-0.13617964
145	0xbe2bc600	-0.1677475
146	0xbd20d198	-0.039262384
147	0xbe3febf3	-0.18742351
148	0xbd1d31eb	-0.038377684
149	0x3e059d83	0.13048367
150	0x3dc29e76	0.0950288
151	0x3cce96df	0.025218425
152	0xbd264cef	-0.040600713
153	0xbda3ad9c	-0.07992098
154	0xbdf2d930	-0.118578315
155	0x3e404ca1	0.18779232
156	0xbe1f76c2	-0.15572646
157	0xbd7ebcd6	-0.062191807
158	0x3e0ffd0f	0.14061378
159	0x3d036689	0.032080207
160	0x3e20bdb4	0.15697366
161	0x3dfc3a31	0.12315787
162	0xbd0875b6	-0.033315383
163	0xbe12456c	-0.14284295
164	0x3e17c4ff	0.14821242
165	0xbdde5f22	-0.10857989
166	0x3c443940	0.01197654
167	0x3d09a4c2	0.03360439
168	0xbe175ae6	-0.14780769
169	0xbdcb2a11	-0.09920133
170	0x3e27d5d3	0.16390161
171	0x3d7e28f4	0.062050775
172	0xbd429c41	-0.047512297
173	0xbe37126b	-0.1787812
174	0xbdef2b6f	-0.11678206
175	0x3d807c4b	0.06273707
176	0x3d97603d	0.07391403
177	0xbde289b9	-0.11061425
178	0x3dd688bb	0.10475298
179	0x3ccbe9cf	0.024891762
180	0xbe2f07f6	-0.1709288
181	0xbdee93e5	-0.116493024
182	0x3e033e25	0.12816675
183	0x3dbcc957	0.0921809
184	0xbcdf0226	-0.027222704
185	0xbc1f4114	-0.009720106
186	0xbd78a9ee	-0.060708933
187	0x3e2546c4	0.16140276
188	0xbdc3f9c3	-0.09569123
189	0xbc84532e	-0.016152944
190	0xbcc4a82c	-0.024005972
191	0xbd1ebfbe	-0.03875708
192	0x3d98b322	0.07456042
193	0xbc60216e	-0.013679845
194	0xbd9e5407	-0.07730871
195	0x3d9887b2	0.07447757
196	0x3e3270be	0.1742582
197	0xbe029e2a	-0.12755647
198	0x3e32c832	0.17459181
199	0x3e275702	0.16341785
200	0xbd7861d6	-0.06064018
201	0xbe13912d	-0.14410849
202	0x3b70c062	0.0036735763
203	0xbda18dfd	-0.0788841
204	0xbd516bcb	-0.05112819
205	0xbde2bd4b	-0.11071261
206	0x3a173cdf	0.00057692634
207	0xbbb3277b	-0.005467353
208	0xbdb93363	-0.09043004
209	0xbd39d56f	-0.04536956
210	0xbd6d5c60	-0.057949424
211	0x3d1929b2	0.03739328
212	0x3d72a980	0.05924368
213	0xbda304ed	-0.07959924
214	0xbd8f83a7	-0.070075326
215	0xbc20cefb	-0.009814973
216	0xbd5aeed1	-0.05345041
217	0x3e1ccdf3	0.15312938
218	0x3d178c3e	0.03699898
219	0x3e36baaf	0.17844652
220	0x3e107466	0.14106902
221	0x3db0b6c0	0.08628607
222	0xbe210395	-0.15724023
223	0xbdf55e4e	-0.11980878
224	0x3d8e8ebd	0.06960819
225	0xbba39c2f	-0.004992984
226	0xbe2dc816	-0.16970858
227	0xbd0de6b9	-0.034643862
228	0xbd620fa1	-0.055190686
229	0x3b09b3d8	0.0021011736
230	0x3dcc6cb0	0.09981668
231	0x3cd41022	0.025886599
232	0x3e0692ff	0.13142012
233	0x3cc66468	0.0242178
234	0x3e481721	0.19540073
235	0x3d6cd391	0.057818953
236	0x3dec2ebf	0.115323536
237	0x3cff47ac	0.031162106
238	0xbd89a916	-0.06721704
239	0xbd68495d	-0.05671059
240	0x3d805896	0.062668964
241	0xbdd85061	-0.10562206
242	0x3da1306a	0.078705624
243	0xbbf551e8	-0.0074865706
244	0xbde4c153	-0.11169686
245	0xbd3d1707	-0.04616454
246	0x3d10a86f	0.03531688
247	0x3e327a6e	0.17429516
248	0xbe126177	-0.14294992
249	0xbd7cf01a	-0.061752416
250	0xbdd8a512	-0.1057836
251	0xbe3cc00d	-0.18432637
252	0x3ddb0307	0.10693937
253	0xbdc9118c	-0.098178
254	0xbd29bbff	-0.041439053
255	0x3cfe618f	0.031052379

rnn.cell.recurrent_kernel_z f4 [128, 128]
0	0x3e0fb4a5	0.14033754
1	0x3dbc2980	0.09187603
2	0x3d36def3	0.044646215
3	0x3d121c2f	0.03567141
4	0x3dc47467	0.095925145
5	0xbded17ef	-0.115768306
6	0xbd8ca116	-0.06866662
7	0xbd6a1d93	-0.05715711
8	0x3d8a7fd6	0.06762664
9	0xbdb9e56a	-0.090769604
10	0xbdcf9eea	-0.10137732
11	0x3d91230d	0.070867635
12	0xbe10c32e	-0.14136955
13	0x3d6e0525	0.058110375
14	0x3d267c57	0.040645923
15	0xbd9f7e46	-0.077877566
16	0x3d4f4fce	0.050613217
17	0x3dc355b8	0.09537834
18	0x3df692a3	0.120396875
19	0x3a46774f	0.0007570879
20	0x3dd6e537	0.10492938
21	0xbbf8ef0c	-0.007596856
22	0x3e0879c5	0.13327701
23	0x3d8e7a3c	0.06956908
24	0x3dd490ee	0.10379206
25	0x3bfc2538	0.0076948665
26	0xbe0f17c9	-0.13973917
27	0x3b89957c	0.004198728
28	0xbd0edc66	-0.034878157
29	0xbe1a8558	-0.15089929
30	0x3d1c060a	0.038091697
31	0x3e0ad8d2	0.13559273
32	0x3e1173f0	0.14204383
33	0xbd9340e0	-0.07190108
34	0x3a510f93	0.0007975038
35	0x3e0de9d1	0.13858725
36	0xbdf11db4	-0.117732435
37	0xbaa676db	-0.0012700217
38	0xbc8d593a	-0.01725446
39	0x3cea97ce	0.02863684
40	0x3dbfcab7	0.09364837
41	0xbd8d23cd	-0.06891594
42	0xbdb2cb6d	-0.08730207
43	0xbdb31abe	-0.08745335
44	0xbdbcec72	-0.09224786
45	0xbde3bde2	-0.11120202
46	0x3d0668d5	0.03281482
47	0xbdfe626a	-0.12421115
48	0xbdf0d09d	-0.1175854
49	0x3db32e69	0.087490864
50	0x3af6cd4b	0.0018829493
51	0x3df30bfe	0.11867522
52	0xbcfb6884	-0.030689485
53	0x3df23fbf	0.11828565
54	0xbd9c55c0	-0.07633543
55	0x3b533887	0.0032229738
56	0x3dca083a	0.0986485
57	0xbdd6a4f3	-0.1048068
58	0xbdc16772	-0.09443559
59	0xba017089	-0.00049377285
60	0xbdb745e0	-0.089488745
61	0xbda98b4b	-0.08278521
62	0xbc9390ea	-0.018013436
63	0xbd983963	-0.07432821
64	0x3d1cde4c	0.038297936
65	0x3c915e97	0.0177453
66	0x3db9f1f2	0.090793505
67	0xbe101c40	-0.14073277
68	0x3de9cd3c	0.114160985
69	0x3d748b04	0.059702888
70	0xbdab2997	-0.08357542
71	0x3dfdcac5	0.12392191
72	0xbe13aa10	-0.14420342
73	0xbc5b49a4	-0.0133842565
74	0xbc16635e	-0.009178964
75	0xbc382f59	-0.011241757
76	0x3dc739f9	0.09727854
77	0xbdea927f	-0.11453723
78	0xbd9f2208	-0.07770163
79	0xbdfa0f87	-0.12209993
80	0xbb19e1fb	-0.0023480642
81	0xbb7f4428	-0.0038950536
82	0xbddd5353	-0.108069085
83	0xbdef121c	-0.11673376
84	0xbd994207	-0.07483297
85	0xbda33967	-0.07969933
86	0x3d829b27	0.06377249
87	0xbde05982	-0.10954572
88	0xbd39ddfb	-0.045377713
89	0xbce86195	-0.028366843
90	0x3d893b71	0.06700791
91	0x3d43b066	0.04777565
92	0x3c0fccda	0.008776868
93	0xbd59a903	-0.053139698
94	0x3ce167e4	0.02751536
95	0x3d128e0b	0.035779994
96	0xbdbf5696	-0.09342687
97	0x3d949a27	0.07255965
98	0xbdb6c201	-0.08923722
99	0x3c9f1d14	0.019423045
100	0xbe248462	-0.16066125
101	0xbdf581b8	-0.119876325
102	0x3e181a16	0.14853701
103	0x3cc8e801	0.02452469
104	0xbe09729a	-0.13422623
105	0xbd5ff227	-0.054674294
106	0x3c4f737d	0.012661812
107	0x3dc71a40	0.09721804
108	0x3cd06c42	0.025442246
109	0xbe23ca84	-0.15995222
110	0xbd80cb01	-0.0628872
111	0xbde1e5d3	-0.110301636
112	0x3d9d6f65	0.076872624
113	0xbd2515b9	-0.04030392
114	0xbcb1b4bf	-0.021692632
115	0x3e0eaeed	0.13933916
116	0xbd60e117	-0.054902162
117	0xbda501ec	-0.08057007
118	0x3d3f73d2	0.046741314
119	0xbcc6f610	-0.024287254
120	0xbd823f30	-0.06359708
121	0x3da6eee4	0.081510335
122	0x3e1066c4	0.14101702
123	0xbd9e135a	-0.07718535
124	0xbd989cc7	-0.07451778
125	0x3db83d07	0.08996015
126	0xbdae4d40	-0.08510828
127	0xbdc49d28	-0.09600288
128	0x3e103c2b	0.14085452
129	0x3ddc4bf9	0.10756678
130	0x3d0cfeac	0.03442256
131	0x3d90e7bd	0.070754506
132	0x3c11df09	0.008903273
133	0x3b818983	0.0039531603
134	0x3d2c594b	0.042077344
135	0xbda15af5	-0.07878677
136	0xbe26a613	-0.1627429
137	0x3d3eef70	0.046615064
138	0xbcd20b47	-0.025640143
139	0x3c5d3ae5	0.013502811
140	0xbd174d1a	-0.036938764
141	0xbda2c590	-0.07947838
142	0xbe3b1f71	-0.18273713
143	0xbe0ce72f	-0.13760065
144	0xbdc6ceb5	-0.09707395
145	0xbe2d7723	-0.16939978
146	0x3c8e94ff	0.017405031
147	0xbdff85cc	-0.124766916
148	0x3de27da2	0.11059119
149	0x3df45463	0.11930158
150	0x3d28b106	0.041184448
151	0xbe1d027b	-0.15332977
152	0x3d0e601c	0.034759626
153	0xbd8a2342	-0.06745006
154	0xbdda8927	-0.10670691
155	0xbdc6cdb2	-0.09707202
156	0x3c6b62a7	0.014366782
157	0xbd0fc55b	-0.035100322
158	0x3d01bc82	0.031673916
159	0xbe169023	-0.14703421
160	0xba477dd0	-0.0007609995
161	0x3de0235f	0.109442465
162	0x3dc9d270	0.09854591
163	0x3e1e8682	0.15480998
164	0xbd7d7c82	-0.061886318
165	0xbe123b48	-0.14280427
166	0x3e03a050	0.12854123
167	0x3d9e91c7	0.077426486
168	0x3c98e412	0.01866344
169	0x3e24305f	0.16034077
170	0x3c3cb7eb	0.011518459
171	0x3da949ab	0.08266004
172	0xbcce01a6	-0.02514727
173	0xbcbf0079	-0.023315655
174	0x3dc5ba74	0.09654704
175	0xbd1c197e	-0.03811025
176	0xbd6db9e3	-0.058038604
177	0x3da552e6	0.08072452
178	0xbda488b0	-0.080338836
179	0x3e083bcc	0.1330406
180	0x3d21bca5	0.039486546
181	0x3d51ddd5	0.051236946
182	0xbd20fde5	-0.039304633
183	0xbd541534	-0.051778033
184	0x3d346cec	0.04404919
185	0x3e0bda4c	0.13657492
186	0xbc3238d2	-0.010877805
187	0xbd742e0f	-0.059614237
188	0x3d9333ba	0.071876004
189	0xbdd5856f	-0.10425841
190	0x3d5e8df1	0.054334585
191	0xbe0549ef	-0.13016485
192	0xbe09f03d	-0.1347055
193	0xbdebbd7a	-0.11510749
194	0xbdb39255	-0.08768145
195	0xbe1e2d21	-0.15446903
196	0xbd12c95a	-0.035836555
197	0x3db6c1e8	0.089237034
198	0xbd8f4d8b	-0.06997212
199	0xbceb9b87	-0.028760685
200	0xbdaab6f5	-0.083356775
201	0x3d38d474	0.045124486
202	0xba12ac73	-0.0005595155
203	0xbdde3553	-0.108500145
204	0xbe279bf0	-0.16368079
205	0xbdfa6dcb	-0.122279726
206	0xbcc0b6d5	-0.023524681
207	0xbc65babb	-0.014021571
208	0x3de743b7	0.112922125
209	0x3d58c130	0.052918613
210	0xbcf73b50	-0.03017965
211	0x3c1ac251	0.009445743
212	0xbe4ef235	-0.20209582
213	0xbc3ddc28	-0.011588134
214	0xbcaa38d2	-0.020779047
215	0xbe32dfcc	-0.17468184
216	0xbe2e8de7	-0.17046319
217	0x3d97a0d2	0.07403721
218	0x3e1a536d	0.15070887
219	0xbd6b4ea0	-0.05744803
220	0xbce2d467	-0.027689172
221	0xbdb315e0	-0.08744407
222	0xbc34e7de	-0.01104161
223	0x3bc72caa	0.0060783224
224	0xbce123d4	-0.027482904
225	0x3d160dec	0.03663437
226	0xbda7ce88	-0.081936896
227	0x3ccf0c08	0.025274292
228	0x3de87f44	0.11352399
229	0x3e2c1186	0.1680356
230	0xbd15794f	-0.036492642
231	0x3bd1a577	0.006397899
232	0x3c83247b	0.016008606
233	0xbe0ee323	-0.13953833
234	0xbe25fb53	-0.16209154
235	0x3e12251a	0.14271966
236	0x3e017e02	0.12645724
237	0xbdebeb52	-0.11519493
238	0xbcb82f2e	-0.022483435
239	0x3d5af486	0.053455852
240	0xbdf7f5ab	-0.12107404
241	0xbc9460e6	-0.018112611
242	0x3c9d4ea4	0.019202538
243	0x3e14bfff	0.14526366
244	0x3cea658f	0.02861288
245	0xbd2bdca4	-0.041958466
246	0x3ba00658	0.0048835687
247	0xbd48af6c	-0.04899542
248	0x3dcc89cd	0.09987221
249	0xbcc788b3	-0.024357175
250	0x3c7fc75c	0.015611496
251	0x3dca6cd4	0.098840386
252	0xbd03ace1	-0.032147292
253	0xbc830e4e	-0.015998032
254	0xbe2726be	-0.16323373
255	0xbca15f91	-0.01969889

rnn.cell.recurrent_kernel_r f4 [128, 128]
0	0x3e1c4594	0.15260917
1	0xbdebf58e	-0.11521445
2	0x3ceb6d0d	0.028738523
3	0x3e1af7d0	0.15133595
4	0xbdaea011	-0.08526624
5	0x3dd23c36	0.102653906
6	0xbc43a3a5	-0.011940871
7	0xbcc655ad	-0.024210775
8	0xbd98a069	-0.07452471
9	0x3c2c1724	0.010503564
10	0xbd971c6a	-0.073784664
11	0xbe1d0e46	-0.15337476
12	0xbdb61d5f	-0.08892321
13	0xbe1467d1	-0.14492728
14	0xbe11361e	-0.141808
15	0xba909fa7	-0.0011033908
16	0x3e1c91b1	0.15289952
17	0xbe11a1cc	-0.14221877
18	0x3d217749	0.0394204
19	0x3e16a5ad	0.14711638
20	0x3db60d2e	0.088892326
21	0x3dcd2171	0.10016144
22	0x3db7c6f0	0.08973491
23	0xbd4fb03d	-0.050705183
24	0x3df59453	0.11991181
25	0x3cffed60	0.031241119
26	0xbd38f4cc	-0.04515533
27	0xbe02d857	-0.1277784
28	0xbdbd04d2	-0.09229435
29	0x3dbb320a	0.091404036
30	0xbddd94bd	-0.10819385
31	0xbdbb6caa	-0.091515854
32	0x3d2b825c	0.041872367
33	0x3d67d457	0.056598987
34	0xbe12e618	-0.14345586
35	0x3da455b7	0.08024161
36	0x3dae660d	0.085155584
37	0x3e1c302e	0.15252754
38	0x3dffcc82	0.12490179
39	0x3dbb61c9	0.091495104
40	0x3d9cffee	0.07666002
41	0xbb18c6a2	-0.0023311754
42	0x3c055d72	0.008139955
43	0xbd8e20a2	-0.06939818
44	0x3d85e389	0.065375395
45	0x3de94add	0.11391232
46	0xbde236ef	-0.11045634
47	0x3db4cd77	0.08828252
48	0x3dd117a6	0.10209589
49	0xbe2112bc	-0.15729803
50	0xbd7fdab9	-0.06246445
51	0xbdf24732	-0.11829986
52	0xbdee7fc5	-0.11645464
53	0x3ddf17ca	0.10893209
54	0x3bfd112f	0.0077229957
55	0x3d81885c	0.063248366
56	0xbdf6d0e1	-0.12051559
57	0xbd44cf44	-0.048049226
58	0x3dff6228	0.12469894
59	0xbd0d0216	-0.034425817
60	0xbde57fe3	-0.11206033
61	0x3d0743f8	0.033023804
62	0x3dfa5ed2	0.12225117
63	0x3d508bae	0.05091446
64	0x3dc9259d	0.09821627
65	0xbdac95ac	-0.08426985
66	0xbde7a8da	-0.11311503
67	0xbd654f00	-0.055983543
68	0xbe1c8eb0	-0.15288806
69	0x3db309f0	0.0874213
70	0x3d0aa97c	0.03385304
71	0xbdc96bac	-0.0983499
72	0xbdf67d0a	-0.12035568
73	0x3d1f94cc	0.038960263
74	0xbdbc51b5	-0.09195272
75	0xbe1310f0	-0.1436193
76	0xbd98bc4d	-0.074577905
77	0x3da7a24b	0.08185252
78	0xbd8a170e	-0.067426786
79	0x3d08c652	0.033392258
80	0x3d0db36f	0.03459495
81	0x3db18851	0.086685784
82	0xbd80ec85	-0.062951125
83	0x3e07f324	0.13276345
84	0x3d6b09d6	0.057382427
85	0x3d97fc0f	0.07421123
86	0x3e18c212	0.14917782
87	0x3c80edfc	0.01573848
88	0xbdf336a1	-0.11875654
89	0x3dd138b6	0.10215895
90	0xbd274dfe	-0.040845864
91	0x3e1c8cc4	0.15288073
92	0x3da91e12	0.082576886
93	0xbc885a94	-0.016644754
94	0x3a60cb9c	0.0008575262
95	0x3e0094d9	0.12556781
96	0xbdc92c0e	-0.09822856
97	0xbdf33ade	-0.118764624
98	0x3e16de97	0.14733349
99	0x3dc46529	0.09589607
100	0x3da15aa7	0.07878619
101	0x3dfc6ed5	0.12325827
102	0x3db2e533	0.087351225
103	0xbe079711	-0.13241221
104	0xbc03fa34	-0.008055259
105	0x3dfa57a7	0.122237496
106	0x3ce68f24	0.028144427
107	0x3ceec90f	0.029148607
108	0xbdc8cdd2	-0.09804882
109	0xbe07cee3	-0.13262515
110	0x3d98694f	0.07441961
111	0x3e2e07d2	0.1699517
112	0x3d9d74ed	0.076883174
113	0xbc0e90a4	-0.008701477
114	0x3df2774c	0.1183916
115	0xbe16f11d	-0.14740415
116	0xbd8f1b74	-0.06987658
117	0x3db6d673	0.08927622
118	0x3de1e5bd	0.11030147
119	0x3c3f1b8d	0.011664283
120	0x3dae6927	0.0851615
121	0xbe24e42e	-0.16102669
122	0xbdc2b385	-0.09506897
123	0xbdb34caa	-0.08754857
124	0xbd80f8db	-0.062974654
125	0x3c888b27	0.016667916
126	0xbd841408	-0.06449133
127	0xbd8f0faa	-0.069854096
128	0x3da99fda	0.082824424
129	0x3d871540	0.0659585
130	0xbd83680b	-0.06416329
131	0xbc42d942	-0.011892619
132	0xbd08ca25	-0.033395905
133	0x3d1521dd	0.036409248
134	0x3d945683	0.07243063
135	0x3d84a32b	0.06476434
136	0xbd0649b0	-0.032785118
137	0x3da1a1fe	0.07892226
138	0xbd447d32	-0.047970958
139	0x3c0deb3b	0.00866204
140	0x3c5eaaab	0.013590495
141	0x3a8e0c1c	0.0010837349
142	0x3d1d1921	0.038354043
143	0xbd8edd66	-0.06975822
144	0x3cfeeb02	0.03111792
145	0xbd7b530e	-0.061358504
146	0x3d3ee5bd	0.046605814
147	0xbdcc68fa	-0.0998096
148	0x3c441db7	0.011969975
149	0xbe0e6a26	-0.1390768
150	0x3e307983	0.17233853
151	0xbd46c216	-0.04852494
152	0x3b3ef0ab	0.0029135149
153	0x3dc0e239	0.094181485
154	0x3ba466a8	0.0050171204
155	0xbde006ad	-0.10938773
156	0xbe11332c	-0.14179677
157	0xbe11a51c	-0.1422314
158	0xbdbd04c7	-0.09229427
159	0x3d93dd6d	0.07219968
160	0xbdd1d89b	-0.10246392
161	0x3d8a6ef7	0.06759446
162	0x3dd9f972	0.10643281
163	0xbe02c6c9	-0.12771143
164	0x3da6aed8	0.081388175
165	0xbe209f5b	-0.1568579
166	0x3e268e18	0.16265142
167	0x3e0308cb	0.12796323
168	0xbd8ba279	-0.068180986
169	0xbdb8d28f	-0.09024536
170	0x3b8447e3	0.00403689
171	0x3dff162a	0.12455399
172	0xbca35acd	-0.019940758
173	0x3da815b2	0.08207263
174	0x3e0f8f4c	0.14019507
175	0x3d715469	0.05891839
176	0xbd92be9c	-0.07165262
177	0x3e354579	0.17702283
178	0xbdc37992	-0.09544672
179	0xbc01bcd0	-0.007918552
180	0xbe1cd383	-0.1531506
181	0xbcb02098	-0.021499917
182	0xbda125c8	-0.07868534
183	0x3d8bf9dd	0.06834767
184	0xbc98070d	-0.01855805
185	0x3e36858c	0.17824382
186	0x3d37150d	0.04469781
187	0x3b625e7c	0.003454118
188	0x3c85a0aa	0.016311962
189	0xbd48bcb8	-0.0490081
190	0x3b829238	0.003984716
191	0x3c92de20	0.017928183
192	0x3e0b7136	0.13617405
193	0x3d9ab210	0.07553494
194	0x3c780685	0.015138273
195	0xbd3f2ea3	-0.046675336
196	0xbd13a579	-0.03604648
197	0xbd3a62f6	-0.045504533
198	0xbdd215bf	-0.10258054
199	0xbdd80447	-0.10547691
200	0x3ceba4e2	0.028765146
201	0x3d2d6aa1	0.042338017
202	0xba7f2f24	-0.00097345025
203	0x3e0163bf	0.12635706
204	0xbdb7a68b	-0.089673124
205	0xbd400d65	-0.046887774
206	0x3d945a53	0.072437905
207	0x3df7b713	0.120954655
208	0x3d4ecdbe	0.05048918
209	0xbe44527a	-0.19172087
210	0xbdcb7880	-0.09935093
211	0xbe165585	-0.1468106
212	0x3d999375	0.07498828
213	0xbe303e6c	-0.17211312
214	0x3d4d9894	0.050194338
215	0xbe12aa93	-0.14322881
216	0x3d29ab09	0.041422877
217	0xbd1a4456	-0.037662826
218	0xbbd254ca	-0.006418799
219	0xbd74e606	-0.05978968
220	0xbb2eaffd	-0.002665519
221	0xbd88d115	-0.06680504
222	0xbdd48ea2	-0.103787675
223	0x3dd589e0	0.10426688
224	0x3dbbc8b6	0.09169142
225	0x3db28267	0.087162785
226	0xbd54b706	-0.051932357
227	0xbe044f27	-0.12920819
228	0x3db0b531	0.086283095
229	0x3e31634d	0.17323036
230	0xbcc51e27	-0.02406223
231	0x3d945c81	0.07244206
232	0x3cfb472c	0.030673586
233	0xbd6a9b6d	-0.05727713
234	0xbc84fbc7	-0.016233338
235	0x3d004668	0.031317145
236	0x3dc102c3	0.09424355
237	0x3d1095ad	0.035298992
238	0x3e021733	0.12704162
239	0x3d81e038	0.063415945
240	0xbcc0b3f6	-0.023523312
241	0xbd67481c	-0.056465253
242	0xbc60278e	-0.013681306
243	0x3d86ae5d	0.06576226
244	0xbd862977	-0.065508775
245	0xbae58f05	-0.0017513937
246	0xbd83b561	-0.0643108
247	0xbd4bb62b	-0.049734276
248	0x3de918e9	0.11381704
249	0x3d7b6e36	0.061384402
250	0x3d8368cc	0.06416473
251	0xbe07de0c	-0.13268298
252	0xbd26a1ef	-0.040681776
253	0xbd3c3b56	-0.045955025
254	0x3c5cbbb3	0.013472485
255	0xbcf1942a	-0.029489595

rnn.cell.recurrent_kernel_h f4 [128, 128]
0	0xbadb0070	-0.0016708504
1	0xbcfad122	-0.0306173
2	0x3d121014	0.035659865
3	0xbdccd790	-0.10002053
4	0x3ca33e7f	0.019927261
5	0xbcc74ca4	-0.024328537
6	0xbd66dff2	-0.056365915
7	0x3dc051c1	0.09390593
8	0xbc72da7b	-0.014822598
9	0x3c5f6ed0	0.01363726
10	0xbe0fc4df	-0.14039944
11	0x3d225b90	0.039638102
12	0xbd4181e4	-0.047243014
13	0xbcf32675	-0.029681424
14	0xbdb6ab65	-0.0891941
15	0x3e1bebe4	0.15226704
16	0xbcf31485	-0.02967287
17	0xbd9b8a45	-0.07594732
18	0x3e16852a	0.14699236
19	0x3dd6f05d	0.104950644
20	0x3d3f11d7	0.046647873
21	0xbdfc8a05	-0.12331013
22	0x3dbbb234	0.09164849
23	0xbe095899	-0.13412704
24	0xbcce1405	-0.02515603
25	0xbc31795c	-0.010832157
26	0x3d199093	0.037491392
27	0xbd8c69ac	-0.06856093
28	0xbd3d7de6	-0.046262644
29	0x3dbdf60e	0.09275447
30	0xbda9fdb5	-0.08300344
31	0xb9cf5089	-0.0003954212
32	0xbd95332f	-0.07285153
33	0xbe0bffd6	-0.13671812
34	0x3e1f9f6f	0.15588163
35	0x3d7f5774	0.06233926
36	0x3dc5c87c	0.0965738
37	0x3d7a6cb8	0.06113884
38	0x3e0a3b27	0.13499127
39	0xbc09c579	-0.008408898
40	0x3de22d92	0.11043848
41	0x3d69ce7a	0.057081677
42	0xbdaf7fde	-0.085693106
43	0x3de1a894	0.11018482
44	0xbdcae087	-0.099061064
45	0xbdda1bd3	-0.10649838
46	0x3cf74276	0.030183058
47	0xbe0774e1	-0.1322818
48	0x3c2e9232	0.010654973
49	0x3da1478b	0.07874974
50	0x3d08a0c6	0.03335645
51	0xbd08fa0e	-0.033441596
52	0xbe253f4f	-0.16137432
53	0xbddd1d26	-0.10796575
54	0xbcb1f1b6	-0.021721702
55	0x3dbae4bf	0.09125661
56	0x39287395	0.00016064786
57	0xbb95dd10	-0.004573472
58	0x3e217446	0.15767011
59	0xbd05f202	-0.0327015
60	0xbe043639	-0.1291131
61	0x3e25ff29	0.16210617
62	0xbdb62563	-0.0889385
63	0x3d98f4e1	0.07468582
64	0x3dc2a29e	0.09503673
65	0x3c4de9a3	0.01256791
66	0x3d6e8cec	0.058239862
67	0xbdd5f9d0	-0.104480386
68	0x3d969eaa	0.073544815
69	0xbdd4480b	-0.103653036
70	0x3dbffbc1	0.0937419
71	0x3e0d7d16	0.13817248
72	0x3d2b1f50	0.04177791
73	0x3dea844d	0.114510156
74	0x3e164091	0.14673068
75	0xbd063892	-0.032768793
76	0xbe1f682c	-0.15567082
77	0xbe0306ad	-0.12795515
78	0x3d50398b	0.050836127
79	0xbe20a410	-0.15687585
80	0x3dd13628	0.102154076
81	0xbe277942	-0.1635485
82	0x3e1c6ae3	0.15275149
83	0x3d30333b	0.043017607
84	0x3dba5e61	0.091000326
85	0xbda11808	-0.07865912
86	0x3db312b2	0.087438
87	0x3e227814	0.15866119
88	0x3dba0d93	0.0908462
89	0xbd5d7e90	-0.054075778
90	0x3e125194	0.14288932
91	0x3b3638e6	0.002780491
92	0x3d2f1922	0.042748578
93	0xbdbb95cb	-0.0915943
94	0x3dd6a0d0	0.10479891
95	0x3dc29bd3	0.09502377
96	0x3da017fe	0.07817076
97	0x3c3ecac7	0.011645026
98	0x3cb794ee	0.022409882
99	0x3db51dd6	0.088435814
100	0x3d99fbcb	0.07518729
101	0xbd8da8b3	-0.069169424
102	0x3bdcc2d2	0.0067370916
103	0x3dd16df3	0.10226049
104	0xbdd83ba4	-0.105582505
105	0x3da56dec	0.080776066
106	0xbd9f6225	-0.077823915
107	0xbde6e124	-0.11273411
108	0xbc632543	-0.013863864
109	0xbd2ce569	-0.04221097
110	0xbc9820a7	-0.018570257
111	0x3d366596	0.044530474
112	0x3ddcc8d3	0.10780492
113	0x3e040702	0.12893298
114	0x3d3c376a	0.045951284
115	0x3d12a445	0.03580119
116	0xbd0b798a	-0.034051456
117	0x3dc2e299	0.09515876
118	0xbd5894da	-0.05287633
119	0xbd459bf7	-0.048244443
120	0x3de69f3b	0.112608396
121	0x3d621e2e	0.055204563
122	0x3c61b693	0.013776439
123	0x3d848b29	0.06471855
124	0xbde4beba	-0.11169191
125	0xbd2d9dc0	-0.04238677
126	0xbdde9def	-0.10869967
127	0x3d285b3a	0.041102625
128	0xbd928cd7	-0.07155769
129	0x3d82a03e	0.0637822
130	0x3d219c98	0.03945598
131	0x3d0893ad	0.03334396
132	0x3dfd3709	0.12364013
133	0xbe1aa7f2	-0.15103129
134	0x3c7d7374	0.015469421
135	0x3dd953b6	0.1061167
136	0x3dcf0965	0.10109214
137	0x3db51379	0.08841605
138	0xbdbafdbe	-0.09130429
139	0xba04a13f	-0.0005059428
140	0x3d6558ff	0.055993076
141	0xbe0c444d	-0.1369793
142	0x3e1f8423	0.1557775
143	0xbda11a29	-0.07866318
144	0xbd85077b	-0.064955674
145	0x3df66e7a	0.120327905
146	0x3c8dfd20	0.017332613
147	0xbe1ff20e	-0.1561968
148	0xbdeca3b6	-0.11554663
149	0x3e1fdbdc	0.15611213
150	0xbd85c696	-0.06532018
151	0xbc3273ff	-0.010891913
152	0xbdd6f569	-0.10496027
153	0x3d7ad049	0.061233792
154	0x3dc0d321	0.0941527
155	0x3cc77fb6	0.02435289
156	0xbda45c24	-0.08025387
157	0xbe1ceab2	-0.15323904
158	0x3a661bba	0.0008777935
159	0x3e01e32a	0.12684312
160	0xbc619868	-0.013769247
161	0xbb40afcf	-0.0029401665
162	0x3e279bb0	0.16367984
163	0xbcc38385	-0.023866424
164	0xbd308ee0	-0.043105006
165	0xbded6835	-0.115921415
166	0x3d447753	0.04796536
167	0x3d520e2a	0.05128304
168	0xbe0da395	-0.13831933
169	0x3e16e760	0.147367
170	0x3cae203c	0.021255605
171	0x3db41a4c	0.08794078
172	0xbd8bc635	-0.06824914
173	0x3e1e2f20	0.15447664
174	0xbdc983d7	-0.098395996
175	0xbd88d5b3	-0.06681385
176	0xbc9589b1	-0.018254133
177	0xbb3e3e63	-0.0029028885
178	0xbd80e10d	-0.06292925
179	0x3deaea76	0.11470501
180	0xbe0f756f	-0.14009641
181	0x3d3a7342	0.045520075
182	0xbdd70564	-0.10499075
183	0x3be25215	0.0069067576
184	0xbd190d55	-0.03736623
185	0xbdefd924	-0.11711338
186	0x3d936ac1	0.07198096
187	0xb968029f	-0.0002212622
188	0xbc886518	-0.016649768
189	0xbbf1d368	-0.007379938
190	0xbc745852	-0.014913635
191	0xbd8065b5	-0.06269399
192	0xbd9630e9	-0.073335476
193	0xbd6392ca	-0.05555991
194	0x3d24136a	0.040057577
195	0x3d827430	0.06369817
196	0x3df82e6d	0.1211823
197	0x3dc813bd	0.0976939
198	0xbdab2cb4	-0.08358136
199	0x3e066f63	0.13128428
200	0x3d1d532e	0.038409404
201	0x3e09c032	0.13452223
202	0xbd466107	-0.048432376
203	0x3dba4d61	0.0909679
204	0xbe1e9e03	-0.15489964
205	0xbd197e8f	-0.03747421
206	0x3dd660db	0.104676925
207	0xbd958b41	-0.07301951
208	0x3d437db4	0.0477273
209	0xbe25a7bb	-0.16177265
210	0xbcdea376	-0.027177554
211	0x3dbbce52	0.09170212
212	0xbd986508	-0.07441145
213	0xbe2237ce	-0.158416
214	0xbd335f6f	-0.043792184
215	0x3d94db5e	0.072684035
216	0xbdf0c6b0	-0.11756647
217	0xbde33214	-0.11093536
218	0xbd65c515	-0.056096155
219	0x3d6103e6	0.05493536
220	0x3d856689	0.06513698
221	0xbcf89302	-0.030343536
222	0xbd79d0ea	-0.06099025
223	0xbdca872e	-0.09889065
224	0x3d5b499d	0.053537
225	0x3cbeacb1	0.023275705
226	0xbbe0f033	-0.0068645715
227	0xbba19c6a	-0.004931976
228	0xbc9dd349	-0.019265788
229	0xbdc0808f	-0.093995206
230	0x3dc43cd3	0.09581914
231	0x3e36161b	0.1778187
232	0x3d1b0fff	0.037857052
233	0xbe31effc	-0.17376703
234	0x3dd48698	0.10377234
235	0x3e1e4dc9	0.1545936
236	0x3c159b76	0.009131303
237	0xbd970225	-0.07373456
238	0xbcc738a1	-0.024318995
239	0xbd728b8f	-0.059215125
240	0xbd8f951f	-0.070108645
241	0x3d2bab0d	0.041911174
242	0xbd9f789c	-0.07786676
243	0x3de5d770	0.11222732
244	0xbd43ab5d	-0.047770847
245	0xbdab10a1	-0.08352781
246	0xbdacb638	-0.08433193
247	0xbe05971b	-0.13045923
248	0xbdca2a9c	-0.09871408
249	0xbdaff520	-0.08591676
250	0x3d039ba8	0.032130867
251	0x3d92d471	0.07169426
252	0xbdc6c138	-0.09704822
253	0xbda580fe	-0.08081244
254	0x3e18782c	0.14889592
255	0xbe27e8b2	-0.1639736

rnn.cell.bias_z f4 [128]
0	0x000000ff	3.57e-43
1	0x00000000	0.0
2	0x00000000	0.0
3	0x00000000	0.0
4	0x00000000	0.0
5	0x00000000	0.0
6	0x00000000	0.0
7	0x00000000	0.0
8	0x00000000	0.0
9	0x00000000	0.0
10	0x00000000	0.0
11	0x00000000	0.0
12	0x00000070	1.57e-43
13	0x00000000	0.0
14	0x00000211	7.41e-43
15	0x00000000	0.0
16	0x25ea2770	4.0619253e-16
17	0x00000000	0.0
18	0x25237d30	1.4180412e-16
19	0x00000000	0.0
20	0x00000000	0.0
21	0x00000000	0.0
22	0x00000000	0.0
23	0x00000000	0.0
24	0x00000000	0.0
25	0x00000000	0.0
26	0x00000000	0.0
27	0x00000000	0.0
28	0x00000000	0.0
29	0x00000000	0.0
30	0x00000000	0.0
31	0x00000000	0.0
32	0x00000000	0.0
33	0x00000000	0.0
34	0x00000000	0.0
35	0x00000000	0.0
36	0x21f275c0	1.6429726e-18
37	0x00000000	0.0
38	0x21f275c0	1.6429726e-18
39	0x00000000	0.0
40	0x00000070	1.57e-43
41	0x00000000	0.0
42	0x00000120	4.04e-43
43	0x00000000	0.0
44	0x04d01bc8	4.8926078e-36
45	0x00007f3e	4.5646e-41
46	0x09481e18	2.4088274e-33
47	0x00007f3e	4.5646e-41
48	0xb835dcc0	-4.3359352e-05
49	0x00007f3d	4.5644e-41
50	0x00000000	0.0
51	0x00000000	0.0
52	0x00000000	0.0
53	0x00000000	0.0
54	0x00000000	0.0
55	0x00000000	0.0
56	0x00000000	0.0
57	0x00000000	0.0
58	0x00000000	0.0
59	0x00000000	0.0
60	0x00000000	0.0
61	0x00000000	0.0
62	0x00000000	0.0
63	0x00000000	0.0
64	0x00000000	0.0
65	0x00000000	0.0
66	0x00000000	0.0
67	0x00000000	0.0
68	0x00000000	0.0
69	0x00000000	0.0
70	0x00000000	0.0
71	0x00000000	0.0
72	0x00000000	0.0
73	0x00000000	0.0
74	0x21010000	4.37069e-19
75	0x00000000	0.0
76	0x00000000	0.0
77	0x00000000	0.0
78	0x00000000	0.0
79	0x00000000	0.0
80	0x00000000	0.0
81	0x00000000	0.0
82	0x00000000	0.0
83	0x00000000	0.0
84	0x00000000	0.0
85	0x00000000	0.0
86	0xf72fccb0	-3.5656387e+33
87	0x00007f3b	4.5642e-41
88	0x80000000	-0.0
89	0x00000000	0.0
90	0x00000000	0.0
91	0x00000010	2.2e-44
92	0x00000000	0.0
93	0x00000000	0.0
94	0x00000000	0.0
95	0x00000000	0.0
96	0x00000000	0.0
97	0x00000000	0.0
98	0x00000000	0.0
99	0x00000000	0.0
100	0x00000000	0.0
101	0x00000000	0.0
102	0x00000000	0.0
103	0x00000000	0.0
104	0x00000000	0.0
105	0x00000000	0.0
106	0x00000000	0.0
107	0x00000000	0.0
108	0x00000000	0.0
109	0x00000000	0.0
110	0x00000001	1e-45
111	0x00000000	0.0
112	0x21a91103	1.1456388e-18
113	0x00000000	0.0
114	0x00000081	1.81e-43
115	0x00000000	0.0
116	0x256072f0	1.9467845e-16
117	0x00000000	0.0
118	0x207a2d10	2.1190734e-19
119	0x00000000	0.0
120	0x00003600	1.9372e-41
121	0x00000000	0.0
122	0x00000061	1.36e-43
123	0x00000000	0.0
124	0x2585ceff	2.3212088e-16
125	0x00000000	0.0
126	0x247486c0	5.3023204e-17
127	0x00000000	0.0

rnn.cell.bias_r f4 [128]
0	0x00000001	1e-45
1	0x00000000	0.0
2	0x00000c00	4.305e-42
3	0x00000000	0.0
4	0x00000100	3.59e-43
5	0x00000000	0.0
6	0xb83eef00	-4.5522116e-05
7	0x00007f3d	4.5644e-41
8	0x00000000	0.0
9	0x00000000	0.0
10	0x00000000	0.0
11	0x00000000	0.0
12	0x00060001	5.51014e-40
13	0x001c0000	2.571394e-39
14	0x000001f1	6.96e-43
15	0x00000000	0.0
16	0x220af200	1.8830601e-18
17	0x00000000	0.0
18	0x24d06350	9.037386e-17
19	0x00000000	0.0
20	0x19a3ece0	1.6949478e-23
21	0x00000000	0.0
22	0x00000000	0.0
23	0x00000000	0.0
24	0x0000033f	1.164e-42
25	0x3f000000	0.5
26	0x00000000	0.0
27	0x00000000	0.0
28	0x00006000	3.4438e-41
29	0x00000000	0.0
30	0x00000c00	4.305e-42
31	0x00000000	0.0
32	0x19957dd0	1.5457054e-23
33	0x00000000	0.0
34	0x0dc70400	1.2265285e-30
35	0x00007f3c	4.5643e-41
36	0x00060100	5.51372e-40
37	0x001c0000	2.571394e-39
38	0x2489b7d0	5.972567e-17
39	0x00000000	0.0
40	0x22174380	2.050005e-18
41	0x00000000	0.0
42	0x00000000	0.0
43	0x00000000	0.0
44	0x00000000	0.0
45	0x00000000	0.0
46	0x00000000	0.0
47	0x00000000	0.0
48	0x00000000	0.0
49	0x00000000	0.0
50	0x00000000	0.0
51	0x00000000	0.0
52	0x000000a0	2.24e-43
53	0x00000000	0.0
54	0x00000070	1.57e-43
55	0x00000000	0.0
56	0x220b68ee	1.8893562e-18
57	0x00000000	0.0
58	0x0c5face0	1.7231318e-31
59	0x00007f3e	4.5646e-41
60	0x00000001	1e-45
61	0x00000000	0.0
62	0x700820ff	1.685194e+29
63	0x00007f3c	4.5643e-41
64	0xb8393a30	-4.416163e-05
65	0x00007f3d	4.5644e-41
66	0x70082000	1.6851459e+29
67	0x00007f3c	4.5643e-41
68	0x000000ff	3.57e-43
69	0x00000000	0.0
70	0x00004000	2.2959e-41
71	0x00000000	0.0
72	0x00000100	3.59e-43
73	0x6144676e	2.2643842e+20
74	0xb83eef00	-4.5522116e-05
75	0x00007f3d	4.5644e-41
76	0x00000000	0.0
77	0x00000000	0.0
78	0x00000000	0.0
79	0x00000000	0.0
80	0x00000110	3.81e-43
81	0x00000000	0.0
82	0x00000070	1.57e-43
83	0x00000000	0.0
84	0x24d1f9ce	9.106249e-17
85	0x00000000	0.0
86	0x00000000	0.0
87	0x00000000	0.0
88	0x00000001	1e-45
89	0x00000000	0.0
90	0x0dc74c00	1.2282618e-30
91	0x00007f3c	4.5643e-41
92	0xb8393a30	-4.416163e-05
93	0x00007f3d	4.5644e-41
94	0x0dc74c00	1.2282618e-30
95	0x00007f3c	4.5643e-41
96	0x207c0001	2.1345232e-19
97	0x00000000	0.0
98	0x00000c00	4.305e-42
99	0x00000000	0.0
100	0x00000100	3.59e-43
101	0x00000000	0.0
102	0xb83eef00	-4.5522116e-05
103	0x00007f3d	4.5644e-41
104	0x00000000	0.0
105	0x00000000	0.0
106	0x00000000	0.0
107	0x00000000	0.0
108	0x00000000	0.0
109	0x00000000	0.0
110	0x00000071	1.58e-43
111	0x00000000	0.0
112	0x2668aba0	8.0723765e-16
113	0x00000000	0.0
114	0x250a4580	1.199314e-16
115	0x00000000	0.0
116	0x00000001	1e-45
117	0x00000000	0.0
118	0x000000ff	3.57e-43
119	0x00000000	0.0
120	0x00000000	0.0
121	0x00000000	0.0
122	0x00000000	0.0
123	0x00000000	0.0
124	0x000000ff	3.57e-43
125	0x00000000	0.0
126	0x00001280	6.637e-42
127	0x00000000	0.0

rnn.cell.bias_h f4 [128]
0	0x0c5faf50	1.7232051e-31
1	0x00007f3e	4.5646e-41
2	0x21df2bf0	1.5122698e-18
3	0x00000000	0.0
4	0x00000001	1e-45
5	0x00000000	0.0
6	0x2590a5a0	2.509225e-16
7	0x00000000	0.0
8	0x00000000	0.0
9	0x00000000	0.0
10	0x00000000	0.0
11	0x00000000	0.0
12	0x202b0850	1.4487014e-19
13	0x00000000	0.0
14	0x00000000	0.0
15	0x00000000	0.0
16	0x00000000	0.0
17	0x00000000	0.0
18	0x00000002	3e-45
19	0x00000000	0.0
20	0x00000006	8e-45
21	0x00000000	0.0
22	0x00000080	1.8e-43
23	0x00000000	0.0
24	0x00000000	0.0
25	0x00000000	0.0
26	0x00000000	0.0
27	0x00000000	0.0
28	0x00000000	0.0
29	0x00000000	0.0
30	0x00000080	1.8e-43
31	0x00000000	0.0
32	0x00000001	1e-45
33	0x00000000	0.0
34	0x00000000	0.0
35	0x00000000	0.0
36	0x00000000	0.0
37	0x00000000	0.0
38	0x00000000	0.0
39	0x00000000	0.0
40	0x00000000	0.0
41	0x00000000	0.0
42	0x00000300	1.076e-42
43	0x00000000	0.0
44	0x00010006	9.1844e-41
45	0x00014101	1.15155e-40
46	0x00008002	4.592e-41
47	0x00004050	2.3071e-41
48	0x000000d0	2.91e-43
49	0x00000000	0.0
50	0x000000d0	2.91e-43
51	0x00000000	0.0
52	0xb8355180	-4.3229666e-05
53	0x00007f3d	4.5644e-41
54	0x00000000	0.0
55	0x00000000	0.0
56	0x00000001	1e-45
57	0x00000000	0.0
58	0x25f194b0	4.190759e-16
59	0x00000000	0.0
60	0x00000000	0.0
61	0x00000000	0.0
62	0x00000000	0.0
63	0x00000000	0.0
64	0x202b0880	1.4487076e-19
65	0x00000000	0.0
66	0x00000000	0.0
67	0x00000000	0.0
68	0x00000000	0.0
69	0x00000000	0.0
70	0x00000002	3e-45
71	0x00000000	0.0
72	0x00000006	8e-45
73	0x00000000	0.0
74	0x00000080	1.8e-43
75	0x00000000	0.0
76	0x00000000	0.0
77	0x00000000	0.0
78	0x00000000	0.0
79	0x00000000	0.0
80	0x00000000	0.0
81	0x00000000	0.0
82	0x00000080	1.8e-43
83	0x00000000	0.0
84	0x00000001	1e-45
85	0x00000000	0.0
86	0x00000000	0.0
87	0x00000000	0.0
88	0x00000000	0.0
89	0x00000000	0.0
90	0x00000000	0.0
91	0x00000000	0.0
92	0x00000000	0.0
93	0x00000000	0.0
94	0x00000300	1.076e-42
95	0x00000000	0.0
96	0x00010006	9.1844e-41
97	0x00014101	1.15155e-40
98	0x00008002	4.592e-41
99	0x00004050	2.3071e-41
100	0x00000000	0.0
101	0x00000000	0.0
102	0x000000a1	2.26e-43
103	0x00000000	0.0
104	0x221a8460	2.094097e-18
105	0x00000000	0.0
106	0x2525abe0	1.4369702e-16
107	0x00000000	0.0
108	0x2610aae0	5.0191615e-16
109	0x00000000	0.0
110	0x00000000	0.0
111	0x00000000	0.0
112	0x0000033f	1.164e-42
113	0x3f000000	0.5
114	0x00000000	0.0
115	0x00000000	0.0
116	0x00001000	5.74e-42
117	0x00000000	0.0
118	0x00000378	1.244e-42
119	0x00000000	0.0
120	0x19957dd0	1.5457054e-23
121	0x00000000	0.0
122	0x0dc4a400	1.2118914e-30
123	0x00007f3c	4.5643e-41
124	0x00000100	3.59e-43
125	0x00000000	0.0
126	0x22034160	1.778842e-18
127	0x00000000	0.0

rnn.cell.input_decay_kernel f4 [37]
0	0x00000000	0.0
1	0x00000000	0.0
2	0x00000000	0.0
3	0x00000000	0.0
4	0x00000000	0.0
5	0x00000000	0.0
6	0x00000000	0.0
7	0x00000000	0.0
8	0x00000000	0.0
9	0x00000000	0.0
10	0x00000000	0.0
11	0x00000000	0.0
12	0x00000000	0.0
13	0x00000000	0.0
14	0x00000000	0.0
15	0x00000000	0.0
16	0x00000000	0.0
17	0x00000000	0.0
18	0x00000000	0.0
19	0x00000000	0.0
20	0x00000000	0.0
21	0x00000000	0.0
22	0x00000000	0.0
23	0x00000000	0.0
24	0x00000000	0.0
25	0x00000000	0.0
26	0x00000000	0.0
27	0x00000000	0.0
28	0x00000000	0.0
29	0x00000000	0.0
30	0x00000000	0.0
31	0x00000000	0.0
32	0x00000000	0.0
33	0x00000000	0.0
34	0x00000000	0.0
35	0x00000000	0.0
36	0x00000000	0.0

rnn.cell.input_decay_bias f4 [37]
0	0x00000000	0.0
1	0x00000000	0.0
2	0x00000000	0.0
3	0x00000000	0.0
4	0x00000000	0.0
5	0x00000000	0.0
6	0x00000000	0.0
7	0x00000000	0.0
8	0x00000000	0.0
9	0x00000000	0.0
10	0x00000000	0.0
11	0x00000000	0.0
12	0x00000000	0.0
13	0x00000000	0.0
14	0x00000000	0.0
15	0x00000000	0.0
16	0x00000000	0.0
17	0x00000000	0.0
18	0x00000000	0.0
19	0x00000000	0.0
20	0x00000000	0.0
21	0x00000000	0.0
22	0x00000000	0.0
23	0x00000000	0.0
24	0x00000000	0.0
25	0x00000000	0.0
26	0x00000000	0.0
27	0x00000000	0.0
28	0x00000000	0.0
29	0x00000000	0.0
30	0x00000000	0.0
31	0x00000000	0.0
32	0x00000000	0.0
33	0x00000000	0.0
34	0x00000000	0.0
35	0x00000000	0.0
36	0x00000000	0.0
