grud_outputs/split_1/checkpoint.pt (torch, 410658 bytes, 22 tensors)

rnn.cell.kernel_z f4 [128, 37]
00000000: 88c2 91bd 1455 773c 927c 1d3c 3530 333e
00000010: 6fe3 65bb 1185 163d ae13 e6bd 9ea4 c5bc
00000020: dc13 16be 8d34 00be 042a cfbd eea6 d43c
00000030: d414 c03d 45e0 0d3e d747 eebd a8e9 ddbd
00000040: ed83 503d b28c f13d e9a9 39bc 481f 123e
00000050: 564e babc beac 803c 85b7 3c3e ba62 3cbe
00000060: 1707 10be 9d36 6fbd 2956 3dbd 41a9 433e
00000070: 7862 0ebe 46bf b0bd d934 10be 8992 36be
00000080: 3b1b fabd ead3 2d3e ec54 a83c 883b a93d
00000090: 208c 843b 31fe cabd 827b a83c 91ec 67be
000000a0: e4a9 46be 80d9 ebbd 3ff7 1f3e 805f 953d
000000b0: 09f4 b2bd d44c fdbc aff5 af3d 8730 5b3e
000000c0: 561d 0b3e 1b6a 543d e024 fb3d 9974 19be
000000d0: 8494 323d 9c98 12be 8f23 0cbe d9f6 dbbd
000000e0: 42b5 b03d 2644 6f3d 20c3 0abe 64d4 ba3b
000000f0: ff08 b93d 678f 80bc c3c9 833c 801f c73c
00000100: a880 fa3d 861d 433e 428b 24be e7a1 82bd
00000110: 82c5 863c 2c7a 313e 168c 323e 1910 1e3e
00000120: 2d4c 2b3d f1a6 15be 398d 173b 6d41 97bd
00000130: b290 1bbe cec2 443e 95ee 163e 907d 01be
00000140: 98ed ab3d 1399 763c 2613 32bd 74dd a4bd
00000150: 80ee a53d 2f12 19be 961a f93d 28b4 1d3d
00000160: b0b1 c03d d0a0 d03d 5d66 31be ab74 79bd
00000170: 4937 ac3d fa7a 233d 44bd 0cbe 26bd c8bd
00000180: 5f01 2b3e a4e3 0d3e 6df2 bbbd 3f72 debd
00000190: 0854 67be bf9d afbc 19c9 d2bd 1e7a 1dbe
000001a0: bc37 ed3c 1259 ec3c f671 c2bd 2878 d63d
000001b0: a117 95bd 01fd 413e 62c6 333e 4670 4dbe
000001c0: 7cd1 1fbd 6dcd 553c 7c87 e33c bc09 bc3c
000001d0: c368 073e 818f 223d 7dfd 8ebd a41e da3d
000001e0: a873 33be f78a c3bd 888c b1bd a35d 4dbd
000001f0: 08e4 00be 2fb3 32be 0ece a9bc e739 333d
00000200: d72e a1bd c62f 4fbc 98c8 0b3e ee5c 12bc
00000210: d4b5 f0bc cf68 2dbd 3831 163d b86c f23d
00000220: 786e 293e f169 dc3d 6da6 453e 9088 02bd
00000230: 9817 4abe 237c aabd 3ad6 ec3d 3bf8 f3bc
00000240: afb6 79bd 7221 17be 1315 17be 8c58 1bbe
00000250: 7e6b a8bc ba51 dc3d a72c a13d 565f 4abe
00000260: d4b7 ff3d 7e35 29be 1c13 cebd 84d1 23bd
00000270: fcfe aa3b 7d22 0ebd a1b3 21be 4b1b 0ebe
00000280: 5dc7 853c 980f 353b cf13 f1bd 238a 893d
00000290: 1d1a 51be fe04 93bd 8751 3c3e 244c 9fbd
000002a0: 66c2 233e 3b7c 873d a266 29be 2d0e cc3d
000002b0: 3617 96bd 02ce cdbd 7ff7 123e d967 10be
000002c0: 00da 2a3d ce9d 2fbc 0fb1 213e 275e 763d
000002d0: 6d8a 823d 559f 8c3d 3d15 44bd 8c15 97bd
000002e0: f7f3 50be 754f ce3d ecbb 063e f703 093e
000002f0: 6bdd 09be fd3c fd3c d7b2 01be dd2c cebd
00000300: 0188 fbbd 5d90 af3d 8669 e4bd 2b32 513c
00000310: 8406 643c 13b2 d93d 9524 19be 9c71 11be
00000320: d036 a0bd af03 0d3e 99a5 3abd 121c 293e
00000330: ba38 8d3d 4847 103d 2ea2 703c 5397 15bd
00000340: c0ca 2e3d 2b3a e9bb 3da4 68bb aecc 8ebc
00000350: 50b3 16be dcad 87bd c0aa 193e 7b9f 18be
00000360: b39e d3bc a160 4a3e 5b49 7f3d a62f 523d
00000370: 201c 59be a741 db3d 2786 0dbe 8f18 41bd
00000380: 3834 5fbd bba2 84bc 6b11 f6bc 6cdc 173e
00000390: 4dc1 0b3d a881 183e ffe6 c53d 0d3e 02be
000003a0: 238f 173e f120 d4bd aeb1 b7bd 211a b43d
000003b0: 41ff 393c d4e7 383e 16ab 83bd ca84 bbbb
000003c0: d7c8 da3d dfd7 3cbe 4e9e bf3d 6a06 eebd
000003d0: ef7f ae3b 0f00 84bd 47c7 ffbd 0851 a93d
000003e0: 8166 0e3e 99c3 94bd c01d bfbd 5d88 d7bd
000003f0: 7f42 10be e996 173d 6fc6 92bd 5390 d2bd
-0.07117182 0.015095968 0.009612219 0.17498858 -0.0035078188 0.036747996 -0.11234222 -0.024126347
-0.14656013 -0.12520047 -0.10115436 0.025958505 0.09378973 0.13855083 -0.11634796 -0.10835582
0.050907064 0.117944136 -0.011332014 0.14269745 -0.022742432 0.01570737 0.18429382 -0.18397036
-0.14065205 -0.058401693 -0.046224747 0.19107534 -0.1390475 -0.086302325 -0.1408266 -0.17829336
-0.12212225 0.1697537 0.020548306 0.08263308 0.0040450245 -0.099117644 0.020566706 -0.22648837
-0.19400746 -0.11516094 0.1562166 0.07293606 -0.08737952 -0.030920424 0.08591782 0.2140523
0.1358541 0.051859003 0.12262893 -0.14985885 0.043598667 -0.14316028 -0.1368544 -0.10740442
0.08628322 0.0584146 -0.13550997 0.0057015885 0.09034919 -0.01569338 0.016087418 0.024307013
0.122315705 0.19054231 -0.16068748 -0.06378537 0.016451601 0.17331761 0.17436251 0.15435828
0.041820694 -0.14614464 0.0023124947 -0.07385526 -0.15191916 0.19214937 0.1473945 -0.12645555
0.08394927 0.015051144 -0.043475293 -0.08050051 0.08102131 -0.14948343 0.12163274 0.03850189
0.09408891 0.101869226 -0.17324205 -0.06090228 0.08408982 0.0399122 -0.13744074 -0.09801702
0.16699742 0.1385637 -0.091770984 -0.108616345 -0.22590649 -0.021437524 -0.102922626 -0.15378615
0.02895724 0.028851066 -0.094943926 0.10472137 -0.072798975 0.1894417 0.17556146 -0.2006236
-0.03901814 0.013049466 0.027774565 0.02295386 0.13223557 0.039687637 -0.06981943 0.106503755
-0.17524588 -0.0954799 -0.08669382 -0.050138127 -0.12586987 -0.17451166 -0.020728137 0.04375639
-0.07870262 -0.012645667 0.13650739 -0.008933289 -0.029383577 -0.04233628 0.036668032 0.11837143
0.16546047 0.10762394 0.19301768 -0.031868517 -0.19735563 -0.083244585 0.11564298 -0.029781451
-0.060965236 -0.14758852 -0.14754133 -0.15170497 -0.020559069 0.107577756 0.07869845 -0.1976293
0.12486234 -0.16524312 -0.100622386 -0.03999473 0.005218385 -0.03470086 -0.15791179 -0.13877599
0.016330415 0.0027627703 -0.11771356 0.067158006 -0.20420118 -0.071786866 0.18390475 -0.077781945
0.15992126 0.06615492 -0.16543058 0.09963641 -0.07328646 -0.100490585 0.14352225 -0.14102115
0.041711807 -0.010718776 0.15790199 0.060148384 0.06374059 0.06866328 -0.047871817 -0.073771566
-0.20405565 0.10073749 0.13157624 0.13380419 -0.1346337 0.03091287 -0.12665878 -0.10067151
-0.122818 0.08572457 -0.111529395 0.012768309 0.013917569 0.10629668 -0.14955361 -0.14203495
-0.07822955 0.13770936 -0.045568082 0.16514614 0.06895585 0.03522423 0.014687104 -0.036521267
0.042673826 -0.00711753 -0.0035498284 -0.017431583 -0.1471684 -0.06624958 0.15006542 -0.14904587
-0.02583251 0.19763424 0.062325817 0.051314972 -0.21202135 0.107058816 -0.13820706 -0.04714256
-0.05449316 -0.016190877 -0.030037602 0.14830178 0.034119893 0.1489321 0.096632 -0.12718983
0.14800696 -0.103578456 -0.089694366 0.08794046 0.011352361 0.18057185 -0.064291164 -0.005722617
0.106828384 -0.18441723 0.09356366 -0.11622317 0.0053253095 -0.06445324 -0.12489181 0.082674086
0.1390629 -0.0726387 -0.09331846 -0.10524056 -0.14087866 0.037009154 -0.071667545 -0.10281434

rnn.cell.kernel_r f4 [128, 37]
00000000: 39dd 6b3d 09c5 473d 0c16 03be 0f9a 45bd
00000010: 97a3 fbbd b0dc 52be cb51 e13d c4a8 0b3e
00000020: ef0f dabd 9ea8 3cbe 380f 55be e002 4f3e
00000030: 611e c73d b255 1bbc 9d06 35bd 016f 31be
00000040: 846d 003d 2875 f93c 532e d03d 94b2 9fbd
00000050: 0a29 77bd efd3 f63c 0ea5 a03d 922e 113e
00000060: 2ea9 823c f97c 193e 92f9 0d3e b748 b4bc
00000070: 5ce9 37bd a15b 063e e701 753a 99d4 563e
00000080: f831 ae3d 87af 893d 3c28 f1bd aec9 b73d
00000090: b6fa 64bd 951c 74bc 7fd3 653d a3d3 ae3c
000000a0: 0419 8ebd 802b 2cbd 656d 2abe 6994 f7bc
000000b0: eda7 a1bc 9fae 09bd a8cc a9bc b636 0c3e
000000c0: 4a37 033d 15c7 12be 191d 953d 4d1a d1bd
000000d0: 0522 243e 0f20 a9bc 2846 1a3e 4a20 2f3e
000000e0: 3492 403e b3bd db39 cd02 033e b91f c0bc
000000f0: 2973 20bc 3e5e 00be 6deb e2bd d6b2 3bbe
00000100: 4fd8 50be 10e2 99bc 40ff 30be 4068 1a3e
00000110: 014b 35be 1887 2d3e b238 813d 677d 06be
00000120: 903d 2b3e 664a 553d 2fcc 1e3c 7ec9 073e
00000130: 6fac 31be c08e f23d 8ecc bc3c 644c 8dbc
00000140: 1982 913c 58a7 cbbd 0692 563d 3db0 233e
00000150: 8a8d b3bc 39eb 623e fa3d 153e 4c21 d4bd
00000160: 8234 48bd 0878 ea3d bfdb 4fbd 5f58 97bc
00000170: 0d81 d33d 07fa 30be 3f5e fbba 022b 213e
00000180: b3e8 58bd 46af 49be bfbc 5fbe 754a 373d
00000190: d60d 88bd 22c5 19be cf5d c43d 9339 8ebd
000001a0: 453d fcbd 5cad 253e 1fc0 fd3d efa4 3e3d
000001b0: 9699 893e fc8a 4ebd a3ec 3d3e b5d9 09be
000001c0: 4a8a 1fbe dc32 3a3c 7661 07be b126 d83c
000001d0: 0ff1 7fbd 3356 7cbc 51bb 8dbd 55a3 83bd
000001e0: 87a8 37be 385a a6bd 553e 4e3c 33b5 273e
000001f0: 7dee 593e 5ec7 bd3d 8d81 2fbd 7d50 0e3e
00000200: a1ff 233c 8a00 cebb c342 e33b 44c7 03be
00000210: e8c4 15bd f97b 12be 3cbc 173d 5fc5 12be
00000220: b712 f93c ef8b 283d 7e05 b13d b350 0bbe
00000230: 7f79 343c d19e 14bd 584c bfbd 901b 403e
00000240: 20ae 14be f524 e83d 6cf5 2fbd 188c c9bd
00000250: f1f1 2dbe 0046 57be bcc8 94bd 9c2c b03d
00000260: 37e9 603d a752 16be 7797 f23d ca77 3f3e
00000270: 5917 be3d 7745 213e a066 c73d c091 c23d
00000280: 4201 f53d 2525 bbbd b4cb 0bbd 9d2d f0bd
00000290: b256 b0bc 6630 49be 3f6f ef3d 7f48 9abd
000002a0: 7515 c33d d418 3b3e d443 b23d c57d c73c
000002b0: 5c18 643e 420a 3bbe 6ccd 123e 0224 35be
000002c0: 43bc 463e 9eb4 d53c 9073 1cbe 9986 9fbd
000002d0: 36c1 85bd 4163 ff3d 8b3e 443e 6d72 b23d
000002e0: 085d f33d a959 543e a072 1abe beed 123d
000002f0: aeed 30bc e2c9 cd3d 31a1 873d fce5 c23c
00000300: 0bb0 1d3e 1c93 eabd 8c5d 28be 175d dfbd
00000310: 5da1 ff3b 6d5c 743d 239e 2bbe 4740 9e3d
00000320: 28cf 403d dc89 0ebe 3768 3e3e 777f d93d
00000330: a057 253e 4c6a eabc de9d 09be b649 26be
00000340: eec1 cb3c e542 12be f923 763d 22b3 4ebe
00000350: e1ed 06be 6c57 d53c 6c5d a6bb 3629 0dbb
00000360: a201 20bd 2ef7 b8bd bfa1 4dbd 3ffa 81bd
00000370: ef90 c5bd e3cc 5dbd 33d1 febc 898c b33b
00000380: 4112 2b3e 26d7 11be de61 8c3d ded3 9bbc
00000390: c8f9 6bbc 009f c8bd 1655 bf3d 1927 06be
000003a0: a2d4 24be a6cb 853d aaa6 85bd cf0c 32be
000003b0: baa5 d53d 4118 c63d e5c5 fdbd b435 54bd
000003c0: 5b39 3cbe fffa 0dbd 4ad8 ba3c f772 203e
000003d0: 62e6 ff3d 47ff da3d 6898 903c 5572 31be
000003e0: 7649 96bd 2669 1c3e e614 153d 862c 70bb
000003f0: 5a25 98bd b5f1 d23d c401 cc3d 0e0a b8bb
0.05758402 0.04877189 -0.12801379 -0.048242625 -0.12287062 -0.20591998 0.11001929 0.13638598
-0.1064757 -0.18423697 -0.20806587 0.2021594 0.09722591 -0.009480881 -0.04419576 -0.17327501
0.031354442 0.030451372 0.10165086 -0.07797733 -0.060341872 0.030130355 0.07843982 0.14177921
0.015949812 0.1498908 0.13864735 -0.02200733 -0.044900283 0.13120891 0.0009346292 0.20979537
0.085056245 0.06722932 -0.11775252 0.08974014 -0.05590316 -0.014899393 0.0561099 0.02134115
-0.06938365 -0.042033672 -0.16643293 -0.030222135 -0.019733394 -0.033613797 -0.02072747 0.13692746
0.03203515 -0.14333756 0.072809406 -0.102100946 0.16028602 -0.02064517 0.15065825 0.17102161
0.18805772 0.00041912272 0.12794037 -0.023452627 -0.009793081 -0.1253595 -0.1108006 -0.18329939
-0.20395015 -0.018784553 -0.1728487 0.1507883 -0.17704393 0.16946065 0.06309642 -0.13133775
0.16722703 0.052072905 0.009692236 0.13260457 -0.17350934 0.11843634 0.023046758 -0.01724834
0.01776223 -0.09944028 0.052385353 0.15985198 -0.021918077 0.22160043 0.14574423 -0.103579134
-0.0488782 0.114486754 -0.050746676 -0.018474756 0.10327349 -0.17282878 -0.0019177868 0.15739062
-0.052956294 -0.19695768 -0.21849345 0.044748742 -0.06643264 -0.15016606 0.09588205 -0.06944575
-0.12316374 0.16179413 0.1239016 0.04654401 0.2687499 -0.050425515 0.18547301 -0.13461955
-0.15580097 0.011364665 -0.13220772 0.026385637 -0.06248575 -0.015401411 -0.069204934 -0.064276375
-0.17935382 -0.081226766 0.012588103 0.16377716 0.21282382 0.09266542 -0.04284816 0.13897891
0.010009677 -0.0062866854 0.006935449 -0.12868983 -0.036564738 -0.14305104 0.03704475 -0.14333104
0.030404432 0.041149076 0.08643626 -0.13605003 0.011015295 -0.03628427 -0.09340733 0.18760514
-0.14519548 0.11335174 -0.042958662 -0.09841174 -0.16986825 -0.21022797 -0.072648495 0.086022586
0.05490991 -0.14679967 0.11845296 0.1869804 0.09281797 0.15749155 0.09736371 0.09500456
0.119631305 -0.09137944 -0.034129813 -0.1172745 -0.021525715 -0.19647369 0.116911404 -0.07533359
0.09525577 0.1827119 0.087043434 0.024351964 0.22274917 -0.18265632 0.14336175 -0.17689517
0.19407754 0.026087102 -0.15278459 -0.07789344 -0.06530993 0.12470103 0.19164483 0.08713231
0.11882979 0.20737328 -0.15082788 0.03587126 -0.010798855 0.10048272 0.06622542 0.023791306
0.15399186 -0.1145384 -0.16441935 -0.10906427 0.0078012184 0.059658457 -0.16759543 0.07727104
0.04707256 -0.13919777 0.18594442 0.10620015 0.16146708 -0.02861514 -0.13439128 -0.16239056
0.024872746 -0.1428333 0.0600929 -0.20185521 -0.13176681 0.026042663 -0.0050770547 -0.0021539456
-0.039064057 -0.09031521 -0.05020308 -0.06346559 -0.096467845 -0.054150473 -0.031105613 0.0054793996
0.16706182 -0.14242229 0.06854604 -0.019021925 -0.014402814 -0.09795952 0.09342401 -0.13100852
-0.16096738 0.065329835 -0.06525929 -0.17387699 0.104320005 0.09672595 -0.12391261 -0.051809028
-0.18381254 -0.034663197 0.022808213 0.15668856 0.12495114 0.106932215 0.017650798 -0.1732877
-0.0733823 0.15274486 0.036396883 -0.0036647632 -0.07428999 0.10300008 0.09961274 -0.005616433

rnn.cell.kernel_h f4 [128, 37]
00000000: c197 f2bb a329 47bd bc44 083e 8348 0e3e
00000010: 043e 2dbe 1861 963d 6f57 2fbd bda9 08be
00000020: f9df f9bc 82d7 4ebd 1174 7fbd e478 f43c
00000030: 8b70 d53d 2a18 5bbd 0513 b0bc 56c0 5d3c
00000040: e7f1 91bd d34a f23d aafe 263e 52c6 8ebc
00000050: 6ae9 af3b 1291 153e 7075 153e 86e6 dbbd
00000060: 069d bebd 5146 56be 74d1 b73d 7419 e63d
00000070: aef3 9cbd 22de 613d a847 2f3d dc74 48be
00000080: 34de a93d 58d7 5a3d bc39 263c 13d4 4c3d
00000090: 7516 1f3d 27cf 123e d2d8 6c3e 3d9d 8f3c
000000a0: 2ea3 ab3d 2455 7cbd 79a1 9b3d 0563 d3bc
000000b0: 7d37 1abe 0f0e b93d 3bf4 983d 87be 633d
000000c0: a326 bd3d a1ad f03c 9837 8b3d f7ac 643d
000000d0: fded 9bbd c685 acbb dbae 453d 2987 5dbd
000000e0: dd2d 24be b2f5 b0bb 4cc2 ef3d 3671 c4bd
000000f0: ab59 353e 99c2 a23d 460a 813d 4eb8 9dbc
00000100: 2667 2abe 253a 44bd 88ff 833c a6cb dcbd
00000110: e302 313e 8cdd 0cbe 5cd2 15be 050b 4abd
00000120: 5301 3f3e 16e8 adbd 19be 343e 8a56 ef3d
00000130: fa5f 2fbd 62c5 a43d 408f 803d 9db7 aebd
00000140: ca0c 4ebd bc55 313e 0401 e73d d827 d9bd
00000150: c772 29bd 8b20 123e 1d65 c73d 127f 093d
00000160: 8b48 18be 5edd 0dbe e0e3 56bd 5326 793d
00000170: fd7a 00bd d742 23be e7a8 26bd b78c 3f3e
00000180: d3d1 1abe bcb2 1bbe 9ae1 1a3e a467 503e
00000190: f337 27be b117 27be 095b 4ebd 3cf1 383e
000001a0: 8645 e1bd a69b cd3b 874e 143e b914 7fbd
000001b0: d2cb babc 8cda 16be ee69 d83c 478e 383e
000001c0: ddfe 693d 78f5 1f3e ba6f cd3b 591d 25bb
000001d0: 3388 6fbd ac1c 843d 13c1 fabc e322 4dbe
000001e0: 0ed1 64bd 55c5 793d 55aa 503e 9ad8 52bd
000001f0: 145b e8bd f00a 07be fa12 18be c567 4b3d
00000200: 7476 cb3d 8e10 9c3d d5a7 863d 74c8 063e
00000210: f432 f73d 1eb8 e33d 3d19 923d 7150 483d
00000220: b49a cf3d 7582 fdbd d830 dcbd 3435 783d
00000230: 0367 f33c edde 1dbe 6917 02be dc8e 12be
00000240: 43eb 0a3e de7a 0b3e 2f74 09be 8bfd 123d
00000250: 7cee ffbc 5d74 3c3e 61ff 4cbe 1cf6 15be
00000260: 722a 1cbe 48b8 de3d 990a 68bd a687 883d
00000270: 190b 443d 89d3 b4bd 04f4 1fbd bb79 e4bd
00000280: 0be9 b03d 4324 4abd 48d8 a13d d323 493c
00000290: 3e75 11be f985 a5bd 1253 ffbd d9a3 cc3d
000002a0: becd 3b3d f157 bbbc 6e2b 06be 7e43 3ebe
000002b0: 5384 42bd 88b2 19be 7301 44be d503 65be
000002c0: 9be3 d5bd 1942 44be c020 653d d8dc b33d
000002d0: ddfb c73d bb50 31be 12a5 d93d 981b 8b3d
000002e0: be07 e53d c79b 2fbd b8e9 083e 7f0e 49be
000002f0: e9c3 8c3d 2dae 113e b9c9 933d 8eb9 5cbe
00000300: a850 7cbd 77b4 19bd 25cf b83d a312 42bd
00000310: 5966 3f3d 4617 a2bd bb47 5fbd 26f0 01bd
00000320: 3c31 c2bd f1c6 cabd 1980 0a3e cd78 153e
00000330: d82c bdbb db7d 373e e6d7 eb3d 0146 2bbe
00000340: 4a85 9abd dd03 f5bd f286 1f3d 780b d33b
00000350: e1e6 34bc 3dcd 1a3e 5523 adbd a45f a5bd
00000360: 6811 a0bd 42aa 8bbd 8eca 313e d236 d3bd
00000370: f815 a2bc c74d 933d 5479 02be 4387 dcbd
00000380: 6710 dc3d 856b cabd d167 c6bd 69ca 82bd
00000390: 7a8e f2bc 710f 373d 19ad 583d 0293 eabd
000003a0: cb83 303e d1b8 18be d314 823d 5215 b1bd
000003b0: df28 b1bd 4b25 3c3e 2fdc 42be 47ec 863c
000003c0: 1403 ef3d c891 2e3e 273a 0cbe 900e 0a3d
000003d0: b5ef 3b3e eb04 1fbe ed55 9d3d 2269 1fbe
000003e0: 971d 253c eff5 1ebe 2459 d23d 6f6e 22bd
000003f0: 9709 f23d b562 f03c b0ea 0fbd 4370 6fbd
-0.0074033444 -0.048623692 0.1330747 0.13894849 -0.16918188 0.07342738 -0.042807993 -0.13346
-0.030502306 -0.050498493 -0.06236655 0.029842801 0.104218565 -0.05348984 -0.021493444 0.013534626
-0.07126217 0.11830678 0.16308084 -0.01742855 0.0053684013 0.14606121 0.1459558 -0.10737328
-0.093072936 -0.20925261 0.08975497 0.112353235 -0.07663666 0.055143483 0.042792946 -0.19575828
0.08294335 0.053428024 0.010145601 0.050006937 0.038839776 0.14336835 0.23129585 0.017531032
0.083807334 -0.061604634 0.07599158 -0.025804052 -0.1506023 0.090358846 0.07468458 0.055601623
0.09235885 0.029379668 0.06797713 0.055829015 -0.07613752 -0.0052649705 0.04826246 -0.054083977
-0.1603312 -0.005400383 0.11706981 -0.09591906 0.17709987 0.07947273 0.06300788 -0.019252922
-0.1664091 -0.047907013 0.016113058 -0.1078103 0.17286257 -0.13756388 -0.14631027 -0.049326915
0.18652849 -0.084915325 0.17650642 0.11686428 -0.04281614 0.0804546 0.06277323 -0.08531115
-0.050305165 0.17317861 0.112794906 -0.10603303 -0.041369226 0.14270227 0.09736083 0.03356845
-0.14871423 -0.13853976 -0.052463412 0.060827564 -0.03136729 -0.15943466 -0.04068842 0.18706022
-0.15119104 -0.152049 0.15125123 0.20352036 -0.16329937 -0.16317631 -0.050379787 0.18060774
-0.10999589 0.0062746583 0.14483081 -0.062275622 -0.022802267 -0.14731807 0.026417699 0.18023024
0.057127822 0.15620983 0.0062694224 -0.0025194495 -0.0584795 0.06450781 -0.030609643 -0.2003284
-0.055863433 0.060979206 0.20377477 -0.0514761 -0.11345497 -0.13187766 -0.14850989 0.04965951
0.099347025 0.07620345 0.0657498 0.13162404 0.120702654 0.11119102 0.0713372 0.04890484
0.10136929 -0.12378398 -0.10751504 0.060597613 0.029712206 -0.1541707 -0.12704243 -0.14312309
0.13566308 0.13621089 -0.13423227 0.03588633 -0.031241648 0.18403764 -0.20019294 -0.14644665
-0.15250567 0.108749926 -0.05665073 0.06666498 0.047862146 -0.0882941 -0.03905107 -0.11156031
0.086381994 -0.049350988 0.079025805 0.012276608 -0.1420488 -0.08082194 -0.12467016 0.09992189
0.045850508 -0.022869082 -0.13102505 -0.18580434 -0.047489475 -0.1500951 -0.19141178 -0.22364743
-0.10443803 -0.19165839 0.055939436 0.08782357 0.09764836 -0.17315952 0.10627188 0.067923725
0.11183117 -0.04287317 0.13370407 -0.19634436 0.068733044 0.14226599 0.0721621 -0.21555158
-0.061600357 -0.03752562 0.09023885 -0.047381055 0.046728466 -0.07914595 -0.054511767 -0.031723164
-0.09482047 -0.09901226 0.13525428 0.14596863 -0.005773168 0.17919104 0.11515789 -0.16725923
-0.07544954 -0.119636275 0.038947053 0.006440576 -0.011041374 0.15117355 -0.08454005 -0.080748826
-0.0781582 -0.068195835 0.17362425 -0.103131905 -0.019785866 0.07192569 -0.12741596 -0.107679866
0.10745316 -0.09883789 -0.0968777 -0.06386263 -0.029608954 0.04469246 0.052899454 -0.11453821
0.17237775 -0.14914252 0.06351628 -0.08646645 -0.08650374 0.18373601 -0.19029306 0.016470088
0.11670509 0.17047799 -0.13694058 0.033705294 0.1835316 -0.1552922 0.07682405 -0.15567449
0.010077856 -0.15523504 0.102709085 -0.0396561 0.11818235 0.029343942 -0.035135925 -0.05845667

rnn.cell.recurrent_kernel_z f4 [128, 128]
00000000: aa85 b63d 28bd 853d df4f 053c 3d60 0ebe
00000010: be88 143e cf54 77bc d8e7 ea3d 98e4 f03d
00000020: 1819 0bbc 1894 ecbd 2130 c53c 204a 57bd
00000030: e97f d8bd 4665 9f3d 8fb2 84bd 3058 dd3d
00000040: 3d13 88bd afd1 af3d 0527 b8bc 375a 5abc
00000050: c4c9 a93d f007 0ebe a09d 0d3e e4e1 7dbd
00000060: 8500 873d f072 c6bd d861 eebd 18c9 5f3b
00000070: d15a a0bc 3dfa 4dbd ed4e 833d 71b8 a7b9
00000080: 7460 b1bd c3d4 02bd 9412 f23d 30b3 12be
00000090: 5a6e 1cbd e1f7 0ebd cc79 d73d 20d9 063e
000000a0: eec4 95bd 4e02 cebc 5dfa dcbd 02af f2bd
000000b0: 9285 2c3d 13ff 10bd 8ed8 be3d 58a4 e3bb
000000c0: 984e 58bd d6c9 61bd add3 77bc 7f6f 9c3d
000000d0: a1da f93c 50fe 253d 9160 1cbd 63d7 1f3d
000000e0: fc03 c6bd ddc7 6f3d 28fe aebb 3ad6 ff3d
000000f0: 1676 d2bd 8d4b 433e 0a0d c43d efbb 0bbe
00000100: 393f 05bd 34c7 cc3d 8015 f83c d72f 173e
00000110: 8719 c4bc 58a7 a9bd 84c1 923d 6a67 85bd
00000120: 3f08 023e a18c 783d d213 0c3e a824 b83d
00000130: 4c4b 6ebd 5c7b f03d 47e9 31be fcac f03d
00000140: 5cce e03c 6de5 c9bd 1a70 8c3d 262b c13d
00000150: 2678 98bc a44f cf3d 924a 0bbd fbf1 2bbe
00000160: 44d6 9e3d 344e c9bc d6cc b03d aac4 8abd
00000170: d648 9f3d 7248 443d ac0c 9abd 2e01 f2bd
00000180: b391 ec3c 5c6d 003d 4b8c c1bd 46a3 87bc
00000190: 62f3 c7bc a756 06be 2394 82bd 90ec eabd
000001a0: c82d 6a3c 5b11 273e 2ead 6e3d 01db bb3d
000001b0: e486 1b3e 28dd 953c f812 203d 6cb5 56bd
000001c0: 69c7 c03d b53b ac3d ba31 833d 1549 8dbd
000001d0: 1819 433d 4efb 84ba 1036 d93d f4a9 bdbc
000001e0: c8c1 f83d 522f 1abd 44d2 8a3d b421 df3b
000001f0: 8ba7 e4bd ac8c 8c3d 5e55 22be c32a 8dbd
00000200: 8d76 913d c5e8 79bd 185b f3bd a1da d8bc
00000210: 92a3 9d3d f1bf 563e 522f e8bd c256 6dbd
00000220: 7f84 0abe 39ee 88bd 02bf 00be 887d a0bd
00000230: ac0a 853d 2b12 a3bd 0ee6 09be 527f ad3b
00000240: bff5 d33d e98a 6d3d 8413 233d 6861 a5bd
00000250: e20f 34be 64ed 26be c7c1 55bd 093f adbd
00000260: 8232 c3bd b9e1 36bb 807e ad3d e887 4bbd
00000270: d3f4 1bbe 458f 82bd 3c28 963d c8fd 54be
00000280: c086 dfbd 8de4 d43c bf62 aebd a409 ef3d
00000290: 8cd3 a2bd 2d80 893d e75e b43d 59d9 22be
000002a0: 1641 3a3e 127e e3bd 6d65 0d3e d533 2fbd
000002b0: 22be 5abd e7c1 de3d 42fb 9dbd 1a26 1fbe
000002c0: 65de 223e e81a 1f3d eac1 f53a 9ad0 a13d
000002d0: 16b0 b83b c9f7 2c3e d8d5 483d b87f 29be
000002e0: fc5a 753d 9232 05be c358 113d 66dc a5bc
000002f0: 2118 acbc 266f 75bc 8b2e a3bd 5efe 36be
00000300: 6351 4f3d 4985 8abd 3dd9 2abd dfa4 2e3e
00000310: 7189 df3d 00fd 6a3c bb25 3e3c 0b70 88bd
00000320: 03a3 0a3e e449 23be 5730 febd d201 9b3d
00000330: f654 6b3d bddd e8bc 72da 00bd e320 0b3e
00000340: ec28 ce3d 614c 03bd d501 f93d 1c1f 8d3d
00000350: f43a 03bd 7882 d3bd 6d3a c4bc 4f9e abbd
00000360: 1649 23bb 530d d3bd 2f4b 863d 5507 1e3e
00000370: ecfb e9bd 3454 403d d3c3 fc3d 63b1 ef3c
00000380: 9560 57bd 5763 9f3d 7a42 17be e62a 083e
00000390: 087e 95bd b85b 90bd f2c7 153c 5fa2 c03d
000003a0: 55f7 b0bd 5d58 ab3d 1197 82bd bde4 31bd
000003b0: 7843 80bb 115c 8d3d 71a8 a5bd 1b45 12bd
000003c0: 6e75 aa3d af85 e2bd 4183 973d a731 923d
000003d0: a7c2 5c3d 461a 493d 32bf 463e 24bf 86ba
000003e0: f7ea d23d 6086 d0bd 24a4 adbc 1392 1fbe
000003f0: 6844 20be 9f3f f63c e8ac 85bd 3eb7 7bbd
0.08912213 0.06530219 0.0081367185 -0.139039 0.14505288 -0.015095904 0.11470002 0.11762351
-0.00848987 -0.11551684 0.024070801 -0.052560925 -0.10571272 0.07782988 -0.0647937 0.10807836
-0.066442944 0.08584916 -0.022479543 -0.013327173 0.08290437 -0.13870215 0.1382966 -0.061983004
0.06591896 -0.09689891 -0.11639756 0.003414696 -0.019574555 -0.050287474 0.06411538 -0.00031990142
-0.08660975 -0.031941187 0.1181995 -0.14326167 -0.038191177 -0.034904364 0.10521278 0.13168764
-0.07312952 -0.025147583 -0.107899405 -0.11849786 0.04211957 -0.035399508 0.09318648 -0.0069470815
-0.052809328 -0.055124126 -0.015126151 0.07638454 0.030499758 0.040525734 -0.03817803 0.03902377
-0.09668729 0.058540214 -0.0053403564 0.12492032 -0.10276429 0.19071789 0.095727995 -0.1364591
-0.032530997 0.099989325 0.03028369 0.14764343 -0.023937954 -0.082838714 0.071658164 -0.06513865
0.12698458 0.06068099 0.13679436 0.089913666 -0.058177277 0.11742279 -0.17374144 0.11751744
0.02744215 -0.098582126 0.06857319 0.09432058 -0.018611979 0.10122612 -0.034006663 -0.16791527
0.07755712 -0.024573423 0.08632819 -0.06775792 0.07777564 0.04792065 -0.07521948 -0.11816631
0.028878069 0.031354293 -0.09450587 -0.016557347 -0.024408046 -0.13118993 -0.06375911 -0.11470902
0.014293142 0.16315214 0.058270626 0.09172631 0.15188175 0.018293932 0.03908059 -0.05241911
0.094130345 0.08409826 0.06405969 -0.06898705 0.047631353 -0.0010145695 0.10606015 -0.023152329
0.12146336 -0.037642784 0.06778386 0.0068094376 -0.11164769 0.068627685 -0.15852877 -0.06892922
0.0710269 -0.061013002 -0.11882609 -0.026471438 0.07697214 0.20971657 -0.11337151 -0.057944067
-0.13527106 -0.06686062 -0.12572864 -0.07836443 0.06496176 -0.0796245 -0.13466665 0.005294719
0.10349607 0.057993803 0.039813533 -0.080752194 -0.17584184 -0.16301495 -0.052186754 -0.084592886
-0.09531118 -0.0027905537 0.084713936 -0.049690157 -0.15230112 -0.06374983 0.07331893 -0.20799935
-0.109143734 0.025987888 -0.08514928 0.11671761 -0.079505056 0.06713901 0.08807164 -0.15903224
0.18188891 -0.111080304 0.13808222 -0.04277404 -0.05340398 0.10876828 -0.07713939 -0.15541878
0.1590515 0.03884402 0.0018749807 0.07901116 0.0056362255 0.16891398 0.049032062 -0.16552627
0.059901223 -0.13007572 0.03548504 -0.020246696 -0.0210076 -0.014980113 -0.07967862 -0.17870471
0.050614726 -0.067637034 -0.04171108 0.17055081 0.10914887 0.014342546 0.011605675 -0.066619955
0.13538747 -0.15946156 -0.12411564 0.075687066 0.057454072 -0.028426046 -0.031458326 0.13586764
0.10066399 -0.032055262 0.121585526 0.06890699 -0.032038644 -0.10327619 -0.02395364 -0.08379804
-0.0024915389 -0.10305276 0.06557309 0.15432484 -0.114250034 0.046955302 0.12342038 0.02925939
-0.052582342 0.077826194 -0.14771453 0.13297614 -0.07299429 -0.07048744 0.009141909 0.0940597
-0.08640925 0.08366463 -0.0637647 -0.043431032 -0.003914293 0.06902326 -0.08088768 -0.035710435
0.08323179 -0.11060654 0.073980816 0.07138377 0.053896572 0.049097322 0.19408873 -0.0010280353
0.10298722 -0.1018188 -0.021196432 -0.15583067 -0.15651095 0.030059634 -0.0652712 -0.06145405

rnn.cell.recurrent_kernel_r f4 [128, 128]
00000000: 2104 a43d 2b0f cabd 7597 12be 35ef 82bc
00000010: fd99 7c3d f3cb 15be 567c 20bb 2807 a1bd
00000020: ea27 ec3d d52c d5bd bce2 52bd a4ef 0c3e
00000030: 2d14 21be 51a2 ea3d d36a 88bd 6904 fb3d
00000040: b089 d43d 8566 e73d ba06 383d ad60 f23d
00000050: f0b7 803d 783a 0ebd d98a ed3b daf4 823d
00000060: 98d4 fabd a94f 47bd 76c9 93bd fcae e2bd
00000070: 4ba0 1bbe 4527 e5bd f348 243c 75d4 dc3d
00000080: f9c5 cdbd f3f7 9f3d 6594 09bd fc97 d3bd
00000090: 9fec 18bd 3f2d bd3d 063e 4e3d 578d 79bb
000000a0: ad5b c2bd 3fab 0cbe fcd2 243e 5f4e 0f3d
000000b0: 695d db3d 1024 8a3d 2256 25be 1cb3 cbbd
000000c0: 1414 5e3c 90d8 e2bd 8d9e c4bc 4aa5 ae3d
000000d0: 970c a93d 26c1 053c f2cb 9d3d 4388 ecbd
000000e0: 5554 bd3d 7fb6 9dbc 3a1d 1b3e 652d 093e
000000f0: fff0 ffbd a198 c33d bfc3 ae3d de67 d6bd
00000100: 2852 dbbd e61c 8cbd 9ce0 093e 42c0 e3bd
00000110: 5416 84bc 4d39 d3bd 4bfa f4bd 955e e23c
00000120: 4ef2 c4bd 02d8 13be 54a6 013e 21d6 1bbe
00000130: 6c07 95bd a7bf 89bd ba30 32be e2f1 5dbd
00000140: 83ef babd ea8b a0bd 06f4 003d 290b e2bd
00000150: 23b4 033e 290d 143e 9fce 5dbd d67c 3abd
00000160: da37 c43d b687 23bd 4de3 7dbd 8194 81bb
00000170: 9965 823c 4f09 b43d da1e f93d 0874 ca3c
00000180: 176c 193e 589b 453d 5780 e8bc 8c0a f5bd
00000190: 442d 123d 1386 0cbe 4f3a 403d 1b07 b33d
000001a0: 7bd1 acbd 0636 893c 9fe7 cb3c 759b 813d
000001b0: a03d 043e 6f55 ddbd 925c f03d c7b3 4dbd
000001c0: f65c f63c 8886 d73b 5927 a63c eb1a 903d
000001d0: ddd0 e83d 0f3e 723d 68d6 e33d 0d58 a3bd
000001e0: 66b5 863c 0ff0 693d ab7b fcbb 206a 3c3d
000001f0: 5b1a 9abd a89f 9e3d c452 393d 4221 9cbd
00000200: 4221 053d 209d b5bd 55d8 623c c407 43bc
00000210: b347 72bd db0e 8a3d 24f2 ea3d 77c1 f8bc
00000220: 9934 10be 2a56 b0bc b702 0e3e 2c46 13be
00000230: c034 e03d 369f ef3b ff2e c33d eebf 793d
00000240: 06e0 fdba d4f9 7fbd 0238 0fbd e37c 033d
00000250: 7cdb 5cbd 687f cd3c 612d 1cbe cf5b c73d
00000260: 9db1 c73d 1043 febc ef0b 82ba 7e70 e3bd
00000270: d3c5 f7bd b322 09bd ccfd 47bd d1a7 f4bd
00000280: 3d1a 013d ab65 30bd aa09 c7bd 98cd 7bbd
00000290: ee9f 49bd f029 a53d 5c7f 20be 0643 03bc
000002a0: 39f4 1ebe 10ed be3c 771e 23bd f4b0 fc3d
000002b0: 070a 82bd 201f 8e3d 3dbe 763b 8605 b43d
000002c0: e914 0fbe 1eb0 13be 29d4 5d3d 4a6a c13d
000002d0: b928 303d 7cde 08be 9c6b ce3d 2aa7 153e
000002e0: 8b20 19be 6eca 8bbd d40a aebd 253f dcbd
000002f0: 7a0b a0bd ac43 1abd 17b4 b9bd a256 8e3d
00000300: 0cee 3ebd 57bb bdbd 61f9 3c3e bf32 133e
00000310: b099 873d 590e a2bc b447 313d 29a4 6f3d
00000320: 5331 2f3d 662b 7abd 7397 25be 6ace d53d
00000330: 095f e03d d927 54bd 80a2 92bd ec65 8ebd
00000340: 6586 8bbd 7fcb fdbc 0151 c2bd b31a 0bbe
00000350: 51b4 c33d 4c13 103e b3c0 e8bd b35b aebb
00000360: 2fb7 87bc 2f29 613d c733 1e3d a87f 1b3e
00000370: a189 24be da07 9dbb 2e6a 383d e3da 943d
00000380: 20b9 c13d 8b36 7ebd 0f66 453d 6ed8 b73d
00000390: 08ef 143e 5b8e f1bd fef5 f43d 10bd bc3d
000003a0: 0496 a6bd bfe0 3c3c a88a 34bd 7eb8 b7bd
000003b0: ff3b 32bd 8de3 663d 9513 8ebb 90bd e9bd
000003c0: d9ae 143e ee74 fbbd e4b2 e33d 54a7 1cbd
000003d0: 7962 9ebd 6913 0abe 0cf0 bbbd 992e 9d3d
000003e0: 7d17 9b3d c442 0b3e 8048 a7bd bbcf 9c3d
000003f0: f5e6 1f3c f507 0e3e 79cd 2cbe 3ba7 bebd
0.080086 -0.09866174 -0.14315589 -0.015983203 0.061670292 -0.14628582 -0.0024488172 -0.07862693
0.115310505 -0.10408942 -0.051485762 0.1376329 -0.15730353 0.11456741 -0.06661 0.122567005
0.10377824 0.11298851 0.04492829 0.11834846 0.06285083 -0.03472373 0.007249218 0.06394358
-0.1224758 -0.048659954 -0.0721616 -0.11068532 -0.15197866 -0.11189131 0.010027158 0.107827105
-0.10047526 0.078109644 -0.033588786 -0.10331723 -0.037335034 0.09237146 0.05035212 -0.003807863
-0.09490142 -0.137372 0.16096109 0.03498685 0.10711176 0.067451596 -0.16146138 -0.09946272
0.013554592 -0.11076462 -0.024001384 0.0852762 0.082543544 0.008163726 0.07704915 -0.11549427
0.09244601 -0.01925206 0.15147868 0.13396223 -0.12497138 0.09550596 0.08533429 -0.1046903
-0.107090294 -0.068414494 0.13464588 -0.11120655 -0.016123928 -0.10313664 -0.11961802 0.02763299
-0.096165285 -0.14437869 0.12661105 -0.15218402 -0.07276806 -0.06726008 -0.174014 -0.054185756
-0.091277145 -0.078391865 0.03148272 -0.11037285 0.12861685 0.14458145 -0.054152127 -0.04552921
0.09580965 -0.039924346 -0.06198435 -0.0039544706 0.015917586 0.08790838 0.121640876 0.024713531
0.14982639 0.04824385 -0.02838151 -0.11964902 0.0356877 -0.1372302 0.046930607 0.0874159
-0.08438393 0.016749393 0.024890719 0.06328479 0.12914133 -0.10807311 0.117364064 -0.050220277
0.030073624 0.0065773167 0.020282434 0.07036384 0.113679625 0.059141215 0.11124879 -0.07975779
0.01644392 0.057113703 -0.007705172 0.045999646 -0.07524558 0.07745296 0.045244947 -0.07623531
0.03250242 -0.0886786 0.013845523 -0.011903707 -0.05915041 0.06741115 0.11471966 -0.030365689
-0.14082564 -0.021525461 0.13868223 -0.14382237 0.10947561 0.0073126806 0.09530448 0.060974054
-0.0019369132 -0.062494114 -0.034965523 0.032101523 -0.053920254 0.025085166 -0.15251686 0.09734308
0.09750674 -0.031037837 -0.0009921769 -0.111054406 -0.12098279 -0.033480357 -0.048826024 -0.11946071
0.031519163 -0.043065708 -0.0971864 -0.061475366 -0.049224786 0.080646396 -0.15673584 -0.008011585
-0.15522851 0.0233064 -0.039823975 0.12338439 -0.06349569 0.069395304 0.0037650012 0.08790116
-0.1397282 -0.14422652 0.05415741 0.09444101 0.043007586 -0.13366121 0.100791186 0.1461455
-0.1495382 -0.0682572 -0.08498159 -0.10754231 -0.07814689 -0.037662193 -0.090675525 0.06950118
-0.046613738 -0.09264248 0.18454506 0.14374827 0.066211104 -0.019782232 0.043281272 0.058506165
0.04277165 -0.061076544 -0.16171055 0.10439761 0.109556265 -0.051795814 -0.07159901 -0.06953034
-0.06812743 -0.030980824 -0.094881065 -0.13584404 0.09555877 0.14069861 -0.113648795 -0.00532099
-0.016566841 0.054970916 0.038623597 0.15185416 -0.16068126 -0.0047921957 0.045023136 0.07268312
0.09459138 -0.062063735 0.048193034 0.089768276 0.14544308 -0.1179473 0.11960982 0.09215748
-0.08134082 0.011528193 -0.044077545 -0.08970736 -0.043514248 0.056369353 -0.0043358305 -0.11413109
0.14519824 -0.12278162 0.11118105 -0.038245514 -0.07733626 -0.13483967 -0.09176645 0.076749034
0.075728394 0.13599688 -0.08168125 0.07656809 0.009759654 0.13870223 -0.16875257 -0.093092404

rnn.cell.recurrent_kernel_h f4 [128, 128]
00000000: cc1a ffbd add5 de3d 9683 dfbd 7501 27be
00000010: 8e93 163e 6fc2 813c 3c52 093e 7dea 0bbd
00000020: c526 053e bc01 82bd f9bc ad3c 3875 14be
00000030: 7411 453d 9b16 f13d 9afb cc3d 1e9b dcbd
00000040: ef33 593d 5a06 d93c b8d6 c93c a11a 4f3d
00000050: e253 17bd 969b 8dbd bc35 ecbd bc42 80bd
00000060: 4515 4bbd 4118 afbd 95d8 52bd 14cc 063e
00000070: ba9a 87bc 9568 6ebc c5de 9d3d ee20 dc3d
00000080: 4810 0cbd 41ff 21be f0ca 0f3c f766 c2bd
00000090: a038 37bd d86a adbc d623 00bd 45f6 0fbe
000000a0: 9056 36be 8114 c53d d604 bc3d e7dd 693c
000000b0: f487 683d 6f60 973d 5e61 033e ccbd b7bd
000000c0: 0819 d5bd 093c 59bd a91e d0bd 0cf6 1fbd
000000d0: 0c04 963d 07c3 abbb 35e2 04be eb4b 4b3d
000000e0: 8bee a53c 7610 8dbd de9a a83d dab6 e9bd
000000f0: f012 a6bd b060 ccbd b59c 143d a475 d4bd
00000100: 4c26 1c3e 79b7 323e fc07 81bd 3672 f9bb
00000110: d3d7 003e 0fde e33d a7ab 0d3e 80f0 0abe
00000120: 550a f33d 2d5a 1abd dee4 9a3d fb08 ba3d
00000130: eedd 2f3e 9435 903d 6c05 18bc bb2d 61bd
00000140: ac22 a1bd cb99 283e 0019 083e e565 35be
00000150: c171 99bc 951d 58bd c89b c8bd 6421 dabd
00000160: 3ca6 143e db6a 0a3e d2a9 7e3d cbd1 b93d
00000170: 3263 863d 2d9c 213d 5324 7cbd 647c eebc
00000180: 8112 713c 4dcc ad3d cda5 82bd d70b 03be
00000190: e43e a53d 1304 4cbd 2a0c 2f3e b48f ddbd
000001a0: 75bd cc3c e6bc a13d 2e76 103e 22ba 07bd
000001b0: 7aa4 b2bc 70a6 ec3d 120b 2bbe 842f d1bd
000001c0: c1ba 6ebd ea52 f8bd 1b01 96bd 8d6c e5bd
000001d0: 5fbc 16bb 8bee 543b 64e4 09bd 0d03 7fbc
000001e0: 7f5b 2e3d 0dee 65bd ed89 943d ec7e 9a3d
000001f0: c9ec 12be 2536 1a3d 9d09 09be c612 04be
00000200: 42e9 253d fa90 a93d 0d3c 143c f633 10be
00000210: 6472 753d 34dc f4bd 3ecd be3d ca07 18be
00000220: 541e d0bd 59a6 43bc 9906 27be 2f2d 8b3d
00000230: 2ce3 15be 10f8 c0bd 7fb1 403d 8daf b7bd
00000240: 4c10 b33d 3386 cbbc 6b58 ac3d cad3 a6bb
00000250: 8e15 e8bd c567 213d 1147 cc3d a888 3c3e
00000260: b7f9 77bd 8c40 febd c304 73bd e513 a03d
00000270: cc75 b13d 9b3a c5bd 2861 793c bf79 633c
00000280: 8ca5 ad3c ab14 0b3d f221 633d 2718 263d
00000290: c920 253d 57e5 3c3d 7539 fbbc b0d7 20be
000002a0: 12d9 49bd c8e1 b03d 8ca6 a9bc b352 d93c
000002b0: 8700 d2bc 7148 af3d f6b6 b3bd 978e 293d
000002c0: 12a1 2a3d 93fd 8ebc 6cab 34be c922 253d
000002d0: 40c3 23bd a817 e03d 3bc2 fabd 14b9 623c
000002e0: bb06 81bd e86b 88bd 0f2a 003e b323 33be
000002f0: 5505 1bbd 3443 37be 6a0b 113c 9899 17be
00000300: 37da e1bd 0fe2 e73d 5ae4 12be fcc0 16be
00000310: 6c1f 8ebc 360e 0d3e 8982 edbd 1af1 3dbb
00000320: f7d9 e1bd f125 303e 9b22 993d 9a12 193e
00000330: 29af 9dbb 1873 90bd 6db1 5fbc acf6 64bd
00000340: 979a 213e 9df7 0f3e b38d 693d d6de e23d
00000350: 30c4 80bd 59a4 eabd 0cf8 163e 3d26 e43c
00000360: 8391 ca3d 6ca8 253d aa38 b53c e344 583d
00000370: 10c6 303e 661e c0bc ad49 33be cb3f 2dbe
00000380: 6e32 e33c 4e48 603c 475f 03be a2f6 24be
00000390: 1d34 153e c87c 813d eb83 c03d fb3e 0a3d
000003a0: 8337 083e 5722 93bd bfb9 9c3d c36e 333d
000003b0: 2c8a fb3d 6898 f4bd df1b 6b3d 0529 c43d
000003c0: 6eb7 8ebc e162 b53d 55c0 703d 5d62 4ebc
000003d0: 1d5d 01be 35d1 a2bd a04e f63d 2b21 77bd
000003e0: 3b05 673c 83a7 233e ceae ff3d 2cf9 db3d
000003f0: 13fe 843d bb4c cabd 0cb1 ca3d 237b 7f3b
-0.12456283 0.10880599 -0.1091377 -0.1630915 0.14704725 0.015839783 0.13410276 -0.034159172
0.1300307 -0.06347987 0.021208273 -0.1449784 0.048112348 0.1177189 0.10008927 -0.10771774
0.053028043 0.026492286 0.024638519 0.050562505 -0.03694523 -0.06914441 -0.115336865 -0.062627286
-0.04958083 -0.08549548 -0.05147608 0.13163787 -0.016553272 -0.0145513015 0.077085055 0.10748468
-0.034195215 -0.15820028 0.008776411 -0.09492295 -0.044731736 -0.021169111 -0.031284176 -0.14058788
-0.17806458 0.096230514 0.0918061 0.014274097 0.05677028 0.0739144 0.12830111 -0.08971748
-0.10405165 -0.05303577 -0.10162098 -0.039053008 0.07324991 -0.005241755 -0.12976916 0.049632948
0.020255348 -0.06887905 0.082326636 -0.11411829 -0.08109081 -0.09979379 0.03628226 -0.10374001
0.15248984 0.17452802 -0.06300351 -0.007612492 0.1258233 0.11126339 0.13835011 -0.13568306
0.11867205 -0.037683655 0.07563184 0.09083744 0.17174503 0.07041469 -0.009278636 -0.054975253
-0.07867941 0.16464917 0.13290787 -0.17714651 -0.018731 -0.052762587 -0.09795338 -0.106509
0.14516538 0.13517325 0.062173672 0.09073218 0.06561889 0.03945558 -0.06155808 -0.029112048
0.014713884 0.08486233 -0.0637928 -0.12797485 0.08068636 -0.049808573 0.17094484 -0.10818425
0.024992684 0.07897358 0.14107582 -0.033136494 -0.021806944 0.11555183 -0.16703442 -0.10214141
-0.05828357 -0.121251896 -0.073244296 -0.11202345 -0.0023000462 0.0032490816 -0.033665076 -0.015564692
0.042567726 -0.056135226 0.0725287 0.0754374 -0.14348139 0.037649292 -0.13382573 -0.12897786
0.040505655 0.08279605 0.00904752 -0.14082322 0.059923545 -0.11956063 0.093164906 -0.14846721
-0.10162035 -0.011941516 -0.1631111 0.067957275 -0.1463744 -0.09422314 0.047044273 -0.089690305
0.08743343 -0.024844265 0.08415302 -0.005091165 -0.11332236 0.039405603 0.09974492 0.18411505
-0.06054088 -0.12414655 -0.059330713 0.078162946 0.08665046 -0.09630319 0.015220918 0.013884007
0.021197103 0.033955257 0.055452295 0.040550377 0.04031447 0.046117153 -0.030667046 -0.15707278
-0.04927928 0.08636814 -0.020709299 0.026528692 -0.025635017 0.08558739 -0.087751314 0.04139575
0.041657515 -0.017454898 -0.17643517 0.040316377 -0.039981127 0.10942012 -0.12244078 0.013838071
-0.06300112 -0.066612065 0.12516044 -0.17494087 -0.037846882 -0.1789673 0.008852819 -0.14804685
-0.11027949 0.11322414 -0.14344922 -0.14722055 -0.017348967 0.13774952 -0.11597163 -0.002898282
-0.110279016 0.17201973 0.074773036 0.14948502 -0.0048121405 -0.070532024 -0.013653141 -0.055899307
0.15781628 0.140593 0.0570199 0.11077659 -0.0628742 -0.11457128 0.1474306 0.027850265
0.098910354 0.040443823 0.022121746 0.05280007 0.17263055 -0.023451995 -0.17508574 -0.16918866
0.027734008 0.013689114 -0.12829314 -0.16109708 0.14570661 0.06322628 0.09400161 0.03375147
0.13302426 -0.07184284 0.07652616 0.043806802 0.122822136 -0.11943132 0.057399627 0.09578136
-0.01742145 0.0885675 0.058777172 -0.012596694 -0.12633176 -0.07950059 0.12026715 -0.060334366
0.014100368 0.1598187 0.12484513 0.10740885 0.06493773 -0.098779164 0.0989705 0.0038983307

rnn.cell.bias_z f4 [128]
00000000: 6a07 0000 0000 0000 cd0b 0000 0000 0000
00000010: b60f 0000 0000 0000 300a 0000 0000 0000
00000020: 640c 0000 0000 0000 730c 0000 0000 0000
00000030: 1c08 0000 0000 0000 a902 0000 0000 0000
00000040: 6f05 0000 0000 0000 d703 0000 0000 0000
00000050: d603 0000 0000 0000 e104 0000 0000 0000
00000060: 7304 0000 0000 0000 e60d 0000 0000 0000
00000070: 950a 0000 0000 0000 7307 0000 0000 0000
00000080: 4004 0000 0000 0000 5b03 0000 0000 0000
00000090: 3709 0000 0000 0000 4400 0000 0000 0000
000000a0: 740d 0000 0000 0000 d102 0000 0000 0000
000000b0: 4a08 0000 0000 0000 be05 0000 0000 0000
000000c0: 4a07 0000 0000 0000 5c0f 0000 0000 0000
000000d0: 860c 0000 0000 0000 7e00 0000 0000 0000
000000e0: 4d05 0000 0000 0000 3904 0000 0000 0000
000000f0: 6f00 0000 0000 0000 cd03 0000 0000 0000
00000100: 380a 0000 0000 0000 2706 0000 0000 0000
00000110: 1409 0000 0000 0000 b209 0000 0000 0000
00000120: 5802 0000 0000 0000 1706 0000 0000 0000
00000130: 7c02 0000 0000 0000 fd0a 0000 0000 0000
00000140: e608 0000 0000 0000 2c02 0000 0000 0000
00000150: c30e 0000 0000 0000 cf0c 0000 0000 0000
00000160: 7a01 0000 0000 0000 3c05 0000 0000 0000
00000170: be0b 0000 0000 0000 8907 0000 0000 0000
00000180: 8d02 0000 0000 0000 e10c 0000 0000 0000
00000190: 6109 0000 0000 0000 7b0a 0000 0000 0000
000001a0: f90e 0000 0000 0000 4008 0000 0000 0000
000001b0: e906 0000 0000 0000 3201 0000 0000 0000
000001c0: 0204 0000 0000 0000 c905 0000 0000 0000
000001d0: 0b0c 0000 0000 0000 f305 0000 0000 0000
000001e0: 8202 0000 0000 0000 3809 0000 0000 0000
000001f0: 740f 0000 0000 0000 a804 0000 0000 0000
2.66e-42 0.0 4.233e-42 0.0 5.636e-42 0.0 3.655e-42 0.0
4.445e-42 0.0 4.466e-42 0.0 2.909e-42 0.0 9.54e-43 0.0
1.949e-42 0.0 1.377e-42 0.0 1.376e-42 0.0 1.75e-42 0.0
1.596e-42 0.0 4.986e-42 0.0 3.796e-42 0.0 2.672e-42 0.0
1.525e-42 0.0 1.204e-42 0.0 3.306e-42 0.0 9.5e-44 0.0
4.826e-42 0.0 1.01e-42 0.0 2.974e-42 0.0 2.06e-42 0.0
2.615e-42 0.0 5.51e-42 0.0 4.493e-42 0.0 1.77e-43 0.0
1.902e-42 0.0 1.515e-42 0.0 1.56e-43 0.0 1.363e-42 0.0
3.666e-42 0.0 2.207e-42 0.0 3.257e-42 0.0 3.478e-42 0.0
8.41e-43 0.0 2.185e-42 0.0 8.91e-43 0.0 3.942e-42 0.0
3.192e-42 0.0 7.79e-43 0.0 5.296e-42 0.0 4.595e-42 0.0
5.3e-43 0.0 1.878e-42 0.0 4.212e-42 0.0 2.703e-42 0.0
9.15e-43 0.0 4.62e-42 0.0 3.365e-42 0.0 3.76e-42 0.0
5.371e-42 0.0 2.96e-42 0.0 2.479e-42 0.0 4.29e-43 0.0
1.438e-42 0.0 2.075e-42 0.0 4.32e-42 0.0 2.134e-42 0.0
9e-43 0.0 3.307e-42 0.0 5.544e-42 0.0 1.67e-42 0.0

rnn.cell.bias_r f4 [128]
00000000: 4303 0000 0000 0000 190f 0000 0000 0000
00000010: 7c04 0000 0000 0000 2e06 0000 0000 0000
00000020: 2c09 0000 0000 0000 100e 0000 0000 0000
00000030: 700c 0000 0000 0000 dd01 0000 0000 0000
00000040: 430b 0000 0000 0000 3a0f 0000 0000 0000
00000050: da09 0000 0000 0000 1f0f 0000 0000 0000
00000060: 0007 0000 0000 0000 c30d 0000 0000 0000
00000070: 6b0e 0000 0000 0000 2a05 0000 0000 0000
00000080: b30e 0000 0000 0000 f706 0000 0000 0000
00000090: 580c 0000 0000 0000 df08 0000 0000 0000
000000a0: f900 0000 0000 0000 db02 0000 0000 0000
000000b0: 1a02 0000 0000 0000 c909 0000 0000 0000
000000c0: 420f 0000 0000 0000 2302 0000 0000 0000
000000d0: d704 0000 0000 0000 ad0e 0000 0000 0000
000000e0: 260f 0000 0000 0000 3601 0000 0000 0000
000000f0: 0105 0000 0000 0000 1504 0000 0000 0000
00000100: 390b 0000 0000 0000 6401 0000 0000 0000
00000110: 080f 0000 0000 0000 a202 0000 0000 0000
00000120: 8308 0000 0000 0000 960b 0000 0000 0000
00000130: 2102 0000 0000 0000 0b01 0000 0000 0000
00000140: fa01 0000 0000 0000 4804 0000 0000 0000
00000150: 830e 0000 0000 0000 6108 0000 0000 0000
00000160: 2f0c 0000 0000 0000 ec0a 0000 0000 0000
00000170: 4f05 0000 0000 0000 7704 0000 0000 0000
00000180: 6f04 0000 0000 0000 d60e 0000 0000 0000
00000190: a801 0000 0000 0000 2e0c 0000 0000 0000
000001a0: bb04 0000 0000 0000 b700 0000 0000 0000
000001b0: b204 0000 0000 0000 5704 0000 0000 0000
000001c0: 5d0e 0000 0000 0000 3303 0000 0000 0000
000001d0: 9b06 0000 0000 0000 3e05 0000 0000 0000
000001e0: 7e06 0000 0000 0000 0e05 0000 0000 0000
000001f0: b706 0000 0000 0000 c602 0000 0000 0000
1.17e-42 0.0 5.416e-42 0.0 1.609e-42 0.0 2.217e-42 0.0
3.29e-42 0.0 5.045e-42 0.0 4.462e-42 0.0 6.68e-43 0.0
4.04e-42 0.0 5.462e-42 0.0 3.534e-42 0.0 5.424e-42 0.0
2.511e-42 0.0 4.937e-42 0.0 5.172e-42 0.0 1.853e-42 0.0
5.273e-42 0.0 2.499e-42 0.0 4.428e-42 0.0 3.182e-42 0.0
3.49e-43 0.0 1.024e-42 0.0 7.54e-43 0.0 3.51e-42 0.0
5.473e-42 0.0 7.67e-43 0.0 1.736e-42 0.0 5.265e-42 0.0
5.434e-42 0.0 4.34e-43 0.0 1.795e-42 0.0 1.464e-42 0.0
4.026e-42 0.0 4.99e-43 0.0 5.392e-42 0.0 9.44e-43 0.0
3.053e-42 0.0 4.156e-42 0.0 7.64e-43 0.0 3.74e-43 0.0
7.09e-43 0.0 1.536e-42 0.0 5.206e-42 0.0 3.006e-42 0.0
4.37e-42 0.0 3.918e-42 0.0 1.904e-42 0.0 1.602e-42 0.0
1.59e-42 0.0 5.322e-42 0.0 5.94e-43 0.0 4.369e-42 0.0
1.697e-42 0.0 2.56e-43 0.0 1.684e-42 0.0 1.557e-42 0.0
5.153e-42 0.0 1.148e-42 0.0 2.37e-42 0.0 1.88e-42 0.0
2.329e-42 0.0 1.813e-42 0.0 2.409e-42 0.0 9.95e-43 0.0

rnn.cell.bias_h f4 [128]
00000000: e0ac 7f1a d57f 0000 e0ac 7f1a d57f 0000
00000010: 0000 0000 0000 0000 0000 0000 0000 0000
00000020: 5d0c 0000 0000 0000 ca04 0000 0000 0000
00000030: d30d 0000 0000 0000 a101 0000 0000 0000
00000040: a10e 0000 0000 0000 dd0c 0000 0000 0000
00000050: 7f05 0000 0000 0000 890b 0000 0000 0000
00000060: 390e 0000 0000 0000 a208 0000 0000 0000
00000070: fe04 0000 0000 0000 0609 0000 0000 0000
00000080: 1c00 0000 0000 0000 8508 0000 0000 0000
00000090: 200f 0000 0000 0000 b104 0000 0000 0000
000000a0: 4f06 0000 0000 0000 0103 0000 0000 0000
000000b0: 5508 0000 0000 0000 3502 0000 0000 0000
000000c0: d701 0000 0000 0000 fe02 0000 0000 0000
000000d0: 2f05 0000 0000 0000 bc0e 0000 0000 0000
000000e0: b00c 0000 0000 0000 6c0c 0000 0000 0000
000000f0: 350a 0000 0000 0000 7705 0000 0000 0000
00000100: c20d 0000 0000 0000 6900 0000 0000 0000
00000110: b20c 0000 0000 0000 c503 0000 0000 0000
00000120: b90c 0000 0000 0000 4903 0000 0000 0000
00000130: d706 0000 0000 0000 1f0e 0000 0000 0000
00000140: 8e08 0000 0000 0000 0f03 0000 0000 0000
00000150: 3d02 0000 0000 0000 620e 0000 0000 0000
00000160: a205 0000 0000 0000 2e08 0000 0000 0000
00000170: d001 0000 0000 0000 2e0b 0000 0000 0000
00000180: 8003 0000 0000 0000 f805 0000 0000 0000
00000190: 2104 0000 0000 0000 e005 0000 0000 0000
000001a0: 6304 0000 0000 0000 f80e 0000 0000 0000
000001b0: f403 0000 0000 0000 fe0b 0000 0000 0000
000001c0: 7406 0000 0000 0000 ee0b 0000 0000 0000
000001d0: 290b 0000 0000 0000 5a00 0000 0000 0000
000001e0: 5107 0000 0000 0000 a90c 0000 0000 0000
000001f0: 490f 0000 0000 0000 ec08 0000 0000 0000
5.287241e-23 4.5857e-41 5.287241e-23 4.5857e-41 0.0 0.0 0.0 0.0
4.435e-42 0.0 1.718e-42 0.0 4.959e-42 0.0 5.84e-43 0.0
5.248e-42 0.0 4.614e-42 0.0 1.972e-42 0.0 4.138e-42 0.0
5.102e-42 0.0 3.097e-42 0.0 1.791e-42 0.0 3.237e-42 0.0
3.9e-44 0.0 3.056e-42 0.0 5.426e-42 0.0 1.683e-42 0.0
2.263e-42 0.0 1.078e-42 0.0 2.989e-42 0.0 7.92e-43 0.0
6.6e-43 0.0 1.073e-42 0.0 1.86e-42 0.0 5.286e-42 0.0
4.551e-42 0.0 4.456e-42 0.0 3.662e-42 0.0 1.96e-42 0.0
4.935e-42 0.0 1.47e-43 0.0 4.554e-42 0.0 1.352e-42 0.0
4.564e-42 0.0 1.178e-42 0.0 2.454e-42 0.0 5.066e-42 0.0
3.069e-42 0.0 1.097e-42 0.0 8.03e-43 0.0 5.16e-42 0.0
2.02e-42 0.0 2.934e-42 0.0 6.5e-43 0.0 4.01e-42 0.0
1.256e-42 0.0 2.141e-42 0.0 1.481e-42 0.0 2.108e-42 0.0
1.574e-42 0.0 5.37e-42 0.0 1.418e-42 0.0 4.302e-42 0.0
2.315e-42 0.0 4.28e-42 0.0 4.004e-42 0.0 1.26e-43 0.0
2.625e-42 0.0 4.542e-42 0.0 5.483e-42 0.0 3.2e-42 0.0

rnn.cell.input_decay_kernel f4 [37]
00000000: 0000 0000 0000 0000 0000 0000 0000 0000
00000010: 0000 0000 0000 0000 0000 0000 0000 0000
00000020: 0000 0000 0000 0000 0000 0000 0000 0000
00000030: 0000 0000 0000 0000 0000 0000 0000 0000
00000040: 0000 0000 0000 0000 0000 0000 0000 0000
00000050: 0000 0000 0000 0000 0000 0000 0000 0000
00000060: 0000 0000 0000 0000 0000 0000 0000 0000
00000070: 0000 0000 0000 0000 0000 0000 0000 0000
00000080: 0000 0000 0000 0000 0000 0000 0000 0000
00000090: 0000 0000
0.0 0.0 0.0 0.0 0.0 0.0 0.0 0.0
0.0 0.0 0.0 0.0 0.0 0.0 0.0 0.0
0.0 0.0 0.0 0.0 0.0 0.0 0.0 0.0
0.0 0.0 0.0 0.0 0.0 0.0 0.0 0.0
0.0 0.0 0.0 0.0 0.0

rnn.cell.input_decay_bias f4 [37]
00000000: 0000 0000 0000 0000 0000 0000 0000 0000
00000010: 0000 0000 0000 0000 0000 0000 0000 0000
00000020: 0000 0000 0000 0000 0000 0000 0000 0000
00000030: 0000 0000 0000 0000 0000 0000 0000 0000
00000040: 0000 0000 0000 0000 0000 0000 0000 0000
00000050: 0000 0000 0000 0000 0000 0000 0000 0000
00000060: 0000 0000 0000 0000 0000 0000 0000 0000
00000070: 0000 0000 0000 0000 0000 0000 0000 0000
00000080: 0000 0000 0000 0000 0000 0000 0000 0000
00000090: 0000 0000
0.0 0.0 0.0 0.0 0.0 0.0 0.0 0.0
0.0 0.0 0.0 0.0 0.0 0.0 0.0 0.0
0.0 0.0 0.0 0.0 0.0 0.0 0.0 0.0
0.0 0.0 0.0 0.0 0.0 0.0 0.0 0.0
0.0 0.0 0.0 0.0 0.0
