latest_results/grud_final_output/split_5/checkpoint.pt (torch, 410658 bytes, 22 tensors)

rnn.cell.kernel_z f4 [128, 37]
00000000: e7e1 0ebe 296c 0cbe 26a8 d1bd 0b93 65bd
00000010: 9716 3bbd 635f 1ebe 4f35 a0bd afeb ddbd
00000020: 1b2a ce3c c140 443d c7c4 1dbe f1cb 563e
00000030: 1a00 263e abd0 6dbd 6e1b 9c3c 5fec 8abd
00000040: 8c4d 4b3e 9079 e1bd 024a afbc 1776 bfbd
00000050: fdd9 3bbe 6635 1dbe 72c1 2e3e 24d2 093d
00000060: c7fa 6cbe 8721 1fbd 40cd be3d 1e5b 7d3d
00000070: 3092 263e e108 ccbd ea12 773d 0496 383d
00000080: f541 fb3d 47ea 033e 7627 de3d cb3f 88bc
00000090: 28f1 edbd d5c2 47bd 13cc 0a3d adae 18be
000000a0: 8b24 2b3e 32e0 113e 414d 42be c814 433d
000000b0: 56e2 18be 5a34 18be 7e1b c4bd dc45 f6bd
000000c0: 9237 77bd 9077 2ebe e68c 213e 4890 6dbd
000000d0: 0c3a 8e3d 26b8 cabc cdc0 8e3b 4224 bd3d
000000e0: 2739 efbd 5831 533d 358e bdbd b6b7 7d3d
000000f0: 86f5 f93d 1187 963c 2e49 e43d cc4d b0bd
00000100: 44a0 543d 502c 0a3e cf8f 32bd 148a 1fbe
00000110: 426b caba 6875 a6bd a999 e5bd 7ab0 1cbe
00000120: 447a 8bbd 2f58 463e 0c1c 493d f630 f6bd
00000130: 955c 773d 6410 f33d 5b43 f3bc ac2c 9e3d
00000140: 17f4 5a3d 2a9e cabd 1314 283e 2fe1 1c3e
00000150: c908 cd3d 0ddb 903d a6f6 863d 0e09 23be
00000160: fecb 133e ff5e 0e3d eec7 813d c3b0 1d3c
00000170: 71ce 00bd 754b c63d c300 46bd ede1 183d
00000180: fb3d 7a3d b3b4 dcbd 49cb d83d 0590 c3bd
00000190: 2838 96bd f3d6 5d3c c5c2 01bc 9271 39be
000001a0: f804 033e 5049 65be dacc 863d 37e7 1bbe
000001b0: 6bc7 863c 387e 153d 07fe 4a3d 9390 8f3d
000001c0: f92e 31be bb3c 4c3d 617a 59bd 1184 8d3d
000001d0: 5887 cdbc 5197 efbd 7ca8 263e 5132 c23d
000001e0: 1877 793d 29a2 1bbe e3c3 a6bc 4457 b33d
000001f0: 8b29 163e c34f a43d 8a66 3fbe 5385 52be
00000200: 45d0 b53d 8aaf 3bbe ce50 0e3e 721b cdbd
00000210: 7613 13be a467 483d 3cf0 083e 5ae9 b33d
00000220: fd28 f4bd 29ba 8abd e4e0 88bd 783c ab3c
00000230: 0e25 de3c 2f77 0abd 47b3 263c a96e 94bd
00000240: 1361 1f3e 8cc5 05be d673 123c db22 ea3d
00000250: 871a 2dbe a5e2 1dbe b6b7 093d f6a0 c33d
00000260: 34de 463e d310 21bd 448a 5a3d dc08 45be
00000270: 3bde 493e c617 1dbe 91c5 643d f10b 143e
00000280: ac5f 3fbe ba94 fa3d e6f1 14bd d9b6 01be
00000290: c90a 3c3e 827f bb3d a61a 003e 04b7 f3bd
000002a0: 7dcb 5abd d730 1b3e 4c3f 4c3d 0f8b e5bd
000002b0: deaf c83d 8b37 a2bd b74b 17be 38d0 e7bd
000002c0: 6eba 3fbe d8ed 663d 6dec 00be 0ae2 423b
000002d0: a592 043e 6522 8dbd eedf b53d c746 e4bc
000002e0: 2e26 14be 4a79 e9bd dda4 133e 606d 093e
000002f0: 60e7 123d b47e 52be 907a 263e ad75 23be
00000300: bc99 b23d 3942 3ebe 8498 debd 8ed5 36be
00000310: acc0 44be b4d8 c43d b085 583b ab95 51be
00000320: f964 22be 7abf 4e3d 0ff0 543d 8c46 12be
00000330: ce1f 1f3e 3ef2 dcbd c4af fa3d 9246 783c
00000340: aa19 933d 334d 94bd 07fe 1f3e f8e0 25be
00000350: 4ac5 71be caf9 433e a691 22be 02bd 363d
00000360: cc11 20bd 0c6f 3b3c 7eb7 efbd 6ff5 0a3e
00000370: 7ab0 74bc fc64 283e d86e a93d 1104 43be
00000380: fa79 ddbd 2dca cd3d 58b6 23be 5a00 da3d
00000390: c369 b53d 00fc 093d 345f d93d 5645 4e3d
000003a0: 0ca7 a6bd 694c af3d 8dc4 8c3d 56e8 bdbd
000003b0: 6ccc 98bd 384e e03d c3b2 53bd 8124 a3bd
000003c0: 68d9 ba3d 8550 69bd 4abb 783c 419b 0abe
000003d0: 4782 ddbc cc35 b13d e4a1 2e3e a72e 2c3e
000003e0: ed76 e23d b539 0cbe 6d43 39bd da82 2fbe
000003f0: 84d5 79bd e585 143e dbe1 7dbb 0225 b73d
-0.13953362 -0.13713135 -0.1023715 -0.056048434 -0.04567584 -0.15466075 -0.07822668 -0.10835969
0.025166562 0.047913317 -0.15407096 0.20976235 0.16210976 -0.05806033 0.019056048 -0.067833655
0.198538 -0.11009514 -0.021397594 -0.09348696 -0.18344875 -0.15352401 0.17065981 0.03364767
-0.23142539 -0.038850334 0.09316492 0.061854474 0.16266704 -0.09962631 0.060320772 0.04506494
0.1226844 0.12882338 0.1084737 -0.016631981 -0.116182625 -0.04876979 0.033886027 -0.14910384
0.16713159 0.1424568 -0.18974783 0.04762724 -0.1493009 -0.1486372 -0.09575556 -0.12025043
-0.06035573 -0.17037797 0.15776405 -0.057998925 0.06944665 -0.024746012 0.0043564797 0.09235431
-0.11680823 0.05156073 -0.092556395 0.06194278 0.12205033 0.018374952 0.111467704 -0.086085886
0.051910654 0.13493466 -0.043594178 -0.15580016 -0.0015443342 -0.08127862 -0.11210949 -0.15301695
-0.0681043 0.19369577 0.049099013 -0.12021057 0.060391027 0.11868361 -0.029695204 0.07723364
0.05345544 -0.09893449 0.16413908 0.15320276 0.10011441 0.070730306 0.06590013 -0.15921423
0.14433286 0.034758564 0.06336962 0.009624663 -0.031446878 0.09682361 -0.04834057 0.037324835
0.061094265 -0.10776653 0.105856486 -0.09548954 -0.0733493 0.013540017 -0.007919972 -0.1810973
0.12794864 -0.22391248 0.06582041 -0.1522492 0.016452512 0.036497325 0.049558666 0.07009997
-0.17303075 0.049862605 -0.053095225 0.06909955 -0.025088951 -0.11698783 0.16275209 0.09482253
0.060904592 -0.15198578 -0.020357078 0.08756879 0.14664285 0.08023026 -0.1869146 -0.20558672
0.08877615 -0.18328682 0.13898012 -0.100150004 -0.14362893 0.048926964 0.13372892 0.08784743
-0.119218804 -0.067737885 -0.066835195 0.020902857 0.027117278 -0.03380507 0.010174579 -0.07247669
0.15564375 -0.1306364 0.00893875 0.114324294 -0.1690465 -0.1541849 0.033622466 0.09552185
0.19420701 -0.039322685 0.053354517 -0.19241661 0.1971368 -0.153411 0.055852477 0.1445768
-0.1868884 0.122353986 -0.036363505 -0.12667407 0.18363489 0.091551796 0.12510166 -0.11900142
-0.053416718 0.1515535 0.049865052 -0.11208164 0.09799169 -0.0792075 -0.14774977 -0.113190114
-0.18723461 0.05637917 -0.1259019 0.002973678 0.12946565 -0.06891326 0.08880602 -0.02786578
-0.1446769 -0.11400087 0.14418359 0.1342063 0.035865188 -0.20556146 0.16257691 -0.15962858
0.08720729 -0.1857995 -0.10868934 -0.17854902 -0.19214123 0.09611645 0.0033038668 -0.2046725
-0.1585883 0.050475575 0.05198675 -0.14284724 0.15539476 -0.107883915 0.12240556 0.015153544
0.071826294 -0.07241287 0.15624247 -0.161991 -0.23610416 0.19138256 -0.15875873 0.044613846
-0.039079472 0.01144005 -0.1170492 0.13570188 -0.014934653 0.16444772 0.08273095 -0.1904452
-0.10814281 0.100483276 -0.15987527 0.10644598 0.08858063 0.03368759 0.10613862 0.050359093
-0.081373304 0.08559496 0.068734266 -0.0927283 -0.074608654 0.10952419 -0.051684152 -0.07965947
0.09123498 -0.056961555 0.015181372 -0.13535787 -0.02703966 0.08652839 0.17053944 0.16814671
0.110578395 -0.13693888 -0.045230318 -0.1713976 -0.06099464 0.14504202 -0.0038739357 0.089426056

rnn.cell.kernel_r f4 [128, 37]
00000000: 1f4d d5bd ebc2 cf3b 0f1e 94bc 0dd2 a0bc
00000010: d2a5 e5bd 2676 bd3c fe4e 39be 0494 9d3c
00000020: 6e8e 873d b476 e2bc a57a 043c 2bde 393e
00000030: 0798 1ebe 1e69 5dbd 4b65 aebc 47b0 5bbe
00000040: 45ae 133e d438 923d 1060 083e a97a 2c3c
00000050: 8463 543d 3e4d 0abd 4ae4 8cbd 599e 303e
00000060: 9af1 13be fdd7 0f3d 08ba a63c 78ba 22be
00000070: d368 b6bc 346e 803c 326b eabd d5b3 adbd
00000080: a257 0dbe c552 1d3e 829d 003d c2bd b3bc
00000090: 479a b7bd 3213 333e c103 32bd 467c d43d
000000a0: 15bb f33d 2644 69bd c6f3 1abd 5690 fc3c
000000b0: 83bf 4cbe 03c9 9e3d 49a9 85bd f3cf a6bd
000000c0: 9582 0d3e 4c27 3ebd d62f 0d3e d5e3 d1bd
000000d0: 66ab 033e 1cb9 0b3e 322a 0b3e 0a49 02bd
000000e0: 883b 893d ddc7 1dbd c9d0 30be 546d 5cbd
000000f0: c51f 033e a7b4 1abc 10bf 21bd 6148 5e3d
00000100: 4693 103e 712d 81bc 4342 96bd 5bbe 66bd
00000110: 7d86 1f3d e5a6 89bd 4437 11be 93d8 493e
00000120: a779 ab3d ec25 7cbd 5b80 6abd f308 57be
00000130: c98c 543d 88ac 4f3e c901 0e3c 4c61 40bd
00000140: 1287 3abe b2ee 463e 9585 053e 3873 cf3d
00000150: f24b 8ebd fc1b 413d f7b3 ae3d a8a2 31be
00000160: eb3c 353e 9322 c43d 5245 e9bd b370 dcbd
00000170: cd88 b3bc c056 3cbe 8c52 80bc 3efd 113e
00000180: fcc6 1fbe 9c4a 223e 2e34 14be 05bc 223e
00000190: 2aff 1bbe f1e3 d13d 7f34 84bc 6dff 05be
000001a0: 67c7 323e 42ed d43d d576 333d 1807 b43d
000001b0: a5d4 ebbd 2b3b 2b3d 5b95 b73d 725f f2bd
000001c0: 3732 123e 7959 13be bd2f 2ebe 5fbf 0ebe
000001d0: 180f 29be 12ef 34be 59eb 99bd 6994 93bb
000001e0: ba7a e93d ed77 903c a518 993d 594f 26be
000001f0: 6043 f43d d171 20bd bff1 42be 0a32 153c
00000200: e800 cdbd 7187 213e 3d46 013e bff0 debd
00000210: af34 40bc 4ccc f9bd 5f68 f13d 310f 13be
00000220: 691c 383e 83a2 45bd 4941 ccbd ad1f d0bd
00000230: 4aed 7f3d e69c 9ebd e98f 393d 61ac 433e
00000240: f9f6 d3bc d93c 613e cf15 96bd 5013 833d
00000250: 6f82 28bd 8376 0b3d 1bb1 07bd d68c f13c
00000260: 7505 b13d ed14 26be 48d7 9e3d 64cd c5bd
00000270: 484a 6abd 6d59 c13d 9e48 38bd f4ec 813e
00000280: c9e9 24be 0884 493e 48cc 22be eb75 76bd
00000290: c317 16be b3d1 843d f2d4 033e d8f1 b4bd
000002a0: 3a73 32ba 8df5 f5bc 56b3 803d 5acf 1dbe
000002b0: ba3a da39 3912 cc3d 680b 53be fc19 c53d
000002c0: 3e45 2d3d 8300 35be fff2 15bd 53a8 803d
000002d0: 898a 303e e91a d63c 8b43 38bd 978a bbbd
000002e0: 994f 23be dbcc 4bbb 64e7 bfbd 94cf 13be
000002f0: 173c 23be 098e 1bbe c976 f23d e997 d4bd
00000300: 2c55 ecbb 20ec 27bd b9a3 4cbd d195 f6bd
00000310: 74e6 73be a4a5 573e 3303 433d 0296 093e
00000320: 5e93 343d 6ca4 353d 03e6 773e 9a36 713d
00000330: 5e7f b33d b887 453e a406 d73d 615c 07be
00000340: 8831 5ebc b4e2 8d3c ccac babd 9654 f33d
00000350: 4948 c0bb 266b 15be ead0 28be caf4 0bbe
00000360: 965a 883d 6432 f6bd a0a2 913d b64d 9b3d
00000370: 967c 07be 288f e63d e7e8 293e 6adb dcbd
00000380: ca62 31be a7af 80bd f34b 863d b5a8 17be
00000390: 1201 15bd 5311 813d 6d8c b93d 5bc4 d73d
000003a0: 6906 36be 52a8 7a3e 12ca cc3c 311f 593d
000003b0: 53f5 c83b 1f07 27bd de4f 2e3e dfae 24be
000003c0: 6305 1cbe e40d 303c 3215 80bd d0cf dbbd
000003d0: 4e11 e9bd efee 0b3d b4e5 37bc acc5 1c3d
000003e0: 5b74 babc a0d0 0e3e 3d76 293d d654 d8bd
000003f0: fada 68bd cd60 07bd 41b2 9b3d 51b3 0b3d
-0.104151 0.0063403747 -0.01808074 -0.01963141 -0.11213268 0.023127627 -0.1809654 0.019235618
0.06618963 -0.027644493 0.008085881 0.18151157 -0.15487681 -0.054055326 -0.021288535 -0.21453963
0.14421947 0.07139745 0.13317895 0.010527291 0.051852718 -0.03376507 -0.0687948 0.17247905
-0.14447632 0.03511809 0.020352378 -0.15891445 -0.022266781 0.015677549 -0.11446227 -0.08481566
-0.1380296 0.15363605 0.03140021 -0.02194107 -0.08964973 0.17487791 -0.04346061 0.10375266
0.119009174 -0.056949757 -0.037830137 0.030830543 -0.19994931 0.07753184 -0.06526429 -0.08145132
0.13819344 -0.046424195 0.13787779 -0.10248534 0.12858352 0.13644832 0.13590315 -0.031807937
0.06700808 -0.038520683 -0.17267145 -0.0538152 0.12805088 -0.009442485 -0.039488852 0.054268245
0.1411868 -0.015768738 -0.07336857 -0.05633388 0.038946617 -0.06721286 -0.14181238 0.19711523
0.08372813 -0.061559603 -0.057251316 -0.20999508 0.051892076 0.20280659 0.008667418 -0.04696779
-0.18215588 0.19426993 0.13039239 0.10129398 -0.06948079 0.04714583 0.08530419 -0.17347205
0.1769902 0.09576907 -0.11390175 -0.10763683 -0.021915818 -0.18392467 -0.015664361 0.1425676
-0.1560325 0.15848774 -0.1447303 0.15892036 -0.15234056 0.102485545 -0.016138313 -0.13085718
0.17458878 0.10396816 0.0438145 0.087904155 -0.11515168 0.041804474 0.08964034 -0.11834611
0.14276968 -0.143896 -0.17010398 -0.1394019 -0.16509664 -0.17669323 -0.07515592 -0.004503776
0.11400361 0.01763531 0.07475404 -0.16241206 0.11926913 -0.039171044 -0.19037531 0.0091061685
-0.100099385 0.15774323 0.1262445 -0.108857624 -0.011731311 -0.1219717 0.11787485 -0.14361264
0.17979588 -0.048250686 -0.0997339 -0.10162292 0.062482156 -0.0774477 0.04530326 0.19108726
-0.025874602 0.21995868 -0.073283784 0.06400168 -0.041140016 0.03404857 -0.033127885 0.029486101
0.08643619 -0.1621892 0.077559054 -0.09658316 -0.057199746 0.09440885 -0.04499113 0.25376093
-0.16104807 0.19679272 -0.1589824 -0.06017105 -0.14657502 0.064853095 0.12874201 -0.088351905
-0.0006807331 -0.030024314 0.062842056 -0.1541113 0.00041623955 0.09964413 -0.2060982 0.09624097
0.042302363 -0.17675976 -0.036608692 0.06282105 0.17240347 0.026135879 -0.04498629 -0.09157293
-0.15948333 -0.0031097445 -0.09370306 -0.14434654 -0.15940891 -0.15190901 0.11839063 -0.10380537
-0.0072123017 -0.04099667 -0.049960826 -0.12040294 -0.2381838 0.2105928 0.047610473 0.1343613
0.044085853 0.044346258 0.24208836 0.058889963 0.08764528 0.19290054 0.104993135 -0.13218834
-0.013561614 0.017320015 -0.0911499 0.11881368 -0.005867992 -0.14591655 -0.16485944 -0.13667598
0.06657903 -0.1202133 0.071110964 0.075831816 -0.1323112 0.11257774 0.16592751 -0.107840374
-0.17322841 -0.06283503 0.06557455 -0.1481045 -0.036377974 0.063021325 0.09059987 0.10535499
-0.17775883 0.24478272 0.024998698 0.053008262 0.0061327606 -0.040778276 0.17022654 -0.16082333
-0.1523643 0.010745499 -0.06254043 -0.107329965 -0.11380254 0.03416341 -0.011224199 0.038274452
-0.02276056 0.13946772 0.041372526 -0.10563056 -0.056849457 -0.0330513 0.076023586 0.034106556

rnn.cell.kernel_h f4 [128, 37]
00000000: acbd 33be cbb8 c53c ea8c 0dbe ffe7 703c
00000010: f7c4 cbbd 1638 18be b5ba 963c b4b3 393d
00000020: 906c 0abe 6fab e13d 8b7e 293e 3d70 a8bd
00000030: fd4f 543c 0281 7b3d e876 3fbe 4dd6 833d
00000040: 9b57 ea3c bd1d 623e 3381 b43d 369e 7f3d
00000050: 957b e7bd dad8 d33d 9e81 073e 1a72 16bd
00000060: 6a43 0b3e 445e b7bb fdf6 63bd 87d9 2a3e
00000070: 3ea1 c53c d87f 4b3e ec6b 3abe 279c bd3d
00000080: 6b4f 27bd df41 7b3c 5d5a 093e ae4e 563d
00000090: e1b3 bbbd f066 873d ef40 8ebd e433 0dbd
000000a0: ea32 01be 0603 c23c f5e5 c93d 98d8 b6bb
000000b0: debd 5dbc 51b0 9dbc b92a 96bb 329a 97bd
000000c0: 4d15 90bc 7df5 83bd 52ea 973d cab5 93bd
000000d0: 3775 afbd 4bf5 c13d 7bd6 863b 45d7 b3bd
000000e0: 9e74 bb3d 16de 103e 9b55 1a3c 2d94 b83d
000000f0: 7daa 0fbe 9ba3 883d 7ee8 273e ced3 cb3d
00000100: 3b98 453e c9fe 443d dba0 42be 625b 6bbd
00000110: 55cd d3bd 50c5 363e 70d5 0bbe ccdc a2bd
00000120: be3f 063e 2d1b 3a3e 7910 3b3d f60e 3cbe
00000130: 4ccd 94bd 860d 23be 2012 263e 15c7 9fbd
00000140: 0dce 4c3d bc82 ad3d 20ef b03d 74f6 543a
00000150: 23c5 07be 1108 2dbd 4179 8fbd cafb e8bd
00000160: 06a5 15be b413 d83d 511a 35be 27f1 2fbd
00000170: 6434 0bbe 8c15 e1bd 5386 353e de75 3c3e
00000180: 0eaf e7bd 273e 0fbe 0b03 083e 3b58 03be
00000190: 2e68 a4bd 9faf 4ebe 14c4 003e 3949 a8bd
000001a0: daeb 843d 4604 31be 5aa0 bf3c 636a e73a
000001b0: dac5 db3d ff0a e63d b53e 233b 62c7 333e
000001c0: fe58 debc 85d5 633d b74d 04bd 2c8a 4a3e
000001d0: f914 0f3e 3c93 5cbd b143 15be 2558 d93c
000001e0: ea78 74bd d0af 953c 8673 73bd 967a 50bc
000001f0: 32db 053e 6cce 01be 34b3 4c3d 4fc7 0dbe
00000200: 04c1 2c3e ce87 38bd 02a2 b53d 63f6 74bd
00000210: c684 08be 83e4 eb3d eeea f43d 514b 6bbd
00000220: 1e79 54be a38d 1a3d 96a6 203e 7fc4 213e
00000230: 9138 93bd c948 2fbe 3165 40bb c655 b6bd
00000240: ce9f 26be a5c9 153d 306b 0f3e 46e0 fbbd
00000250: 84b3 fcbd 0815 12bd 90ca a73d 6e85 363e
00000260: 6357 aabd ca02 f73d cf04 a6bd de22 1ebe
00000270: 4c0d 25be 8d18 2f3e 106e 88bd a113 183e
00000280: a7a1 983b f615 d93d 6ac8 24be 1727 693d
00000290: 5391 06be fc3a e6bd 65f2 103e 7d7c d53d
000002a0: 48cc 25be c9d0 a13b f638 49bd 9ccc 36be
000002b0: 7ce7 13be bc41 edbd c1b3 61bd 5742 2d3d
000002c0: 3fa0 553b 2c23 f93d 15c4 833d 3882 2fbe
000002d0: 0f20 393c 8c35 043e 5651 16be ab2f 6fbd
000002e0: 13f0 3dbe 106f 143c 531c 86bc 35a1 f53d
000002f0: 51f2 3ebe b6b6 143e 0c6f 863d 9606 43be
00000300: 2d43 69bd 23e8 173d 16ed 9dbc ae90 e1bd
00000310: a52a 6dbd 32dd a13c 1a3d d9bd ddc2 853c
00000320: 3f24 42bc 40b7 c53d be8b d93d 3a5f 36bd
00000330: 519a 95bd 0f5e e7bc 8b75 163e fb05 b63c
00000340: 53d4 a0bd ef19 2a3e cd3c d93d d013 a53c
00000350: 2ee7 153e 477c 593e 7547 423e deed 833d
00000360: 4c33 883d c16e 39be c24b 7a3c 2117 9f3d
00000370: 2a7c adbd 6fd6 873d bd9b c03c a5c0 4c3e
00000380: e045 023c d2bf 06be 7489 d23d 5de2 e93b
00000390: 8dc7 9abc a7e2 ffbd 82cc 3bbe eaba 22be
000003a0: 8b10 abbb 060e 233c 94a7 b13d 6c32 853d
000003b0: fa65 513c 75d1 273e 1f52 3cbe d47a 17be
000003c0: cd27 5a3c 7008 a0bd 2d9b 243e 141f 4f3d
000003d0: b60a b23d b50c 9abd 670f 40be 859c 2bbe
000003e0: f6d7 0cbe e85a 123e ded7 03bd eb33 163e
000003f0: 20a7 d43d 7d1a 333e 1c63 ca3d aac3 303c
-0.17552823 0.024135968 -0.13823286 0.01470375 -0.099496774 -0.14865145 0.018399576 0.045337394
-0.13517976 0.110190265 0.16552179 -0.08224533 0.012958524 0.06140233 -0.18697703 0.06437359
0.028606227 0.22081657 0.08813705 0.06240674 -0.11302868 0.103440955 0.13233039 -0.03672991
0.13599935 -0.005595954 -0.05565547 0.16684543 0.024124738 0.19872987 -0.18205231 0.09258299
-0.040847223 0.015335529 0.13413377 0.05232113 -0.091651686 0.06611431 -0.06945979 -0.034473315
-0.12617078 0.023683082 0.09858314 -0.005580019 -0.013534037 -0.019249113 -0.0045827297 -0.07402457
-0.017588282 -0.064433075 0.0741774 -0.07212408 -0.08567279 0.09470614 0.0041149235 -0.08781294
0.09153102 0.14147219 0.009419824 0.09012637 -0.1402988 0.0667183 0.16397282 0.09952508
0.19296353 0.048094545 -0.19006674 -0.057460196 -0.10341898 0.17848706 -0.13655639 -0.0795227
0.13110253 0.18174429 0.045670006 -0.18365082 -0.0726572 -0.15923128 0.16217852 -0.07801644
0.050001193 0.08472201 0.086393595 0.00081238826 -0.13258795 -0.04224402 -0.07005549 -0.1137615
-0.14613733 0.10550633 -0.1768582 -0.04295459 -0.13594204 -0.10990438 0.17727022 0.18404338
-0.11312686 -0.13988553 0.13282411 -0.12826626 -0.08027683 -0.20184182 0.12574798 -0.08217091
0.064902976 -0.17286786 0.023391891 0.0017655607 0.107310966 0.11232566 0.0024909202 0.17556527
-0.027142044 0.05562355 -0.032300677 0.19779271 0.13972844 -0.05385135 -0.14576603 0.026531288
-0.059685625 0.01827231 -0.059436344 -0.012724539 0.13071898 -0.126764 0.04997559 -0.13845561
0.16870505 -0.04505139 0.08868791 -0.059805285 -0.13331899 0.115181945 0.11958872 -0.057444874
-0.20749328 0.03773273 0.15688547 0.15797614 -0.071885236 -0.17117609 -0.002935719 -0.08903079
-0.16271898 0.036569256 0.14005733 -0.12298636 -0.123389274 -0.03566459 0.081929326 0.17824337
-0.08317449 0.12061079 -0.08106386 -0.15442988 -0.16118354 0.17099209 -0.06661618 0.14851238
0.0046579423 0.10599892 -0.16092077 0.056922045 -0.13141374 -0.11241719 0.14154966 0.10424135
-0.16191208 0.004938219 -0.049126588 -0.1785149 -0.14443773 -0.115848035 -0.055103067 0.042299595
0.0032596735 0.12164912 0.06433884 -0.17139518 0.011299147 0.12911052 -0.14679465 -0.05839507
-0.18548612 0.0090596825 -0.016370928 0.119936384 -0.18647124 0.14522824 0.06564149 -0.19045481
-0.05694883 0.037086617 -0.01927809 -0.110139236 -0.057901997 0.019758794 -0.10607357 0.01632827
-0.011849462 0.09654093 0.10622357 -0.04452441 -0.07304824 -0.028243093 0.14693277 0.022219649
-0.07852998 0.16611455 0.106073 0.020151049 0.1463897 0.21238814 0.18972571 0.06441854
0.06650409 -0.18108656 0.015276851 0.07768083 -0.08470948 0.06632697 0.023511762 0.19995363
0.00795123 -0.13159111 0.10280123 0.0071375803 -0.018893981 -0.124944024 -0.18339732 -0.15891615
-0.005220478 0.009952074 0.08674541 0.06503758 0.012780661 0.16388495 -0.18390702 -0.14792949
0.013315153 -0.07814109 0.1607482 0.050566748 0.08693449 -0.07521955 -0.18755876 -0.16758926
-0.13754258 0.1429249 -0.03218829 0.14668243 0.10383439 0.17490573 0.09882185 0.010788837

rnn.cell.recurrent_kernel_z f4 [128, 128]
00000000: e364 ea3d c8ab 0fbe 71bf 0f3e da63 8e3d
00000010: e23d 59bc d692 093d 6b48 bb3d e5af f2bd
00000020: 0f55 963c 4b4d 0dbe c396 03be 4363 063e
00000030: caef 7dbd bc20 27bd 1f8d 57bd df09 c4bd
00000040: 709b a03d 1155 1dbd e5e9 67bd d14a 583d
00000050: db99 9e3b f0de d83c 7b88 923d 5331 e3bc
00000060: 7c82 063e dfec 1e3d cb1a d93d 0ce5 55bc
00000070: 835f d1bd 1c4e 0bbe f683 12bd 90b6 71bd
00000080: e860 e1bd d6d0 b23d e945 283e 2ad4 343e
00000090: e141 973c 2e6f c4bd f135 d23d 47da 7a3d
000000a0: 8448 e13b 3ba4 b1bd 3b0a 75bc 1ea6 273e
000000b0: 3580 813d f965 4abc d95c fabd 3848 08be
000000c0: f53f 5a3c 0270 33be 804b cc3d 9c19 253c
000000d0: a969 933d bf56 50bc c1c1 c83c 75f9 bf3b
000000e0: 7c14 0cbe 2f78 0cbe 6955 a13b a203 163e
000000f0: 0e85 ca3d 6c64 023e dc38 b2bd 73db b2bc
00000100: 1258 c9bd 3f28 ef3c 099b 153e c49f 1e3d
00000110: 3082 32be b93e 713d 9a92 633d 6210 2b3c
00000120: 1c31 eb3d d0b1 7abd 5694 c33c 0af2 a4bd
00000130: ae66 9e3c a5d5 8d3d 2369 123e 9281 173d
00000140: 47fc 07be d63b c6bd 1534 4fbd 28fe 17be
00000150: a463 14bd 7840 ffbd 5ff4 86bd 56ab 603d
00000160: 334e 19bd 2d16 09be 05de 833d ef83 12be
00000170: 4b18 103d c506 afbd c01c febd ef4e 2dbd
00000180: 048e 1cbe ed35 c43d 4362 283d 6853 a0bd
00000190: 4b4e 7dbd c22b 3a3e 3e81 a33d ac95 5ebb
000001a0: 37c7 bdbd f406 233e 5685 8cbd b1b1 a1bd
000001b0: 22b5 2d3d 9e85 21be c985 ca3d 315f f13d
000001c0: 4526 a53d 9183 a23d 2712 cfbd 3fe6 0c3d
000001d0: c74f dbbd 14be a9bd 1424 a9bc 152b 603d
000001e0: 4fc3 953d c6f5 ef3c ba1c 053e f6f2 453c
000001f0: 11e4 e73b 1ed5 eebd 668d 3dbd 0a14 913d
00000200: 5b5f ecbd 9d96 20be dded 553b 1d20 02be
00000210: 19fc 11be 3470 e1bd 3a6d 123e 0bb8 f13d
00000220: f592 01be 7117 f3bd a49d 8cbd 3f8e 533d
00000230: 3fa1 9a3d 40d7 eb3d d709 c8bd 9c6f 443c
00000240: 8f60 33bd ca06 073e 42d6 f3bc 9461 173e
00000250: d21b 2b3d b10a 593d 3bab 423d 8319 0c3e
00000260: 0fc5 f8bd 1c99 0a3e 8dad 953d 2242 263e
00000270: 9ed5 18be 07e2 2fbe cc02 1abe 456b a33d
00000280: dc5c ca3d fb4f 16bd a659 c43c a6d1 b2bc
00000290: 55e8 083e 719b 333d 5ff3 05bc c99d b23d
000002a0: 641c 85bd 56e7 0bbd c63d 303e e1ca 383e
000002b0: 295a 6bbd 552d 233c dace ebbc d11e c53d
000002c0: fa31 af3d bbf3 6fbc 5561 80bd 90b2 a3bd
000002d0: f71b 07be 537d bcbd a944 10be 189f 863d
000002e0: c433 e13c 9ec4 5f3d b6b8 ba3d f2a5 353e
000002f0: 3c39 1a3e 566b 1c3d 32ef 913d 1808 0abe
00000300: f797 d1bd d633 e9bc 1eaf d03d 0626 04be
00000310: c39a f13b 9cc7 85bd aa56 a03d ecb8 07be
00000320: 0d7d cf3d ea94 bbbd c60d db3d 4aca 673d
00000330: 2dae 55bd 9acc 56bd 488e 133e 20b7 983d
00000340: 4bc2 1d3e f6c5 12be e9c5 363d 4091 13be
00000350: ffbe f4bd 64e2 ae3c 4443 003d ec06 91bc
00000360: 56af c9bd 9472 c2bd ac9e f1bd b835 cfbd
00000370: f315 61bc 0b69 b3bd 2635 d13d e48d 063e
00000380: b7d2 bf3d ad6d 18bd 1340 61bd 31de 1f3e
00000390: 106b a0bd 5c55 b03d ae6b 393d 8cbc f73d
000003a0: 5f3c 26be e789 c93c 5710 053e 97b8 85bd
000003b0: 1a66 b33c dd4b 48bd a85f e23c d52c 893d
000003c0: c7a0 b53d 5b85 68bb b88a 0c3d 4057 e53d
000003d0: 7fe9 953d c7c0 7a3d 9196 f83c 2eef cfbd
000003e0: ba19 c43c 62db 263d 0957 a73d 97cf 69bd
000003f0: bcf7 873b 4939 dcbd 260f 043e cc87 913c
0.11445024 -0.14030373 0.14037873 0.06952639 -0.013259383 0.0335873 0.09144672 -0.118499555
0.018351106 -0.13799016 -0.1285048 0.13123803 -0.06199626 -0.040802702 -0.052624818 -0.09572195
0.07842147 -0.038411204 -0.056619544 0.052805725 0.0048401183 0.026473492 0.07154938 -0.02773348
0.13135713 0.038800117 0.106008135 -0.013055097 -0.102232955 -0.13604015 -0.03577038 -0.059011996
-0.110048115 0.087312385 0.16432919 0.17659059 0.01846403 -0.09591518 0.10264195 0.06124332
0.0068750996 -0.086739026 -0.014956052 0.16371962 0.06323282 -0.012353414 -0.122247405 -0.133088
0.013320913 -0.17523196 0.09975338 0.0100769065 0.071978875 -0.012715994 0.024506452 0.005858595
-0.13679689 -0.13717721 0.0049235118 0.14649823 0.098886594 0.1273362 -0.08702251 -0.021833157
-0.09831251 0.029193996 0.14609922 0.038726583 -0.17432475 0.058897708 0.055559732 0.010440918
0.11483976 -0.06120473 0.023874443 -0.08053978 0.01933607 0.06925515 0.14297919 0.036988802
-0.1327983 -0.096793815 -0.05058678 -0.14843047 -0.036227837 -0.12463468 -0.06589579 0.0548509
-0.037428092 -0.13387366 0.06438831 -0.14308141 0.035179418 -0.08546213 -0.124078274 -0.042311605
-0.1528855 0.09580598 0.041109335 -0.078284085 -0.061842244 0.18180755 0.07983635 -0.0033963723
-0.09266513 0.15920621 -0.06861369 -0.0789522 0.04240907 -0.15773627 0.09888799 0.117857344
0.0806394 0.079352506 -0.10110884 0.034399267 -0.10708576 -0.08288208 -0.020647086 0.054728586
0.07312643 0.029291999 0.1299924 0.012081852 0.007076748 -0.11661743 -0.046277426 0.070839
-0.11541625 -0.15682454 0.0032642998 -0.12707563 -0.14256324 -0.11007729 0.14299479 0.118026815
-0.12653716 -0.118697055 -0.06866005 0.05164933 0.075502865 0.11515665 -0.09767502 0.0119895
-0.043793257 0.13186184 -0.029765252 0.14783317 0.04177458 0.05298871 0.04752658 0.13681607
-0.12146961 0.13534969 0.07308493 0.16236165 -0.14925238 -0.17176066 -0.1504013 0.079794444
0.09880993 -0.03669737 0.023968529 -0.021828484 0.13369878 0.043849412 -0.0081757 0.087215014
-0.06499556 -0.034156166 0.17211065 0.18046142 -0.05745903 0.0099595385 -0.028785158 0.096250184
0.08554454 -0.014645512 -0.062685646 -0.079930425 -0.13194261 -0.09203591 -0.14088692 0.065733135
0.027490504 0.054630868 0.09117262 0.17739084 0.15060896 0.0381883 0.07125701 -0.1347965
-0.10234063 -0.0284671 0.10189651 -0.1290513 0.0073731854 -0.06532213 0.0782903 -0.13254136
0.101312734 -0.091592625 0.106959864 0.056589402 -0.05216806 -0.052441217 0.14409745 0.07456803
0.15406148 -0.14333329 0.044622336 -0.14410877 -0.11950492 0.021348186 0.03131415 -0.017703496
-0.09847896 -0.0949451 -0.117978424 -0.10117668 -0.013738143 -0.0876027 0.102152154 0.13140064
0.093663625 -0.03721397 -0.054992747 0.15612103 -0.078329206 0.08610031 0.045268707 0.12096509
-0.16233967 0.02460189 0.12994514 -0.06529348 0.021899272 -0.048900474 0.027633503 0.06698004
0.088685565 -0.0035479877 0.03431198 0.11198282 0.073199265 0.061219003 0.030345233 -0.10153042
0.023938049 0.040736564 0.081708975 -0.05708274 0.0041494053 -0.10753114 0.12896404 0.017764948

rnn.cell.recurrent_kernel_r f4 [128, 128]
00000000: 3617 dfbd 1e46 13bd 2aef ed3c 88ed b33d
00000010: e967 05be da6d d2bc 8576 a3bd 146f 2abe
00000020: 8f79 92bd bf99 e23d 36dc a9bc f15e 0a3e
00000030: 4b00 2fbd 8753 20be a9fa 7e3d fc2c 1b3e
00000040: 30a3 cb3d 1760 4d3d 789e 05bd 56a7 1b3e
00000050: 69b8 ec3d d367 d23d 897d 8c3d 4f35 d4bd
00000060: 0fab 0e3e 4bee 683d 91f5 7dbd d297 ca3b
00000070: 075c afbd 158c 84bd 36d0 303d 80de e23d
00000080: 87e5 0cbe e8e2 d13d ef5e e73d cfec e33c
00000090: 3e7a 483d ad58 08be fc84 2bbe f4f0 f9bd
000000a0: 0922 98bd c470 55bd 9d01 533d 39bf dcbc
000000b0: 3bf4 f33d 00da 343e 1d24 62bd 1d36 e1bd
000000c0: 1dc2 9bbd e28d 683d a4c5 a1bd d3a0 a2bd
000000d0: bd0b 193d 5d5d 603d 847e 82bd 7882 0b3e
000000e0: d85a 15be 306d ffbb 93ee 46be b498 b33d
000000f0: 72df f9bd 6490 b93d 7a2a 0e3d ea2a 9c3d
00000100: 4aa1 3c3d 62d3 9b3c beea c5bd 2310 d03d
00000110: 8122 9cbc 01d7 a7bd 99e0 ed3c 1700 ea3d
00000120: 93cd c0bd 47b5 b43d 24fd 023d 43bb 643d
00000130: d08e a03c 8cec b53c 2f85 b23c caec e63b
00000140: 84d7 103d 80a6 82bd f43e e8bc f937 9d3d
00000150: 396f 06bd 9fb0 babd c2d0 043d aca6 12be
00000160: 33d9 88bd adbd 28be 5ad8 f9bd 2a91 88bd
00000170: 9ef8 103d 3e91 1d3c 49b1 84bd e5bb b43d
00000180: c852 03be db5a 573d cac2 2ebe c697 a23c
00000190: 887a 553c daa4 3dbc c3a6 8b3d 9e5a 1e3e
000001a0: b9fe fc3d 3a7c 143e deca aebb e392 bf3c
000001b0: 8a4e babd ed67 2dbc 3972 07be a903 143e
000001c0: 4b9d 79bd 0b60 35bc ae01 3bbd 0a49 e83d
000001d0: c0cb 0f3e 8983 a0bd 239a 013e 7818 af3d
000001e0: 5a8b 28bd 7f44 a6bd f727 b6bd 2214 0d3c
000001f0: 8272 a7bc 1bb8 16be 5abb bf3d f2a9 09be
00000200: 4ce9 e03d 77b2 10be 8a93 b7bb 200f 0a3e
00000210: a240 39bd a46e 813d 2212 f03d 6284 d3bd
00000220: 7da7 95bb f4c8 87bd fbc1 c43c 1610 2e3d
00000230: a660 f73d d8a5 a2bd f8ed c4bd a66d f33c
00000240: 3ba6 8abd 1acf bebd b74e 403d ce9f f23d
00000250: 2678 ed3c 726f d53d 3801 213b 0320 943d
00000260: 383f 053e 6937 acbd ca1a 823d d8e8 23bd
00000270: 62c5 db3c 5ac5 023e 63ca 22be de56 103e
00000280: f29d 00be 9f97 083e aaa4 babd 05a6 ae3d
00000290: 8e89 5cbc 8c56 033e b4ff b93d d3c8 e3bd
000002a0: c052 f7bd f415 083e a690 fe3d b6ef cabd
000002b0: 0ee8 37be 5d4a 893d ea6c 08be 5cd8 b63d
000002c0: b364 ffbc 2427 0abe 063d 143e 8b11 893d
000002d0: 72a2 d63c 7211 a43d faad 3e3d b088 07bd
000002e0: c097 21be 5c54 c33d ffdd 2cbe 3940 273d
000002f0: bee1 07be 7915 96bd 7767 563d 89a5 b53d
00000300: 88d8 593d 4eba a53d bef7 c03d 4769 dabc
00000310: 868f 18bb 1a35 ef3b 8b75 72bc 55b7 5abd
00000320: 448e fa3d 8050 a9bd 7f7f a73d e86f fdbb
00000330: ecc5 003e 16e3 b9bd 953a 083d 7bbd 9f3d
00000340: d8ca 4b3d a205 6a3d 2e89 eb3d f102 d7bd
00000350: 5414 fb3d 05d3 223d 3f5c 04bd e1e4 e83c
00000360: 18e6 493d cae7 dbbd d71f 113d 3fec 093e
00000370: 7523 f73d 9238 ef3d eeac d33d a905 0f3d
00000380: 77f3 ecbc 476e 043e 7be4 bebc 8d83 a73d
00000390: b879 0d3d c474 ed3d 275f 4fbd d08e 14bd
000003a0: fb17 eebb 31f6 133e 21cc 883c 54bd 03bd
000003b0: 36cc 0c3e 1bbf bc3d a9ab 0bbe 1b0b adbd
000003c0: dd17 bebd 1605 25be 8c7d e93d c549 f13d
000003d0: c240 17bd 2ceb e73d 547d 343d 2b45 703c
000003e0: 0616 f4bd a765 d3bd 2ccd a33d da70 be3c
000003f0: 48b9 14be 4bc7 ef3d 9fbf 86bc 0829 fc3d
-0.10893099 -0.03595554 0.029044706 0.0878554 -0.1302792 -0.025687147 -0.0798159 -0.16643935
-0.07152092 0.11064481 -0.020734888 0.1351278 -0.04272489 -0.15656863 0.062250767 0.15153879
0.09943235 0.050140467 -0.03262183 0.15200552 0.11558611 0.10273709 0.068598814 -0.1036173
0.13932441 0.05686788 -0.06200177 0.006182649 -0.08562475 -0.06472031 0.043167315 0.11077595
-0.13759433 0.10248357 0.11297404 0.02782288 0.048944704 -0.13315077 -0.16749948 -0.12204161
-0.07428367 -0.052109495 0.05151521 -0.02694665 0.11911818 0.17661285 -0.05521022 -0.109966494
-0.076053835 0.056775935 -0.07899025 -0.07940831 0.03736471 0.05477654 -0.06371787 0.13623989
-0.14585435 -0.0077949986 -0.19426946 0.0876936 -0.12200822 0.090607435 0.034708478 0.07625373
0.046052255 0.019021694 -0.09663914 0.10159328 -0.019059421 -0.081953056 0.02903776 0.114257984
-0.0941421 0.088236384 0.031979695 0.05584265 0.019599348 0.02220752 0.021792023 0.0070472704
0.03536178 -0.063794136 -0.02835033 0.076766916 -0.032820914 -0.09115719 0.03242565 -0.14321393
-0.066820525 -0.16478606 -0.12199469 -0.06668313 0.03539335 0.009617148 -0.06479127 0.088249005
-0.12824547 0.05257688 -0.17066494 0.019847762 0.013029702 -0.011574948 0.06818917 0.15464255
0.12353272 0.14500514 -0.0053342422 0.02338547 -0.090970114 -0.01058386 -0.13227166 0.14454521
-0.060941022 -0.011070262 -0.0456559 0.11342056 0.14042568 -0.07837588 0.12656455 0.08549589
-0.04114852 -0.08118533 -0.088943414 0.008610757 -0.020440344 -0.14718668 0.09361906 -0.13443735
0.10981998 -0.14130579 -0.005602305 0.13482332 -0.045227654 0.06319931 0.117222086 -0.103279844
-0.0045670853 -0.06630126 0.024018278 0.04249581 0.12078981 -0.079417884 -0.096157014 0.02971537
-0.06769987 -0.09316845 0.04695007 0.118468866 0.028987955 0.10421647 0.0024567377 0.07232668
0.13012397 -0.08409006 0.06352766 -0.04001698 0.026827518 0.12770596 -0.15897517 0.14095637
-0.12560251 0.13339089 -0.091134384 0.085277595 -0.01346053 0.12825984 0.090819746 -0.111222886
-0.1207633 0.13289624 0.12429933 -0.099090025 -0.17959616 0.06703637 -0.13322797 0.08927986
-0.031175947 -0.13491493 0.14476404 0.06692799 0.026200507 0.0801114 0.046552636 -0.03308934
-0.15780544 0.09537575 -0.1688156 0.040832732 -0.13269708 -0.07328314 0.052344766 0.08869464
0.053185016 0.080921754 0.09422253 -0.026661528 -0.0023278906 0.0073000314 -0.014798532 -0.053397495
0.12234166 -0.08267307 0.08178615 -0.0077342875 0.12575501 -0.09076516 0.033258993 0.077998124
0.049753994 0.057134278 0.11500774 -0.10498608 0.12259737 0.039752025 -0.032314535 0.02842945
0.0492917 -0.1073757 0.035430755 0.13469027 0.1206731 0.11680712 0.10335718 0.034917507
-0.028924687 0.12932692 -0.023302307 0.08179388 0.03453991 0.11594537 -0.050627854 -0.03626901
-0.0072660423 0.14449383 0.016698899 -0.03216298 0.13749775 0.09216138 -0.13639702 -0.08449384
-0.09281895 -0.16115221 0.11400899 0.117816485 -0.036926992 0.11324152 0.044064835 0.014664928
-0.11918263 -0.10322123 0.07998118 0.023247171 -0.14523804 0.11707934 -0.016448794 0.123125136

rnn.cell.recurrent_kernel_h f4 [128, 128]
00000000: db29 3a3e 25b4 05be 121c 04be 3f4e ec3d
00000010: ba08 e9bc e10f 6c3d f976 b73d 76b0 e83d
00000020: 8759 163c 0f10 92bc bf39 ad3c 84ae fabd
00000030: 74d3 b7bb 7462 c53d 0dff c63d 899c c1bd
00000040: c513 11be db3d 2fbe 7e64 b4bd 0a2e 15be
00000050: 4cbf 8a3d 16ac 0dbe 3280 bd3d 24ac 42bd
00000060: c341 2b3c 81d7 d2bd a441 dd3c f532 7fbd
00000070: 7a36 ae3d 32a1 363e 8381 a8bb 3490 2e3e
00000080: 5d7b 613d 38de acbd b92a babd 7417 0fbe
00000090: 9e0e 823d 3292 213e f7cf 5b3d 937d 0a3c
000000a0: eba9 3b3d b5c1 24be c5ac 61bd e833 eabd
000000b0: 181e 883d e130 d83d c966 4bbd 8983 a83d
000000c0: 90af 83bd ed8d 3c3e 1328 06be da30 cbbc
000000d0: 9903 173e 647e 1139 bd52 c9bb 0591 ffbd
000000e0: 01be 0e3e fc07 eb3c 53bd ea3d 534a eabc
000000f0: be05 333d 5b35 62bc 3cca 023e 6d4a af3c
00000100: 6371 013e e775 16be 224b 023e 65f7 0a3e
00000110: 8e83 56bd a6a7 54bc e8ba f43d 7bad 2a3e
00000120: 2cba 0dbe 0835 2d3e 5f69 953d d52a 83bd
00000130: 2ef4 bd3c e197 ca3d 3fdf c7bd 4a9d 88bd
00000140: c963 c83d 311e ad3d d588 71bd 8386 f8bd
00000150: e711 2cbd 0344 fcbc 97d7 db3d 572e adbb
00000160: 706b 193e 293b 69bd 9f08 02be 3853 263d
00000170: b898 ee3c 6ad9 8fbc e745 29be 23e7 d03d
00000180: c686 f8bd 9a41 44bd 4f78 bf3d a1fa e63d
00000190: 38c5 073c 213c 6fbd 70e3 883d d459 d63d
000001a0: fe31 3bbd 3bf7 a6bd e4dd 81bd b932 7e3d
000001b0: 5869 173e 2d02 a53a 35aa 08be 10a4 51bd
000001c0: dbbd 213d 2ba1 eebd c939 863d b129 1e3e
000001d0: 5df4 00be 67b8 0a3c f8ee 353c 493b 193e
000001e0: f60f 8abd 625b 3b3c 8460 bf3d a62b 703d
000001f0: 909c 35be b45e dc3d d38d 1e3d 0891 de3d
00000200: f339 2f3d fb37 fd3d 6afd 4cbd 907a 26bd
00000210: dca1 52bd eae5 c5bc 0133 b4bd df2a df3d
00000220: 8731 013e 650b d73d 696d ccbd 4465 b1bc
00000230: 35b2 443d 83cd 053e fbaf 52bd 1d85 bb3d
00000240: ebe2 22be 4d58 c9bc 48f3 c6bd 2ab3 673d
00000250: 296a b8bc b38b bc3c 5443 c93d a339 0fbd
00000260: a1bb 2fbd 1776 b63c e750 f5bc a1b4 0c3d
00000270: 7a7c d73c a0fc ce3c 81bd 1a3e 8005 0b3e
00000280: b3ee 9cbd 0900 1b3e a2ea a5bd efa8 15bd
00000290: 845c 95bd 651e b4bd a571 4f3d 69e3 733c
000002a0: b09f f53d 7442 15be c6bf a73d 38c7 1d3c
000002b0: fa72 02be f7d5 35bc e4af b03d c27e fbbd
000002c0: 8727 413d 2125 3ebd 7254 553d 9db9 153d
000002d0: 6fd1 283c afad 613c 73f2 06be 3d48 bf3c
000002e0: 2acd dabd ddda 973d 0011 233e fd56 cdbd
000002f0: a597 b83c 243b 0d3d 61f7 a83d 24ac d3bc
00000300: 0efe 993d 38af 95bd 6d25 97bd 2b1b 013c
00000310: 7685 fa3c 3f3f 77bc 793e 06be 90ec 063d
00000320: e242 173e 4d19 3abd 5114 2dbe 6ae7 49bd
00000330: f72b 1f3e ea30 1abe 70da a73d 38c3 7a3d
00000340: 3451 e53d 57b0 5d3d b4c0 993d 8768 a6bd
00000350: 7210 f7bd 05e5 1cbd 627d c43d e0f2 35bd
00000360: 7271 95bd 6b52 c1bc 7a59 1c3d 8135 e4bd
00000370: ed8d 873d d16c 8d3d e6aa 32be a1e5 d0bd
00000380: 1337 9bbd 1e1d 71bc 3635 b33d 3f48 aa3b
00000390: bfe7 b9bc 29cb 16be ceaa 183e 5ac5 783d
000003a0: fabb a43d fd3c 8cbd 9144 ce3d 7a7e 11be
000003b0: a85a 2c3e e9d2 bbbd 4725 173e b70d 03be
000003c0: e101 18be 3d1f 16be 7cdd 823b 9c00 063e
000003d0: 156c febd e184 debd 729e 173e ae1b ecbc
000003e0: 8462 f3bd 32cc f73d 2c99 1cbe d62f 2a3d
000003f0: 0823 dfbd 8994 be3d 2dea 083e 50b0 3dbd
0.18180029 -0.13057001 -0.12901333 0.11538362 -0.028446544 0.05763233 0.08958239 0.11361782
0.009176618 -0.017829923 0.0211457 -0.122403175 -0.005609924 0.09637919 0.09716616 -0.09453685
-0.14167698 -0.1711344 -0.0880823 -0.14568344 0.06774768 -0.13835177 0.09252967 -0.047527447
0.0104526905 -0.1029501 0.027008839 -0.062304456 0.08506484 0.17834929 -0.005142392 0.17047197
0.05504929 -0.08440822 -0.0909018 -0.1397379 0.06350444 0.15778425 0.053665128 0.008452791
0.045816343 -0.16089518 -0.055096406 -0.114356816 0.06646365 0.10556198 -0.04965857 0.08228213
-0.0642997 0.18413515 -0.13101225 -0.024803568 0.14747466 0.00013875362 -0.0061438964 -0.12478832
0.13939668 0.02869033 0.11461892 -0.028599894 0.043706648 -0.013806666 0.12772459 0.021397794
0.1264091 -0.14693414 0.12723973 0.13570936 -0.052371554 -0.012979424 0.11949712 0.1666774
-0.1384055 0.16914761 0.072954886 -0.06404654 0.023187723 0.0989225 -0.09759378 -0.066706255
0.097846575 0.08453024 -0.058968384 -0.12135031 -0.04200926 -0.03079415 0.1073448 -0.005285065
0.1498239 -0.056941185 -0.12698601 0.040606707 0.029125556 -0.017559726 -0.16530572 0.10200336
-0.12135081 -0.047914125 0.09349119 0.112782724 0.008286767 -0.058406953 0.06684005 0.10466352
-0.045701973 -0.08152624 -0.063411504 0.06206009 0.14786279 0.0012589149 -0.13346179 -0.051181853
0.0394877 -0.11651834 0.065539904 0.15445592 -0.12593217 0.0084668165 0.011104338 0.14964022
-0.067413256 0.011435362 0.09344581 0.058635376 -0.17735505 0.10760251 0.038709473 0.10867506
0.042779874 0.12364193 -0.050046362 -0.04064423 -0.051423892 -0.024157483 -0.08798791 0.10896849
0.1261655 0.1050022 -0.09981806 -0.021654733 0.048021514 0.13066678 -0.05143736 0.09156249
-0.15906875 -0.024578238 -0.09714371 0.05656735 -0.022511559 0.023015833 0.09827295 -0.034967076
-0.042903546 0.022273107 -0.029945804 0.03435195 0.026304472 0.025266945 0.15111353 0.13576317
-0.07662716 0.15136732 -0.08101393 -0.03653806 -0.072930366 -0.0879486 0.05064549 0.014885762
0.119933486 -0.14576131 0.08190875 0.009630017 -0.12739173 -0.0110983765 0.086272985 -0.122800365
0.047156837 -0.046422128 0.052082486 0.036553968 0.010303839 0.01377432 -0.13178425 0.023349876
-0.10683663 0.07414792 0.15924454 -0.10026357 0.022533247 0.03448023 0.08250309 -0.025838919
0.0751916 -0.07308811 -0.07380185 0.0078800125 0.030581217 -0.015090763 -0.13109769 0.032940447
0.14771608 -0.045434285 -0.16902281 -0.04929296 0.15544115 -0.15057722 0.081959605 0.06122133
0.11197129 0.05412325 0.07507458 -0.08125406 -0.120636836 -0.038304348 0.095942274 -0.044421077
-0.072970286 -0.02359887 0.03817127 -0.111430176 0.06618867 0.06905521 -0.17448005 -0.10200048
-0.07578864 -0.014716415 0.087503836 0.0051966007 -0.022693513 -0.14725937 0.14908907 0.060735084
0.08043666 -0.0684757 0.10071672 -0.14208403 0.16831458 -0.09171087 0.14760314 -0.127982
-0.14844467 -0.14660354 0.003993688 0.1308617 -0.12422959 -0.108651884 0.14806536 -0.028821792
-0.11884025 0.12099494 -0.15292805 0.041549526 -0.108953536 0.093056746 0.13370581 -0.046310723

rnn.cell.bias_z f4 [128]
00000000: 20a2 7e25 0000 0000 0000 0000 0000 0000
00000010: 0000 0000 0000 0000 0200 0000 0000 0000
00000020: 8000 0000 0000 0000 2500 0000 0000 0000
00000030: 0000 0000 0000 0000 0000 0000 0000 0000
00000040: 0000 0000 0000 0000 2500 0000 0000 0000
00000050: 0100 0000 0000 0000 0000 0000 0000 0000
00000060: 0000 0000 0000 0000 0000 0000 0000 0000
00000070: 0000 0000 0000 0000 8012 0000 0000 0000
00000080: 0600 0100 0141 0100 0280 0000 5040 0000
00000090: d000 0000 0000 0000 a000 0000 0000 0000
000000a0: 0000 0000 3e7f 0000 0000 0000 0000 0000
000000b0: 30d4 2525 0000 0000 0000 0000 0000 0000
000000c0: 3f03 0000 0000 003f 0000 0000 0000 0000
000000d0: 001c 0000 0000 0000 8012 0000 0000 0000
000000e0: d07d 9519 0000 0000 00e4 1e70 3c7f 0000
000000f0: 0001 0000 0000 0000 a0e8 f424 0000 0000
00000100: f0cf 5526 0000 0000 0000 0000 0000 0000
00000110: 0000 0000 0000 0000 0000 0000 0000 0000
00000120: 0000 0000 0000 0000 0000 0000 0000 0000
00000130: 7001 0000 0000 0000 7000 0000 0000 0000
00000140: 000f f325 0000 0000 0000 0000 0000 0000
00000150: 0100 0000 0000 0000 0040 2170 3c7f 0000
00000160: 303a 39b8 3d7f 0000 0040 2170 3c7f 0000
00000170: 0100 35b8 3d7f 0000 0040 0000 0000 0000
00000180: 0001 0000 0000 0000 00ef 3eb8 3d7f 0000
00000190: 0000 0000 0000 0000 0000 0000 0000 0000
000001a0: 20de 2d20 0000 0000 a100 0000 0000 0000
000001b0: 7046 b321 0000 0000 0023 e724 0000 0000
000001c0: 7055 cb25 0000 0000 0000 0000 0000 0000
000001d0: 3f03 0000 0000 003f 0000 0000 0000 0000
000001e0: 0014 0000 0000 0000 8012 0000 0000 0000
000001f0: d07d 9519 0000 0000 00c0 2170 3c7f 0000
2.2085918e-16 0.0 0.0 0.0 0.0 0.0 3e-45 0.0
1.8e-43 0.0 5.2e-44 0.0 0.0 0.0 0.0 0.0
0.0 0.0 5.2e-44 0.0 1e-45 0.0 0.0 0.0
0.0 0.0 0.0 0.0 0.0 0.0 6.637e-42 0.0
9.1844e-41 1.15155e-40 4.592e-41 2.3071e-41 2.91e-43 0.0 2.24e-43 0.0
0.0 4.5646e-41 0.0 0.0 1.438336e-16 0.0 0.0 0.0
1.164e-42 0.5 0.0 0.0 1.0045e-41 0.0 6.637e-42 0.0
1.5457054e-23 0.0 1.9669707e+29 4.5643e-41 3.59e-43 0.0 1.06212214e-16 0.0
7.418103e-16 0.0 0.0 0.0 0.0 0.0 0.0 0.0
0.0 0.0 0.0 0.0 5.16e-43 0.0 1.57e-43 0.0
4.2163945e-16 0.0 0.0 0.0 1e-45 0.0 1.9961783e+29 4.5643e-41
-4.416163e-05 4.5644e-41 1.9961783e+29 4.5643e-41 -4.3153766e-05 4.5644e-41 2.2959e-41 0.0
3.59e-43 0.0 -4.5522116e-05 4.5644e-41 0.0 0.0 0.0 0.0
1.4727165e-19 0.0 2.26e-43 0.0 1.2148156e-18 0.0 1.0023957e-16 0.0
3.527278e-16 0.0 0.0 0.0 1.164e-42 0.5 0.0 0.0
7.175e-42 0.0 6.637e-42 0.0 1.5457054e-23 0.0 2.002368e+29 4.5643e-41

rnn.cell.bias_r f4 [128]
00000000: 4631 0640 d165 00c0 62ef 9abf 1057 bd3f
00000010: 5aa0 323f 25da 40bf ae90 1940 b56c 0dc0
00000020: 8e0a 5140 faf9 47c0 a312 d0bd 90a4 f03d
00000030: 6c7b a43f 0dab eabf fa33 d13f bd14 97bf
00000040: edf0 873e e87a 89be f2ba ed3f 5b6e c8bf
00000050: 30f5 91be e976 573d 9272 bc3f 0c0b edbf
00000060: 5f6c 753f 4420 0fbf ef8b ee3f 9878 07c0
00000070: c801 9fbf 2bd9 743f b214 e93f aaaf 2cc0
00000080: 6be5 1dbf a88a 843f fa1a 3840 23d2 4cc0
00000090: 5c36 c03e d82f 893d 6bd8 d6be 2162 953e
000000a0: 2186 fb3d f473 01bd b61f 1c40 3977 07c0
000000b0: 970d af3d 18c0 f03d a0bd 3ebf 1cf1 393f
000000c0: d3c0 03bf ee3f 4d3f 4d1f ae3f be91 98bf
000000d0: 3a02 3b40 8858 34c0 2c9d ef3f 7563 b8bf
000000e0: 9dd7 183f 890e 0bbf 73cd 3740 202d 26c0
000000f0: 16dd 8b3f fbf4 79bf 2e8b c13f 6600 8fbf
00000100: 7620 6abe e957 3d3f 4a0b 2a3f 08df 01bf
00000110: e6a4 1f40 6073 09c0 1d54 a8be ec37 0d3f
00000120: f754 5cbf 0581 533f ac71 c63f abbb 92bf
00000130: 9d0d 1a3e bc39 ff3d c314 67bc 0a6b cebd
00000140: 7099 1640 1196 2fc0 7d0d 603f 02bd 01be
00000150: ac5b 1f40 d700 1dc0 7ada e43f 3def 03c0
00000160: 31d6 3e40 c822 40c0 b37a 2ebf 0a28 493e
00000170: 725b 2940 5e16 1ec0 3468 6d3f fa37 59bf
00000180: fc5c 143f 692a 82bf 21c3 6fbe 99ab db3e
00000190: 1e92 0e3f 8cf2 b6be 2222 8a3f 897c b6bf
000001a0: 2c92 dcbe 5980 1a3e 7e75 9f3d 38a6 dd3d
000001b0: 7868 4dbf c866 2b3f 6f16 cc3f 811d cbbf
000001c0: 289c 0840 57ec ffbf b8b7 853e 34d6 33bf
000001d0: ed50 44be 6a40 f73e f9e0 0e3f ca98 9bbd
000001e0: 2392 87bd 7440 a53d 7566 1f40 10d3 1ac0
000001f0: f22d 213f 4ca1 14bf 2778 f23f 9747 ccbf
2.0967574 -2.0062144 -1.2104304 1.4792194 0.6977593 -0.7533286 2.3994555 -2.20976
3.2662692 -3.1246324 -0.10159805 0.11750138 1.2850165 -1.833345 1.6343987 -1.1803204
0.26551 -0.26851583 1.8572676 -1.5658678 -0.28507376 0.052603636 1.4722464 -1.8518996
0.95868486 -0.5590861 1.8636454 -2.1167355 -1.2422419 0.9564387 1.8209441 -2.6982217
-0.6167819 1.0354815 2.8766465 -3.2003257 0.37541473 0.066985786 -0.4196199 0.2917643
0.122814424 -0.031604722 2.4394355 -2.1166518 0.08547514 0.11755389 -0.74508095 0.7263353
-0.514661 0.80175674 1.3603302 -1.1919477 2.922011 -2.8179035 1.871984 -1.4405352
0.59704 -0.54319054 2.8719146 -2.5965042 1.0926845 -0.97639436 1.5120599 -1.1171997
-0.22863945 0.73962265 0.66423476 -0.50730944 2.4944396 -2.147667 -0.32876673 0.55163455
-0.86067146 0.82618743 1.550344 -1.1463522 0.15044256 0.12462184 -0.014104071 -0.1007901
2.353115 -2.7435343 0.8752058 -0.12669757 2.4899702 -2.4531763 1.7879174 -2.061477
2.9818232 -3.0021229 -0.68155974 0.1964418 2.6462064 -2.4701152 0.92737126 -0.8485104
0.5795438 -1.0169193 -0.2341428 0.42904356 0.5569171 -0.35731924 1.0791667 -1.4256755
-0.4308027 0.15088023 0.07786082 0.10822719 -0.8023753 0.66953707 1.5944346 -1.5868379
2.134531 -1.9994 0.2611673 -0.70248723 -0.19171496 0.48291332 0.5581203 -0.075975016
-0.0661967 0.08068934 2.4906285 -2.4191322 0.6296073 -0.5805862 1.8942918 -1.5959347

rnn.cell.bias_h f4 [128]
00000000: 50af 5f0c 3e7f 0000 6000 d625 0000 0000
00000010: 0000 0000 0000 0000 0000 0000 0000 0000
00000020: 0000 0000 0000 0000 0000 0000 0000 0000
00000030: 0000 0000 0000 0000 0000 0000 0000 0000
00000040: 0000 0000 0000 0000 0000 0000 0000 0000
00000050: 0000 0000 0000 0000 0000 0000 0000 0000
00000060: 0000 0000 0000 0000 0000 0000 0000 0000
00000070: 0000 0000 0000 0000 0000 0000 0000 0000
00000080: 0000 0000 0000 0000 0000 0000 0000 0000
00000090: 0000 0000 0000 0000 0000 0000 0000 0000
000000a0: 0000 0000 0000 0000 0000 0000 0000 0000
000000b0: 0000 0000 0000 0000 0000 0000 0000 0000
000000c0: 0000 0000 0000 0000 0000 0000 0000 0000
000000d0: 0000 0000 0000 0000 0000 0000 0000 0000
000000e0: 0000 0000 0000 0000 0000 0000 0000 0000
000000f0: 0000 0000 0000 0000 0000 0000 0000 0000
00000100: 0000 0000 0000 0000 0000 0000 0000 0000
00000110: 0000 0000 0000 0000 0000 0000 0000 0000
00000120: 0000 0000 0000 0000 0000 0000 0000 0000
00000130: 0000 0000 0000 0000 0000 0000 0000 0000
00000140: 0000 0000 0000 0000 0000 0000 0000 0000
00000150: 0000 0000 0000 0000 0000 0001 0000 0000
00000160: 0000 0000 0000 0000 0000 0000 0000 0000
00000170: 0000 0000 0000 0000 0000 0000 0000 0000
00000180: 0000 0000 0000 0000 0000 0000 0000 0000
00000190: 0000 0000 0000 0000 0000 0000 0000 0000
000001a0: 0000 0000 0000 0000 0000 0000 0000 0000
000001b0: 0000 0000 0000 0000 0000 0000 0000 0000
000001c0: 0000 0000 0000 0000 0000 0000 0000 0000
000001d0: 0000 0000 0000 0000 0000 0000 0000 0000
000001e0: 0000 0000 0000 0000 0000 0000 0000 0000
000001f0: 0000 0000 0000 0000 0000 0000 0000 0000
1.7232051e-31 4.5646e-41 3.7123336e-16 0.0 0.0 0.0 0.0 0.0
0.0 0.0 0.0 0.0 0.0 0.0 0.0 0.0
0.0 0.0 0.0 0.0 0.0 0.0 0.0 0.0
0.0 0.0 0.0 0.0 0.0 0.0 0.0 0.0
0.0 0.0 0.0 0.0 0.0 0.0 0.0 0.0
0.0 0.0 0.0 0.0 0.0 0.0 0.0 0.0
0.0 0.0 0.0 0.0 0.0 0.0 0.0 0.0
0.0 0.0 0.0 0.0 0.0 0.0 0.0 0.0
0.0 0.0 0.0 0.0 0.0 0.0 0.0 0.0
0.0 0.0 0.0 0.0 0.0 0.0 0.0 0.0
0.0 0.0 0.0 0.0 0.0 0.0 2.3509887e-38 0.0
0.0 0.0 0.0 0.0 0.0 0.0 0.0 0.0
0.0 0.0 0.0 0.0 0.0 0.0 0.0 0.0
0.0 0.0 0.0 0.0 0.0 0.0 0.0 0.0
0.0 0.0 0.0 0.0 0.0 0.0 0.0 0.0
0.0 0.0 0.0 0.0 0.0 0.0 0.0 0.0

rnn.cell.input_decay_kernel f4 [37]
00000000: 0000 0000 0000 0000 0000 0000 0000 0000
00000010: 0000 0000 0000 0000 0000 0000 0000 0000
00000020: 0000 0000 0000 0000 0000 0000 0000 0000
00000030: 0000 0000 0000 0000 0000 0000 0000 0000
00000040: 0000 0000 0000 0000 0000 0000 0000 0000
00000050: 0000 0000 0000 0000 0000 0000 0000 0000
00000060: 0000 0000 0000 0000 0000 0000 0000 0000
00000070: 0000 0000 0000 0000 0000 0000 0000 0000
00000080: 0000 0000 0000 0000 0000 0000 0000 0000
00000090: 0000 0000
0.0 0.0 0.0 0.0 0.0 0.0 0.0 0.0
0.0 0.0 0.0 0.0 0.0 0.0 0.0 0.0
0.0 0.0 0.0 0.0 0.0 0.0 0.0 0.0
0.0 0.0 0.0 0.0 0.0 0.0 0.0 0.0
0.0 0.0 0.0 0.0 0.0

rnn.cell.input_decay_bias f4 [37]
00000000: 0000 0000 0000 0000 0000 0000 0000 0000
00000010: 0000 0000 0000 0000 0000 0000 0000 0000
00000020: 0000 0000 0000 0000 0000 0000 0000 0000
00000030: 0000 0000 0000 0000 0000 0000 0000 0000
00000040: 0000 0000 0000 0000 0000 0000 0000 0000
00000050: 0000 0000 0000 0000 0000 0000 0000 0000
00000060: 0000 0000 0000 0000 0000 0000 0000 0000
00000070: 0000 0000 0000 0000 0000 0000 0000 0000
00000080: 0000 0000 0000 0000 0000 0000 0000 0000
00000090: 0000 0000
0.0 0.0 0.0 0.0 0.0 0.0 0.0 0.0
0.0 0.0 0.0 0.0 0.0 0.0 0.0 0.0
0.0 0.0 0.0 0.0 0.0 0.0 0.0 0.0
0.0 0.0 0.0 0.0 0.0 0.0 0.0 0.0
0.0 0.0 0.0 0.0 0.0
